train row : 30148
sample row: 30148
VGAN_generator(
  (input): Linear(in_features=128, out_features=300, bias=True)
  (inputbn): BatchNorm1d(300, eps=1e-05, momentum=0.1, affine=True, track_running_stats=True)
  (fc0): Linear(in_features=300, out_features=300, bias=True)
  (bn0): BatchNorm1d(300, eps=1e-05, momentum=0.1, affine=True, track_running_stats=True)
  (fc1): Linear(in_features=300, out_features=300, bias=True)
  (bn1): BatchNorm1d(300, eps=1e-05, momentum=0.1, affine=True, track_running_stats=True)
  (fc2): Linear(in_features=300, out_features=300, bias=True)
  (bn2): BatchNorm1d(300, eps=1e-05, momentum=0.1, affine=True, track_running_stats=True)
  (output): Linear(in_features=300, out_features=105, bias=True)
  (outputbn): BatchNorm1d(105, eps=1e-05, momentum=0.1, affine=True, track_running_stats=True)
)
VGAN_discriminator(
  (input): Linear(in_features=105, out_features=100, bias=True)
  (Dropout): Dropout(p=0.5, inplace=False)
  (fc0): Linear(in_features=100, out_features=100, bias=True)
  (output): Linear(in_features=100, out_features=1, bias=True)
)
(0, False, 105)
-----------Epoch 0-----------
iterator 100, D_Loss:0.6406540274620056, G_Loss:5.9167280197143555

iterator 200, D_Loss:0.5922768115997314, G_Loss:7.161771774291992

iterator 300, D_Loss:0.6035172343254089, G_Loss:6.829960823059082

iterator 400, D_Loss:0.6195234060287476, G_Loss:6.038949966430664

iterator 500, D_Loss:0.6193972826004028, G_Loss:5.484425067901611
…
iterator 4200, D_Loss:1.3073909282684326, G_Loss:0.9955596923828125

iterator 4300, D_Loss:1.3272981643676758, G_Loss:1.0257654190063477

iterator 4400, D_Loss:1.2794634103775024, G_Loss:1.034480333328247

iterator 4500, D_Loss:1.300304889678955, G_Loss:1.0080592632293701

iterator 4600, D_Loss:1.2845008373260498, G_Loss:1.0472134351730347

iterator 4700, D_Loss:1.302969217300415, G_Loss:1.01054048538208

iterator 4800, D_Loss:1.304842233657837, G_Loss:1.035070776939392

iterator 4900, D_Loss:1.2728807926177979, G_Loss:1.028939127922058

iterator 5000, D_Loss:1.3136063814163208, G_Loss:1.1236389875411987

VGAN_generator(
  (input): Linear(in_features=128, out_features=200, bias=True)
  (inputbn): BatchNorm1d(200, eps=1e-05, momentum=0.1, affine=True, track_running_stats=True)
  (fc0): Linear(in_features=200, out_features=200, bias=True)
  (bn0): BatchNorm1d(200, eps=1e-05, momentum=0.1, affine=True, track_running_stats=True)
  (fc1): Linear(in_features=200, out_features=200, bias=True)
  (bn1): BatchNorm1d(200, eps=1e-05, momentum=0.1, affine=True, track_running_stats=True)
  (fc2): Linear(in_features=200, out_features=200, bias=True)
  (bn2): BatchNorm1d(200, eps=1e-05, momentum=0.1, affine=True, track_running_stats=True)
  (output): Linear(in_features=200, out_features=105, bias=True)
  (outputbn): BatchNorm1d(105, eps=1e-05, momentum=0.1, affine=True, track_running_stats=True)
)
VGAN_discriminator(
  (input): Linear(in_features=105, out_features=400, bias=True)
  (Dropout): Dropout(p=0.5, inplace=False)
  (fc0): Linear(in_features=400, out_features=400, bias=True)
  (fc1): Linear(in_features=400, out_features=400, bias=True)
  (fc2): Linear(in_features=400, out_features=400, bias=True)
  (output): Linear(in_features=400, out_features=1, bias=True)
)
(0, False, 105)
-----------Epoch 0-----------
iterator 100, D_Loss:0.557563841342926, G_Loss:8.980863571166992

iterator 200, D_Loss:0.5023829340934753, G_Loss:12.590222358703613

iterator 300, D_Loss:0.45524951815605164, G_Loss:10.706720352172852

iterator 400, D_Loss:0.45808860659599304, G_Loss:9.769940376281738

iterator 500, D_Loss:0.4698917865753174, G_Loss:8.320889472961426
…
iterator 4300, D_Loss:0.9488488435745239, G_Loss:2.1204216480255127

iterator 4400, D_Loss:0.9834948182106018, G_Loss:2.0473432540893555

iterator 4500, D_Loss:0.9030272960662842, G_Loss:1.9169349670410156

iterator 4600, D_Loss:1.011007308959961, G_Loss:1.9966661930084229

iterator 4700, D_Loss:0.962326169013977, G_Loss:1.9175851345062256

iterator 4800, D_Loss:0.9751704931259155, G_Loss:1.8426097631454468

iterator 4900, D_Loss:0.9696725606918335, G_Loss:1.9955395460128784

iterator 5000, D_Loss:1.0109553337097168, G_Loss:1.955735445022583

train row : 30148
sample row: 30148
VGAN_generator(
  (input): Linear(in_features=256, out_features=400, bias=True)
  (inputbn): BatchNorm1d(400, eps=1e-05, momentum=0.1, affine=True, track_running_stats=True)
  (fc0): Linear(in_features=400, out_features=400, bias=True)
  (bn0): BatchNorm1d(400, eps=1e-05, momentum=0.1, affine=True, track_running_stats=True)
  (output): Linear(in_features=400, out_features=15, bias=True)
  (outputbn): BatchNorm1d(15, eps=1e-05, momentum=0.1, affine=True, track_running_stats=True)
)
VGAN_discriminator(
  (input): Linear(in_features=15, out_features=300, bias=True)
  (Dropout): Dropout(p=0.5, inplace=False)
  (fc0): Linear(in_features=300, out_features=300, bias=True)
  (fc1): Linear(in_features=300, out_features=300, bias=True)
  (output): Linear(in_features=300, out_features=1, bias=True)
)
(0, False, 15)
-----------Epoch 0-----------
iterator 100, D_Loss:0.6983317136764526, G_Loss:2.9576992988586426

iterator 200, D_Loss:0.719694197177887, G_Loss:4.1873087882995605

iterator 300, D_Loss:0.6252126097679138, G_Loss:5.135061264038086

iterator 400, D_Loss:0.606343686580658, G_Loss:6.022994518280029

iterator 500, D_Loss:0.5266717076301575, G_Loss:6.710752010345459
…
iterator 4200, D_Loss:0.8213902711868286, G_Loss:2.700810432434082

iterator 4300, D_Loss:0.8514356017112732, G_Loss:2.3814730644226074

iterator 4400, D_Loss:0.8566592931747437, G_Loss:2.795419931411743

iterator 4500, D_Loss:0.777415931224823, G_Loss:2.69136118888855

iterator 4600, D_Loss:0.7416231036186218, G_Loss:2.6143887042999268

iterator 4700, D_Loss:0.7959105372428894, G_Loss:2.518712282180786

iterator 4800, D_Loss:0.755231499671936, G_Loss:2.59203839302063

iterator 4900, D_Loss:0.7956477403640747, G_Loss:2.508831024169922

iterator 5000, D_Loss:0.790800929069519, G_Loss:2.7619025707244873

VGAN_generator(
  (input): Linear(in_features=128, out_features=200, bias=True)
  (inputbn): BatchNorm1d(200, eps=1e-05, momentum=0.1, affine=True, track_running_stats=True)
  (fc0): Linear(in_features=200, out_features=200, bias=True)
  (bn0): BatchNorm1d(200, eps=1e-05, momentum=0.1, affine=True, track_running_stats=True)
  (fc1): Linear(in_features=200, out_features=200, bias=True)
  (bn1): BatchNorm1d(200, eps=1e-05, momentum=0.1, affine=True, track_running_stats=True)
  (fc2): Linear(in_features=200, out_features=200, bias=True)
  (bn2): BatchNorm1d(200, eps=1e-05, momentum=0.1, affine=True, track_running_stats=True)
  (output): Linear(in_features=200, out_features=15, bias=True)
  (outputbn): BatchNorm1d(15, eps=1e-05, momentum=0.1, affine=True, track_running_stats=True)
)
VGAN_discriminator(
  (input): Linear(in_features=15, out_features=200, bias=True)
  (Dropout): Dropout(p=0.5, inplace=False)
  (fc0): Linear(in_features=200, out_features=200, bias=True)
  (fc1): Linear(in_features=200, out_features=200, bias=True)
  (output): Linear(in_features=200, out_features=1, bias=True)
)
(0, False, 15)
-----------Epoch 0-----------
iterator 100, D_Loss:0.7900684475898743, G_Loss:3.414590835571289

iterator 200, D_Loss:0.6221651434898376, G_Loss:4.809288024902344

iterator 300, D_Loss:0.5642696022987366, G_Loss:5.811757564544678

iterator 400, D_Loss:0.552788496017456, G_Loss:6.384786605834961

iterator 500, D_Loss:0.5165613293647766, G_Loss:6.593930244445801
…
iterator 4300, D_Loss:0.9467472434043884, G_Loss:2.0479438304901123

iterator 4400, D_Loss:0.9467111825942993, G_Loss:2.0155506134033203

iterator 4500, D_Loss:0.9009989500045776, G_Loss:2.000934362411499

iterator 4600, D_Loss:0.9331233501434326, G_Loss:2.1833853721618652

iterator 4700, D_Loss:0.9173399806022644, G_Loss:1.9494705200195312

iterator 4800, D_Loss:0.9270365238189697, G_Loss:2.063748598098755

iterator 4900, D_Loss:0.9466339349746704, G_Loss:2.0817670822143555

iterator 5000, D_Loss:0.9108625650405884, G_Loss:2.189605712890625

train row : 30148
sample row: 30148
VGAN_generator(
  (input): Linear(in_features=128, out_features=100, bias=True)
  (inputbn): BatchNorm1d(100, eps=1e-05, momentum=0.1, affine=True, track_running_stats=True)
  (fc0): Linear(in_features=100, out_features=100, bias=True)
  (bn0): BatchNorm1d(100, eps=1e-05, momentum=0.1, affine=True, track_running_stats=True)
  (fc1): Linear(in_features=100, out_features=100, bias=True)
  (bn1): BatchNorm1d(100, eps=1e-05, momentum=0.1, affine=True, track_running_stats=True)
  (output): Linear(in_features=100, out_features=135, bias=True)
  (outputbn): BatchNorm1d(135, eps=1e-05, momentum=0.1, affine=True, track_running_stats=True)
)
VGAN_discriminator(
  (input): Linear(in_features=135, out_features=300, bias=True)
  (Dropout): Dropout(p=0.5, inplace=False)
  (fc0): Linear(in_features=300, out_features=300, bias=True)
  (output): Linear(in_features=300, out_features=1, bias=True)
)
(0, False, 135)
-----------Epoch 0-----------
iterator 100, D_Loss:0.5583934783935547, G_Loss:8.962247848510742

iterator 200, D_Loss:0.4740171432495117, G_Loss:8.941946029663086

iterator 300, D_Loss:0.4891031086444855, G_Loss:8.5477294921875

iterator 400, D_Loss:0.43950361013412476, G_Loss:8.234001159667969

iterator 500, D_Loss:0.47992801666259766, G_Loss:8.340229988098145
…
iterator 4200, D_Loss:0.8065663576126099, G_Loss:3.6589064598083496

iterator 4300, D_Loss:0.8529391288757324, G_Loss:3.1037275791168213

iterator 4400, D_Loss:0.8994745016098022, G_Loss:3.3269033432006836

iterator 4500, D_Loss:0.7427728772163391, G_Loss:3.175976514816284

iterator 4600, D_Loss:0.7699078917503357, G_Loss:3.3151333332061768

iterator 4700, D_Loss:0.951263427734375, G_Loss:3.011925220489502

iterator 4800, D_Loss:0.7489688992500305, G_Loss:2.9957592487335205

iterator 4900, D_Loss:0.7917753458023071, G_Loss:3.043043851852417

iterator 5000, D_Loss:0.8306067585945129, G_Loss:3.370914936065674

VGAN_generator(
  (input): Linear(in_features=128, out_features=200, bias=True)
  (inputbn): BatchNorm1d(200, eps=1e-05, momentum=0.1, affine=True, track_running_stats=True)
  (fc0): Linear(in_features=200, out_features=200, bias=True)
  (bn0): BatchNorm1d(200, eps=1e-05, momentum=0.1, affine=True, track_running_stats=True)
  (output): Linear(in_features=200, out_features=135, bias=True)
  (outputbn): BatchNorm1d(135, eps=1e-05, momentum=0.1, affine=True, track_running_stats=True)
)
VGAN_discriminator(
  (input): Linear(in_features=135, out_features=100, bias=True)
  (Dropout): Dropout(p=0.5, inplace=False)
  (fc0): Linear(in_features=100, out_features=100, bias=True)
  (fc1): Linear(in_features=100, out_features=100, bias=True)
  (fc2): Linear(in_features=100, out_features=100, bias=True)
  (output): Linear(in_features=100, out_features=1, bias=True)
)
(0, False, 135)
-----------Epoch 0-----------
iterator 100, D_Loss:0.6087153553962708, G_Loss:9.299911499023438

iterator 200, D_Loss:0.5108622908592224, G_Loss:9.420340538024902

iterator 300, D_Loss:0.5210214853286743, G_Loss:7.654989242553711

iterator 400, D_Loss:0.5047786235809326, G_Loss:7.363274574279785

iterator 500, D_Loss:0.5522260665893555, G_Loss:8.132048606872559
…
iterator 4300, D_Loss:1.1390528678894043, G_Loss:1.6773221492767334

iterator 4400, D_Loss:1.1433093547821045, G_Loss:1.6464557647705078

iterator 4500, D_Loss:1.1259801387786865, G_Loss:1.7316731214523315

iterator 4600, D_Loss:1.0570082664489746, G_Loss:1.5810623168945312

iterator 4700, D_Loss:1.211632251739502, G_Loss:1.5341976881027222

iterator 4800, D_Loss:1.1399098634719849, G_Loss:1.6932637691497803

iterator 4900, D_Loss:1.0634526014328003, G_Loss:1.6664981842041016

iterator 5000, D_Loss:1.1038497686386108, G_Loss:1.6873009204864502

train row : 30148
sample row: 30148
VGAN_generator(
  (input): Linear(in_features=128, out_features=100, bias=True)
  (inputbn): BatchNorm1d(100, eps=1e-05, momentum=0.1, affine=True, track_running_stats=True)
  (fc0): Linear(in_features=100, out_features=100, bias=True)
  (bn0): BatchNorm1d(100, eps=1e-05, momentum=0.1, affine=True, track_running_stats=True)
  (output): Linear(in_features=100, out_features=45, bias=True)
  (outputbn): BatchNorm1d(45, eps=1e-05, momentum=0.1, affine=True, track_running_stats=True)
)
VGAN_discriminator(
  (input): Linear(in_features=45, out_features=400, bias=True)
  (Dropout): Dropout(p=0.5, inplace=False)
  (fc0): Linear(in_features=400, out_features=400, bias=True)
  (output): Linear(in_features=400, out_features=1, bias=True)
)
(0, False, 45)
-----------Epoch 0-----------
iterator 100, D_Loss:0.591221809387207, G_Loss:9.146547317504883

iterator 200, D_Loss:0.5368943810462952, G_Loss:7.917807579040527

iterator 300, D_Loss:0.4852428436279297, G_Loss:8.532927513122559

iterator 400, D_Loss:0.4683663249015808, G_Loss:9.184212684631348

iterator 500, D_Loss:0.45229583978652954, G_Loss:10.894819259643555
…
iterator 4200, D_Loss:0.6246857643127441, G_Loss:4.659280300140381

iterator 4300, D_Loss:0.649482011795044, G_Loss:5.244085788726807

iterator 4400, D_Loss:0.6239165663719177, G_Loss:3.7773964405059814

iterator 4500, D_Loss:0.6592556238174438, G_Loss:4.504708290100098

iterator 4600, D_Loss:0.6369808316230774, G_Loss:4.690707683563232

iterator 4700, D_Loss:0.6730660200119019, G_Loss:4.786681652069092

iterator 4800, D_Loss:0.683047354221344, G_Loss:4.998644828796387

iterator 4900, D_Loss:0.6042085886001587, G_Loss:3.8274009227752686

iterator 5000, D_Loss:0.6548545360565186, G_Loss:4.279157638549805

VGAN_generator(
  (input): Linear(in_features=128, out_features=300, bias=True)
  (inputbn): BatchNorm1d(300, eps=1e-05, momentum=0.1, affine=True, track_running_stats=True)
  (fc0): Linear(in_features=300, out_features=300, bias=True)
  (bn0): BatchNorm1d(300, eps=1e-05, momentum=0.1, affine=True, track_running_stats=True)
  (fc1): Linear(in_features=300, out_features=300, bias=True)
  (bn1): BatchNorm1d(300, eps=1e-05, momentum=0.1, affine=True, track_running_stats=True)
  (output): Linear(in_features=300, out_features=45, bias=True)
  (outputbn): BatchNorm1d(45, eps=1e-05, momentum=0.1, affine=True, track_running_stats=True)
)
VGAN_discriminator(
  (input): Linear(in_features=45, out_features=100, bias=True)
  (Dropout): Dropout(p=0.5, inplace=False)
  (fc0): Linear(in_features=100, out_features=100, bias=True)
  (output): Linear(in_features=100, out_features=1, bias=True)
)
(0, False, 45)
-----------Epoch 0-----------
iterator 100, D_Loss:1.098929762840271, G_Loss:6.675759792327881

iterator 200, D_Loss:0.6857707500457764, G_Loss:6.366072177886963

iterator 300, D_Loss:0.6056662201881409, G_Loss:6.597084999084473

iterator 400, D_Loss:0.5896742343902588, G_Loss:7.2866315841674805

iterator 500, D_Loss:0.6042817234992981, G_Loss:8.632875442504883
…
iterator 4300, D_Loss:0.9149569272994995, G_Loss:2.6627449989318848

iterator 4400, D_Loss:0.8855473399162292, G_Loss:2.4628171920776367

iterator 4500, D_Loss:0.7938352823257446, G_Loss:2.7315573692321777

iterator 4600, D_Loss:0.8096815347671509, G_Loss:2.7175774574279785

iterator 4700, D_Loss:0.8489673137664795, G_Loss:2.23966908454895

iterator 4800, D_Loss:0.8346239328384399, G_Loss:2.683380365371704

iterator 4900, D_Loss:0.828105092048645, G_Loss:2.6070399284362793

iterator 5000, D_Loss:0.7943896055221558, G_Loss:2.303537368774414

train row : 30148
sample row: 30148
LGAN_generator(
  (LSTM): LSTMCell(700, 300)
  (gmfc00): Linear(in_features=300, out_features=1, bias=True)
  (gmfc01): Linear(in_features=300, out_features=5, bias=True)
  (gmfc02): Linear(in_features=5, out_features=300, bias=True)
  (gmfe00): Linear(in_features=300, out_features=300, bias=True)
  (gmfe01): Linear(in_features=300, out_features=300, bias=True)
  (fc10): Linear(in_features=300, out_features=7, bias=True)
  (fc11): Linear(in_features=7, out_features=300, bias=True)
  (fe1): Linear(in_features=300, out_features=300, bias=True)
  (gmfc20): Linear(in_features=300, out_features=1, bias=True)
  (gmfc21): Linear(in_features=300, out_features=5, bias=True)
  (gmfc22): Linear(in_features=5, out_features=300, bias=True)
  (gmfe20): Linear(in_features=300, out_features=300, bias=True)
  (gmfe21): Linear(in_features=300, out_features=300, bias=True)
  (fc30): Linear(in_features=300, out_features=16, bias=True)
  (fc31): Linear(in_features=16, out_features=300, bias=True)
  (fe3): Linear(in_features=300, out_features=300, bias=True)
  (gmfc40): Linear(in_features=300, out_features=1, bias=True)
  (gmfc41): Linear(in_features=300, out_features=5, bias=True)
  (gmfc42): Linear(in_features=5, out_features=300, bias=True)
  (gmfe40): Linear(in_features=300, out_features=300, bias=True)
  (gmfe41): Linear(in_features=300, out_features=300, bias=True)
  (fc50): Linear(in_features=300, out_features=7, bias=True)
  (fc51): Linear(in_features=7, out_features=300, bias=True)
  (fe5): Linear(in_features=300, out_features=300, bias=True)
  (fc60): Linear(in_features=300, out_features=14, bias=True)
  (fc61): Linear(in_features=14, out_features=300, bias=True)
  (fe6): Linear(in_features=300, out_features=300, bias=True)
  (fc70): Linear(in_features=300, out_features=6, bias=True)
  (fc71): Linear(in_features=6, out_features=300, bias=True)
  (fe7): Linear(in_features=300, out_features=300, bias=True)
  (fc80): Linear(in_features=300, out_features=5, bias=True)
  (fc81): Linear(in_features=5, out_features=300, bias=True)
  (fe8): Linear(in_features=300, out_features=300, bias=True)
  (fc90): Linear(in_features=300, out_features=2, bias=True)
  (fc91): Linear(in_features=2, out_features=300, bias=True)
  (fe9): Linear(in_features=300, out_features=300, bias=True)
  (gmfc100): Linear(in_features=300, out_features=1, bias=True)
  (gmfc101): Linear(in_features=300, out_features=5, bias=True)
  (gmfc102): Linear(in_features=5, out_features=300, bias=True)
  (gmfe100): Linear(in_features=300, out_features=300, bias=True)
  (gmfe101): Linear(in_features=300, out_features=300, bias=True)
  (gmfc110): Linear(in_features=300, out_features=1, bias=True)
  (gmfc111): Linear(in_features=300, out_features=5, bias=True)
  (gmfc112): Linear(in_features=5, out_features=300, bias=True)
  (gmfe110): Linear(in_features=300, out_features=300, bias=True)
  (gmfe111): Linear(in_features=300, out_features=300, bias=True)
  (gmfc120): Linear(in_features=300, out_features=1, bias=True)
  (gmfc121): Linear(in_features=300, out_features=5, bias=True)
  (gmfc122): Linear(in_features=5, out_features=300, bias=True)
  (gmfe120): Linear(in_features=300, out_features=300, bias=True)
  (gmfe121): Linear(in_features=300, out_features=300, bias=True)
  (fc130): Linear(in_features=300, out_features=40, bias=True)
  (fc131): Linear(in_features=40, out_features=300, bias=True)
  (fe13): Linear(in_features=300, out_features=300, bias=True)
  (fc140): Linear(in_features=300, out_features=2, bias=True)
  (fc141): Linear(in_features=2, out_features=300, bias=True)
  (fe14): Linear(in_features=300, out_features=300, bias=True)
)
LGAN_discriminator(
  (Dropout): Dropout(p=0.5, inplace=False)
  (input): Linear(in_features=135, out_features=300, bias=True)
  (inputbn): BatchNorm1d(300, eps=1e-05, momentum=0.1, affine=True, track_running_stats=True)
  (fc0): Linear(in_features=300, out_features=300, bias=True)
  (bn0): BatchNorm1d(300, eps=1e-05, momentum=0.1, affine=True, track_running_stats=True)
  (fc1): Linear(in_features=300, out_features=300, bias=True)
  (bn1): BatchNorm1d(300, eps=1e-05, momentum=0.1, affine=True, track_running_stats=True)
  (fc2): Linear(in_features=300, out_features=300, bias=True)
  (bn2): BatchNorm1d(300, eps=1e-05, momentum=0.1, affine=True, track_running_stats=True)
  (output): Linear(in_features=300, out_features=1, bias=True)
)
(0, False, 135)
-----------Epoch 0-----------
iterator 100, D_Loss:1.3915011882781982, G_Loss:1.178507924079895

iterator 200, D_Loss:1.4171653985977173, G_Loss:1.1005460023880005

iterator 300, D_Loss:1.3976788520812988, G_Loss:1.1102280616760254

iterator 400, D_Loss:1.3803735971450806, G_Loss:1.0944604873657227

iterator 500, D_Loss:1.3958487510681152, G_Loss:1.0870693922042847
…
iterator 4300, D_Loss:0.4367499351501465, G_Loss:12.848081588745117

iterator 4400, D_Loss:0.4601169228553772, G_Loss:14.88064956665039

iterator 4500, D_Loss:0.4350399076938629, G_Loss:15.034483909606934

iterator 4600, D_Loss:0.4069828391075134, G_Loss:14.189059257507324

iterator 4700, D_Loss:0.4112483263015747, G_Loss:14.69972038269043

iterator 4800, D_Loss:0.41875705122947693, G_Loss:14.577383995056152

iterator 4900, D_Loss:0.4145534634590149, G_Loss:13.509323120117188

iterator 5000, D_Loss:0.44989848136901855, G_Loss:15.938072204589844

LGAN_generator(
  (LSTM): LSTMCell(700, 200)
  (gmfc00): Linear(in_features=300, out_features=1, bias=True)
  (gmfc01): Linear(in_features=300, out_features=5, bias=True)
  (gmfc02): Linear(in_features=5, out_features=300, bias=True)
  (gmfe00): Linear(in_features=200, out_features=300, bias=True)
  (gmfe01): Linear(in_features=200, out_features=300, bias=True)
  (fc10): Linear(in_features=300, out_features=7, bias=True)
  (fc11): Linear(in_features=7, out_features=300, bias=True)
  (fe1): Linear(in_features=200, out_features=300, bias=True)
  (gmfc20): Linear(in_features=300, out_features=1, bias=True)
  (gmfc21): Linear(in_features=300, out_features=5, bias=True)
  (gmfc22): Linear(in_features=5, out_features=300, bias=True)
  (gmfe20): Linear(in_features=200, out_features=300, bias=True)
  (gmfe21): Linear(in_features=200, out_features=300, bias=True)
  (fc30): Linear(in_features=300, out_features=16, bias=True)
  (fc31): Linear(in_features=16, out_features=300, bias=True)
  (fe3): Linear(in_features=200, out_features=300, bias=True)
  (gmfc40): Linear(in_features=300, out_features=1, bias=True)
  (gmfc41): Linear(in_features=300, out_features=5, bias=True)
  (gmfc42): Linear(in_features=5, out_features=300, bias=True)
  (gmfe40): Linear(in_features=200, out_features=300, bias=True)
  (gmfe41): Linear(in_features=200, out_features=300, bias=True)
  (fc50): Linear(in_features=300, out_features=7, bias=True)
  (fc51): Linear(in_features=7, out_features=300, bias=True)
  (fe5): Linear(in_features=200, out_features=300, bias=True)
  (fc60): Linear(in_features=300, out_features=14, bias=True)
  (fc61): Linear(in_features=14, out_features=300, bias=True)
  (fe6): Linear(in_features=200, out_features=300, bias=True)
  (fc70): Linear(in_features=300, out_features=6, bias=True)
  (fc71): Linear(in_features=6, out_features=300, bias=True)
  (fe7): Linear(in_features=200, out_features=300, bias=True)
  (fc80): Linear(in_features=300, out_features=5, bias=True)
  (fc81): Linear(in_features=5, out_features=300, bias=True)
  (fe8): Linear(in_features=200, out_features=300, bias=True)
  (fc90): Linear(in_features=300, out_features=2, bias=True)
  (fc91): Linear(in_features=2, out_features=300, bias=True)
  (fe9): Linear(in_features=200, out_features=300, bias=True)
  (gmfc100): Linear(in_features=300, out_features=1, bias=True)
  (gmfc101): Linear(in_features=300, out_features=5, bias=True)
  (gmfc102): Linear(in_features=5, out_features=300, bias=True)
  (gmfe100): Linear(in_features=200, out_features=300, bias=True)
  (gmfe101): Linear(in_features=200, out_features=300, bias=True)
  (gmfc110): Linear(in_features=300, out_features=1, bias=True)
  (gmfc111): Linear(in_features=300, out_features=5, bias=True)
  (gmfc112): Linear(in_features=5, out_features=300, bias=True)
  (gmfe110): Linear(in_features=200, out_features=300, bias=True)
  (gmfe111): Linear(in_features=200, out_features=300, bias=True)
  (gmfc120): Linear(in_features=300, out_features=1, bias=True)
  (gmfc121): Linear(in_features=300, out_features=5, bias=True)
  (gmfc122): Linear(in_features=5, out_features=300, bias=True)
  (gmfe120): Linear(in_features=200, out_features=300, bias=True)
  (gmfe121): Linear(in_features=200, out_features=300, bias=True)
  (fc130): Linear(in_features=300, out_features=40, bias=True)
  (fc131): Linear(in_features=40, out_features=300, bias=True)
  (fe13): Linear(in_features=200, out_features=300, bias=True)
  (fc140): Linear(in_features=300, out_features=2, bias=True)
  (fc141): Linear(in_features=2, out_features=300, bias=True)
  (fe14): Linear(in_features=200, out_features=300, bias=True)
)
LGAN_discriminator(
  (Dropout): Dropout(p=0.5, inplace=False)
  (input): Linear(in_features=135, out_features=400, bias=True)
  (inputbn): BatchNorm1d(400, eps=1e-05, momentum=0.1, affine=True, track_running_stats=True)
  (fc0): Linear(in_features=400, out_features=400, bias=True)
  (bn0): BatchNorm1d(400, eps=1e-05, momentum=0.1, affine=True, track_running_stats=True)
  (fc1): Linear(in_features=400, out_features=400, bias=True)
  (bn1): BatchNorm1d(400, eps=1e-05, momentum=0.1, affine=True, track_running_stats=True)
  (output): Linear(in_features=400, out_features=1, bias=True)
)
(0, False, 135)
-----------Epoch 0-----------
iterator 100, D_Loss:1.3908119201660156, G_Loss:1.0221434831619263

iterator 200, D_Loss:1.3456177711486816, G_Loss:1.0317655801773071

iterator 300, D_Loss:1.2631945610046387, G_Loss:1.1608613729476929

iterator 400, D_Loss:1.1927037239074707, G_Loss:1.3803164958953857

iterator 500, D_Loss:1.070823311805725, G_Loss:1.4426556825637817
…
iterator 4300, D_Loss:0.4415944516658783, G_Loss:12.477262496948242

iterator 4400, D_Loss:0.4159161150455475, G_Loss:13.382781028747559

iterator 4500, D_Loss:0.42089155316352844, G_Loss:11.889130592346191

iterator 4600, D_Loss:0.4402821362018585, G_Loss:14.478981971740723

iterator 4700, D_Loss:0.437240332365036, G_Loss:12.130517959594727

iterator 4800, D_Loss:0.4195033311843872, G_Loss:16.332857131958008

iterator 4900, D_Loss:0.4300900995731354, G_Loss:15.980154037475586

iterator 5000, D_Loss:0.43483614921569824, G_Loss:13.339092254638672

train row : 30148
sample row: 30148
LGAN_generator(
  (LSTM): LSTMCell(300, 200)
  (gmfc00): Linear(in_features=100, out_features=1, bias=True)
  (gmfc01): Linear(in_features=100, out_features=5, bias=True)
  (gmfc02): Linear(in_features=5, out_features=100, bias=True)
  (gmfe00): Linear(in_features=200, out_features=100, bias=True)
  (gmfe01): Linear(in_features=200, out_features=100, bias=True)
  (fc10): Linear(in_features=100, out_features=1, bias=True)
  (fc11): Linear(in_features=1, out_features=100, bias=True)
  (fe1): Linear(in_features=200, out_features=100, bias=True)
  (gmfc20): Linear(in_features=100, out_features=1, bias=True)
  (gmfc21): Linear(in_features=100, out_features=5, bias=True)
  (gmfc22): Linear(in_features=5, out_features=100, bias=True)
  (gmfe20): Linear(in_features=200, out_features=100, bias=True)
  (gmfe21): Linear(in_features=200, out_features=100, bias=True)
  (fc30): Linear(in_features=100, out_features=1, bias=True)
  (fc31): Linear(in_features=1, out_features=100, bias=True)
  (fe3): Linear(in_features=200, out_features=100, bias=True)
  (gmfc40): Linear(in_features=100, out_features=1, bias=True)
  (gmfc41): Linear(in_features=100, out_features=5, bias=True)
  (gmfc42): Linear(in_features=5, out_features=100, bias=True)
  (gmfe40): Linear(in_features=200, out_features=100, bias=True)
  (gmfe41): Linear(in_features=200, out_features=100, bias=True)
  (fc50): Linear(in_features=100, out_features=1, bias=True)
  (fc51): Linear(in_features=1, out_features=100, bias=True)
  (fe5): Linear(in_features=200, out_features=100, bias=True)
  (fc60): Linear(in_features=100, out_features=1, bias=True)
  (fc61): Linear(in_features=1, out_features=100, bias=True)
  (fe6): Linear(in_features=200, out_features=100, bias=True)
  (fc70): Linear(in_features=100, out_features=1, bias=True)
  (fc71): Linear(in_features=1, out_features=100, bias=True)
  (fe7): Linear(in_features=200, out_features=100, bias=True)
  (fc80): Linear(in_features=100, out_features=1, bias=True)
  (fc81): Linear(in_features=1, out_features=100, bias=True)
  (fe8): Linear(in_features=200, out_features=100, bias=True)
  (fc90): Linear(in_features=100, out_features=1, bias=True)
  (fc91): Linear(in_features=1, out_features=100, bias=True)
  (fe9): Linear(in_features=200, out_features=100, bias=True)
  (gmfc100): Linear(in_features=100, out_features=1, bias=True)
  (gmfc101): Linear(in_features=100, out_features=5, bias=True)
  (gmfc102): Linear(in_features=5, out_features=100, bias=True)
  (gmfe100): Linear(in_features=200, out_features=100, bias=True)
  (gmfe101): Linear(in_features=200, out_features=100, bias=True)
  (gmfc110): Linear(in_features=100, out_features=1, bias=True)
  (gmfc111): Linear(in_features=100, out_features=5, bias=True)
  (gmfc112): Linear(in_features=5, out_features=100, bias=True)
  (gmfe110): Linear(in_features=200, out_features=100, bias=True)
  (gmfe111): Linear(in_features=200, out_features=100, bias=True)
  (gmfc120): Linear(in_features=100, out_features=1, bias=True)
  (gmfc121): Linear(in_features=100, out_features=5, bias=True)
  (gmfc122): Linear(in_features=5, out_features=100, bias=True)
  (gmfe120): Linear(in_features=200, out_features=100, bias=True)
  (gmfe121): Linear(in_features=200, out_features=100, bias=True)
  (fc130): Linear(in_features=100, out_features=1, bias=True)
  (fc131): Linear(in_features=1, out_features=100, bias=True)
  (fe13): Linear(in_features=200, out_features=100, bias=True)
  (fc140): Linear(in_features=100, out_features=1, bias=True)
  (fc141): Linear(in_features=1, out_features=100, bias=True)
  (fe14): Linear(in_features=200, out_features=100, bias=True)
)
LGAN_discriminator(
  (Dropout): Dropout(p=0.5, inplace=False)
  (input): Linear(in_features=45, out_features=100, bias=True)
  (inputbn): BatchNorm1d(100, eps=1e-05, momentum=0.1, affine=True, track_running_stats=True)
  (fc0): Linear(in_features=100, out_features=100, bias=True)
  (bn0): BatchNorm1d(100, eps=1e-05, momentum=0.1, affine=True, track_running_stats=True)
  (fc1): Linear(in_features=100, out_features=100, bias=True)
  (bn1): BatchNorm1d(100, eps=1e-05, momentum=0.1, affine=True, track_running_stats=True)
  (output): Linear(in_features=100, out_features=1, bias=True)
)
(0, False, 45)
-----------Epoch 0-----------
iterator 100, D_Loss:1.4488718509674072, G_Loss:0.920722246170044

iterator 200, D_Loss:1.3860572576522827, G_Loss:0.9179213643074036

iterator 300, D_Loss:1.3822085857391357, G_Loss:0.9113709926605225

iterator 400, D_Loss:1.382975697517395, G_Loss:0.9129321575164795

iterator 500, D_Loss:1.37900710105896, G_Loss:0.8790580630302429
…
iterator 4300, D_Loss:0.4930797219276428, G_Loss:10.016314506530762

iterator 4400, D_Loss:0.4655422866344452, G_Loss:7.151505947113037

iterator 4500, D_Loss:0.4654025733470917, G_Loss:7.922590255737305

iterator 4600, D_Loss:0.4775279462337494, G_Loss:11.751285552978516

iterator 4700, D_Loss:0.47725072503089905, G_Loss:8.187824249267578

iterator 4800, D_Loss:0.46967434883117676, G_Loss:10.649581909179688

iterator 4900, D_Loss:0.4809521436691284, G_Loss:6.94133186340332

iterator 5000, D_Loss:0.4662265479564667, G_Loss:8.365447044372559

LGAN_generator(
  (LSTM): LSTMCell(400, 300)
  (gmfc00): Linear(in_features=300, out_features=1, bias=True)
  (gmfc01): Linear(in_features=300, out_features=5, bias=True)
  (gmfc02): Linear(in_features=5, out_features=300, bias=True)
  (gmfe00): Linear(in_features=300, out_features=300, bias=True)
  (gmfe01): Linear(in_features=300, out_features=300, bias=True)
  (fc10): Linear(in_features=300, out_features=1, bias=True)
  (fc11): Linear(in_features=1, out_features=300, bias=True)
  (fe1): Linear(in_features=300, out_features=300, bias=True)
  (gmfc20): Linear(in_features=300, out_features=1, bias=True)
  (gmfc21): Linear(in_features=300, out_features=5, bias=True)
  (gmfc22): Linear(in_features=5, out_features=300, bias=True)
  (gmfe20): Linear(in_features=300, out_features=300, bias=True)
  (gmfe21): Linear(in_features=300, out_features=300, bias=True)
  (fc30): Linear(in_features=300, out_features=1, bias=True)
  (fc31): Linear(in_features=1, out_features=300, bias=True)
  (fe3): Linear(in_features=300, out_features=300, bias=True)
  (gmfc40): Linear(in_features=300, out_features=1, bias=True)
  (gmfc41): Linear(in_features=300, out_features=5, bias=True)
  (gmfc42): Linear(in_features=5, out_features=300, bias=True)
  (gmfe40): Linear(in_features=300, out_features=300, bias=True)
  (gmfe41): Linear(in_features=300, out_features=300, bias=True)
  (fc50): Linear(in_features=300, out_features=1, bias=True)
  (fc51): Linear(in_features=1, out_features=300, bias=True)
  (fe5): Linear(in_features=300, out_features=300, bias=True)
  (fc60): Linear(in_features=300, out_features=1, bias=True)
  (fc61): Linear(in_features=1, out_features=300, bias=True)
  (fe6): Linear(in_features=300, out_features=300, bias=True)
  (fc70): Linear(in_features=300, out_features=1, bias=True)
  (fc71): Linear(in_features=1, out_features=300, bias=True)
  (fe7): Linear(in_features=300, out_features=300, bias=True)
  (fc80): Linear(in_features=300, out_features=1, bias=True)
  (fc81): Linear(in_features=1, out_features=300, bias=True)
  (fe8): Linear(in_features=300, out_features=300, bias=True)
  (fc90): Linear(in_features=300, out_features=1, bias=True)
  (fc91): Linear(in_features=1, out_features=300, bias=True)
  (fe9): Linear(in_features=300, out_features=300, bias=True)
  (gmfc100): Linear(in_features=300, out_features=1, bias=True)
  (gmfc101): Linear(in_features=300, out_features=5, bias=True)
  (gmfc102): Linear(in_features=5, out_features=300, bias=True)
  (gmfe100): Linear(in_features=300, out_features=300, bias=True)
  (gmfe101): Linear(in_features=300, out_features=300, bias=True)
  (gmfc110): Linear(in_features=300, out_features=1, bias=True)
  (gmfc111): Linear(in_features=300, out_features=5, bias=True)
  (gmfc112): Linear(in_features=5, out_features=300, bias=True)
  (gmfe110): Linear(in_features=300, out_features=300, bias=True)
  (gmfe111): Linear(in_features=300, out_features=300, bias=True)
  (gmfc120): Linear(in_features=300, out_features=1, bias=True)
  (gmfc121): Linear(in_features=300, out_features=5, bias=True)
  (gmfc122): Linear(in_features=5, out_features=300, bias=True)
  (gmfe120): Linear(in_features=300, out_features=300, bias=True)
  (gmfe121): Linear(in_features=300, out_features=300, bias=True)
  (fc130): Linear(in_features=300, out_features=1, bias=True)
  (fc131): Linear(in_features=1, out_features=300, bias=True)
  (fe13): Linear(in_features=300, out_features=300, bias=True)
  (fc140): Linear(in_features=300, out_features=1, bias=True)
  (fc141): Linear(in_features=1, out_features=300, bias=True)
  (fe14): Linear(in_features=300, out_features=300, bias=True)
)
LGAN_discriminator(
  (Dropout): Dropout(p=0.5, inplace=False)
  (input): Linear(in_features=45, out_features=100, bias=True)
  (inputbn): BatchNorm1d(100, eps=1e-05, momentum=0.1, affine=True, track_running_stats=True)
  (fc0): Linear(in_features=100, out_features=100, bias=True)
  (bn0): BatchNorm1d(100, eps=1e-05, momentum=0.1, affine=True, track_running_stats=True)
  (fc1): Linear(in_features=100, out_features=100, bias=True)
  (bn1): BatchNorm1d(100, eps=1e-05, momentum=0.1, affine=True, track_running_stats=True)
  (fc2): Linear(in_features=100, out_features=100, bias=True)
  (bn2): BatchNorm1d(100, eps=1e-05, momentum=0.1, affine=True, track_running_stats=True)
  (fc3): Linear(in_features=100, out_features=100, bias=True)
  (bn3): BatchNorm1d(100, eps=1e-05, momentum=0.1, affine=True, track_running_stats=True)
  (output): Linear(in_features=100, out_features=1, bias=True)
)
(0, False, 45)
-----------Epoch 0-----------
iterator 100, D_Loss:1.3970388174057007, G_Loss:1.0133743286132812

iterator 200, D_Loss:1.3852629661560059, G_Loss:0.9351262450218201

iterator 300, D_Loss:1.376731276512146, G_Loss:0.9674330353736877

iterator 400, D_Loss:1.370076298713684, G_Loss:0.9936434030532837

iterator 500, D_Loss:1.3600249290466309, G_Loss:0.9759552478790283
…
iterator 4300, D_Loss:0.4340037405490875, G_Loss:13.228658676147461

iterator 4400, D_Loss:0.4544548988342285, G_Loss:12.722991943359375

iterator 4500, D_Loss:0.43564683198928833, G_Loss:12.951395034790039

iterator 4600, D_Loss:0.4060099720954895, G_Loss:13.817622184753418

iterator 4700, D_Loss:0.41327714920043945, G_Loss:14.745573997497559

iterator 4800, D_Loss:0.42939940094947815, G_Loss:12.82724666595459

iterator 4900, D_Loss:0.4193907380104065, G_Loss:12.58964729309082

iterator 5000, D_Loss:0.4570992887020111, G_Loss:11.348609924316406

train row : 30148
sample row: 30148
LGAN_generator(
  (LSTM): LSTMCell(350, 500)
  (fc00): Linear(in_features=300, out_features=1, bias=True)
  (fc01): Linear(in_features=1, out_features=300, bias=True)
  (fe0): Linear(in_features=500, out_features=300, bias=True)
  (fc10): Linear(in_features=300, out_features=7, bias=True)
  (fc11): Linear(in_features=7, out_features=300, bias=True)
  (fe1): Linear(in_features=500, out_features=300, bias=True)
  (fc20): Linear(in_features=300, out_features=1, bias=True)
  (fc21): Linear(in_features=1, out_features=300, bias=True)
  (fe2): Linear(in_features=500, out_features=300, bias=True)
  (fc30): Linear(in_features=300, out_features=16, bias=True)
  (fc31): Linear(in_features=16, out_features=300, bias=True)
  (fe3): Linear(in_features=500, out_features=300, bias=True)
  (fc40): Linear(in_features=300, out_features=1, bias=True)
  (fc41): Linear(in_features=1, out_features=300, bias=True)
  (fe4): Linear(in_features=500, out_features=300, bias=True)
  (fc50): Linear(in_features=300, out_features=7, bias=True)
  (fc51): Linear(in_features=7, out_features=300, bias=True)
  (fe5): Linear(in_features=500, out_features=300, bias=True)
  (fc60): Linear(in_features=300, out_features=14, bias=True)
  (fc61): Linear(in_features=14, out_features=300, bias=True)
  (fe6): Linear(in_features=500, out_features=300, bias=True)
  (fc70): Linear(in_features=300, out_features=6, bias=True)
  (fc71): Linear(in_features=6, out_features=300, bias=True)
  (fe7): Linear(in_features=500, out_features=300, bias=True)
  (fc80): Linear(in_features=300, out_features=5, bias=True)
  (fc81): Linear(in_features=5, out_features=300, bias=True)
  (fe8): Linear(in_features=500, out_features=300, bias=True)
  (fc90): Linear(in_features=300, out_features=2, bias=True)
  (fc91): Linear(in_features=2, out_features=300, bias=True)
  (fe9): Linear(in_features=500, out_features=300, bias=True)
  (fc100): Linear(in_features=300, out_features=1, bias=True)
  (fc101): Linear(in_features=1, out_features=300, bias=True)
  (fe10): Linear(in_features=500, out_features=300, bias=True)
  (fc110): Linear(in_features=300, out_features=1, bias=True)
  (fc111): Linear(in_features=1, out_features=300, bias=True)
  (fe11): Linear(in_features=500, out_features=300, bias=True)
  (fc120): Linear(in_features=300, out_features=1, bias=True)
  (fc121): Linear(in_features=1, out_features=300, bias=True)
  (fe12): Linear(in_features=500, out_features=300, bias=True)
  (fc130): Linear(in_features=300, out_features=40, bias=True)
  (fc131): Linear(in_features=40, out_features=300, bias=True)
  (fe13): Linear(in_features=500, out_features=300, bias=True)
  (fc140): Linear(in_features=300, out_features=2, bias=True)
  (fc141): Linear(in_features=2, out_features=300, bias=True)
  (fe14): Linear(in_features=500, out_features=300, bias=True)
)
LGAN_discriminator(
  (Dropout): Dropout(p=0.5, inplace=False)
  (input): Linear(in_features=105, out_features=100, bias=True)
  (inputbn): BatchNorm1d(100, eps=1e-05, momentum=0.1, affine=True, track_running_stats=True)
  (fc0): Linear(in_features=100, out_features=100, bias=True)
  (bn0): BatchNorm1d(100, eps=1e-05, momentum=0.1, affine=True, track_running_stats=True)
  (fc1): Linear(in_features=100, out_features=100, bias=True)
  (bn1): BatchNorm1d(100, eps=1e-05, momentum=0.1, affine=True, track_running_stats=True)
  (fc2): Linear(in_features=100, out_features=100, bias=True)
  (bn2): BatchNorm1d(100, eps=1e-05, momentum=0.1, affine=True, track_running_stats=True)
  (fc3): Linear(in_features=100, out_features=100, bias=True)
  (bn3): BatchNorm1d(100, eps=1e-05, momentum=0.1, affine=True, track_running_stats=True)
  (fc4): Linear(in_features=100, out_features=100, bias=True)
  (bn4): BatchNorm1d(100, eps=1e-05, momentum=0.1, affine=True, track_running_stats=True)
  (output): Linear(in_features=100, out_features=1, bias=True)
)
(0, False, 105)
-----------Epoch 0-----------
iterator 100, D_Loss:1.4511244297027588, G_Loss:0.8639132976531982

iterator 200, D_Loss:1.3901383876800537, G_Loss:0.9581358432769775

iterator 300, D_Loss:1.4048211574554443, G_Loss:0.9830396175384521

iterator 400, D_Loss:1.4149093627929688, G_Loss:0.9517834186553955

iterator 500, D_Loss:1.429990291595459, G_Loss:0.9935945272445679
…
iterator 4200, D_Loss:2.6473512649536133, G_Loss:2.829550266265869

iterator 4300, D_Loss:0.6925521492958069, G_Loss:3.380664348602295

iterator 4400, D_Loss:0.5740512013435364, G_Loss:4.41641902923584

iterator 4500, D_Loss:1.2304103374481201, G_Loss:1.2855689525604248

iterator 4600, D_Loss:1.6978715658187866, G_Loss:2.7810981273651123

iterator 4700, D_Loss:0.824849545955658, G_Loss:3.0263659954071045

iterator 4800, D_Loss:0.8160388469696045, G_Loss:4.652487277984619

iterator 4900, D_Loss:0.9429136514663696, G_Loss:2.0285677909851074

iterator 5000, D_Loss:0.6493150591850281, G_Loss:4.402533531188965

LGAN_generator(
  (LSTM): LSTMCell(600, 500)
  (fc00): Linear(in_features=200, out_features=1, bias=True)
  (fc01): Linear(in_features=1, out_features=200, bias=True)
  (fe0): Linear(in_features=500, out_features=200, bias=True)
  (fc10): Linear(in_features=200, out_features=7, bias=True)
  (fc11): Linear(in_features=7, out_features=200, bias=True)
  (fe1): Linear(in_features=500, out_features=200, bias=True)
  (fc20): Linear(in_features=200, out_features=1, bias=True)
  (fc21): Linear(in_features=1, out_features=200, bias=True)
  (fe2): Linear(in_features=500, out_features=200, bias=True)
  (fc30): Linear(in_features=200, out_features=16, bias=True)
  (fc31): Linear(in_features=16, out_features=200, bias=True)
  (fe3): Linear(in_features=500, out_features=200, bias=True)
  (fc40): Linear(in_features=200, out_features=1, bias=True)
  (fc41): Linear(in_features=1, out_features=200, bias=True)
  (fe4): Linear(in_features=500, out_features=200, bias=True)
  (fc50): Linear(in_features=200, out_features=7, bias=True)
  (fc51): Linear(in_features=7, out_features=200, bias=True)
  (fe5): Linear(in_features=500, out_features=200, bias=True)
  (fc60): Linear(in_features=200, out_features=14, bias=True)
  (fc61): Linear(in_features=14, out_features=200, bias=True)
  (fe6): Linear(in_features=500, out_features=200, bias=True)
  (fc70): Linear(in_features=200, out_features=6, bias=True)
  (fc71): Linear(in_features=6, out_features=200, bias=True)
  (fe7): Linear(in_features=500, out_features=200, bias=True)
  (fc80): Linear(in_features=200, out_features=5, bias=True)
  (fc81): Linear(in_features=5, out_features=200, bias=True)
  (fe8): Linear(in_features=500, out_features=200, bias=True)
  (fc90): Linear(in_features=200, out_features=2, bias=True)
  (fc91): Linear(in_features=2, out_features=200, bias=True)
  (fe9): Linear(in_features=500, out_features=200, bias=True)
  (fc100): Linear(in_features=200, out_features=1, bias=True)
  (fc101): Linear(in_features=1, out_features=200, bias=True)
  (fe10): Linear(in_features=500, out_features=200, bias=True)
  (fc110): Linear(in_features=200, out_features=1, bias=True)
  (fc111): Linear(in_features=1, out_features=200, bias=True)
  (fe11): Linear(in_features=500, out_features=200, bias=True)
  (fc120): Linear(in_features=200, out_features=1, bias=True)
  (fc121): Linear(in_features=1, out_features=200, bias=True)
  (fe12): Linear(in_features=500, out_features=200, bias=True)
  (fc130): Linear(in_features=200, out_features=40, bias=True)
  (fc131): Linear(in_features=40, out_features=200, bias=True)
  (fe13): Linear(in_features=500, out_features=200, bias=True)
  (fc140): Linear(in_features=200, out_features=2, bias=True)
  (fc141): Linear(in_features=2, out_features=200, bias=True)
  (fe14): Linear(in_features=500, out_features=200, bias=True)
)
LGAN_discriminator(
  (Dropout): Dropout(p=0.5, inplace=False)
  (input): Linear(in_features=105, out_features=100, bias=True)
  (inputbn): BatchNorm1d(100, eps=1e-05, momentum=0.1, affine=True, track_running_stats=True)
  (fc0): Linear(in_features=100, out_features=100, bias=True)
  (bn0): BatchNorm1d(100, eps=1e-05, momentum=0.1, affine=True, track_running_stats=True)
  (fc1): Linear(in_features=100, out_features=100, bias=True)
  (bn1): BatchNorm1d(100, eps=1e-05, momentum=0.1, affine=True, track_running_stats=True)
  (fc2): Linear(in_features=100, out_features=100, bias=True)
  (bn2): BatchNorm1d(100, eps=1e-05, momentum=0.1, affine=True, track_running_stats=True)
  (fc3): Linear(in_features=100, out_features=100, bias=True)
  (bn3): BatchNorm1d(100, eps=1e-05, momentum=0.1, affine=True, track_running_stats=True)
  (fc4): Linear(in_features=100, out_features=100, bias=True)
  (bn4): BatchNorm1d(100, eps=1e-05, momentum=0.1, affine=True, track_running_stats=True)
  (output): Linear(in_features=100, out_features=1, bias=True)
)
(0, False, 105)
-----------Epoch 0-----------
iterator 100, D_Loss:1.3941893577575684, G_Loss:0.9640283584594727

iterator 200, D_Loss:1.3815721273422241, G_Loss:1.0401577949523926

iterator 300, D_Loss:1.376521348953247, G_Loss:1.0522286891937256

iterator 400, D_Loss:1.355560541152954, G_Loss:0.9860408902168274

iterator 500, D_Loss:1.3721238374710083, G_Loss:0.9825740456581116
…
iterator 4300, D_Loss:0.4328051805496216, G_Loss:13.970056533813477

iterator 4400, D_Loss:0.45361801981925964, G_Loss:13.697795867919922

iterator 4500, D_Loss:0.4299699366092682, G_Loss:14.007841110229492

iterator 4600, D_Loss:0.40713804960250854, G_Loss:13.821433067321777

iterator 4700, D_Loss:0.41456541419029236, G_Loss:14.240747451782227

iterator 4800, D_Loss:0.42247316241264343, G_Loss:12.939737319946289

iterator 4900, D_Loss:0.4143858850002289, G_Loss:13.137472152709961

iterator 5000, D_Loss:0.4492139220237732, G_Loss:12.69886302947998

train row : 30148
sample row: 30148
LGAN_generator(
  (LSTM): LSTMCell(450, 200)
  (fc00): Linear(in_features=400, out_features=1, bias=True)
  (fc01): Linear(in_features=1, out_features=400, bias=True)
  (fe0): Linear(in_features=200, out_features=400, bias=True)
  (fc10): Linear(in_features=400, out_features=1, bias=True)
  (fc11): Linear(in_features=1, out_features=400, bias=True)
  (fe1): Linear(in_features=200, out_features=400, bias=True)
  (fc20): Linear(in_features=400, out_features=1, bias=True)
  (fc21): Linear(in_features=1, out_features=400, bias=True)
  (fe2): Linear(in_features=200, out_features=400, bias=True)
  (fc30): Linear(in_features=400, out_features=1, bias=True)
  (fc31): Linear(in_features=1, out_features=400, bias=True)
  (fe3): Linear(in_features=200, out_features=400, bias=True)
  (fc40): Linear(in_features=400, out_features=1, bias=True)
  (fc41): Linear(in_features=1, out_features=400, bias=True)
  (fe4): Linear(in_features=200, out_features=400, bias=True)
  (fc50): Linear(in_features=400, out_features=1, bias=True)
  (fc51): Linear(in_features=1, out_features=400, bias=True)
  (fe5): Linear(in_features=200, out_features=400, bias=True)
  (fc60): Linear(in_features=400, out_features=1, bias=True)
  (fc61): Linear(in_features=1, out_features=400, bias=True)
  (fe6): Linear(in_features=200, out_features=400, bias=True)
  (fc70): Linear(in_features=400, out_features=1, bias=True)
  (fc71): Linear(in_features=1, out_features=400, bias=True)
  (fe7): Linear(in_features=200, out_features=400, bias=True)
  (fc80): Linear(in_features=400, out_features=1, bias=True)
  (fc81): Linear(in_features=1, out_features=400, bias=True)
  (fe8): Linear(in_features=200, out_features=400, bias=True)
  (fc90): Linear(in_features=400, out_features=1, bias=True)
  (fc91): Linear(in_features=1, out_features=400, bias=True)
  (fe9): Linear(in_features=200, out_features=400, bias=True)
  (fc100): Linear(in_features=400, out_features=1, bias=True)
  (fc101): Linear(in_features=1, out_features=400, bias=True)
  (fe10): Linear(in_features=200, out_features=400, bias=True)
  (fc110): Linear(in_features=400, out_features=1, bias=True)
  (fc111): Linear(in_features=1, out_features=400, bias=True)
  (fe11): Linear(in_features=200, out_features=400, bias=True)
  (fc120): Linear(in_features=400, out_features=1, bias=True)
  (fc121): Linear(in_features=1, out_features=400, bias=True)
  (fe12): Linear(in_features=200, out_features=400, bias=True)
  (fc130): Linear(in_features=400, out_features=1, bias=True)
  (fc131): Linear(in_features=1, out_features=400, bias=True)
  (fe13): Linear(in_features=200, out_features=400, bias=True)
  (fc140): Linear(in_features=400, out_features=1, bias=True)
  (fc141): Linear(in_features=1, out_features=400, bias=True)
  (fe14): Linear(in_features=200, out_features=400, bias=True)
)
LGAN_discriminator(
  (Dropout): Dropout(p=0.5, inplace=False)
  (input): Linear(in_features=15, out_features=400, bias=True)
  (inputbn): BatchNorm1d(400, eps=1e-05, momentum=0.1, affine=True, track_running_stats=True)
  (fc0): Linear(in_features=400, out_features=400, bias=True)
  (bn0): BatchNorm1d(400, eps=1e-05, momentum=0.1, affine=True, track_running_stats=True)
  (output): Linear(in_features=400, out_features=1, bias=True)
)
(0, False, 15)
-----------Epoch 0-----------
iterator 100, D_Loss:1.351661205291748, G_Loss:0.9234269857406616

iterator 200, D_Loss:1.2765438556671143, G_Loss:0.9586442708969116

iterator 300, D_Loss:1.2328250408172607, G_Loss:0.9953333139419556

iterator 400, D_Loss:1.2125712633132935, G_Loss:1.1328496932983398

iterator 500, D_Loss:1.129941463470459, G_Loss:1.192495584487915
…
iterator 4300, D_Loss:1.2751615047454834, G_Loss:1.2107248306274414

iterator 4400, D_Loss:1.282968521118164, G_Loss:1.0130237340927124

iterator 4500, D_Loss:1.1280759572982788, G_Loss:1.0485893487930298

iterator 4600, D_Loss:1.170364260673523, G_Loss:1.0746867656707764

iterator 4700, D_Loss:1.1953336000442505, G_Loss:1.0433071851730347

iterator 4800, D_Loss:1.1899983882904053, G_Loss:1.7615848779678345

iterator 4900, D_Loss:1.2170145511627197, G_Loss:1.0349445343017578

iterator 5000, D_Loss:1.3182175159454346, G_Loss:1.140721321105957

LGAN_generator(
  (LSTM): LSTMCell(350, 200)
  (fc00): Linear(in_features=300, out_features=1, bias=True)
  (fc01): Linear(in_features=1, out_features=300, bias=True)
  (fe0): Linear(in_features=200, out_features=300, bias=True)
  (fc10): Linear(in_features=300, out_features=1, bias=True)
  (fc11): Linear(in_features=1, out_features=300, bias=True)
  (fe1): Linear(in_features=200, out_features=300, bias=True)
  (fc20): Linear(in_features=300, out_features=1, bias=True)
  (fc21): Linear(in_features=1, out_features=300, bias=True)
  (fe2): Linear(in_features=200, out_features=300, bias=True)
  (fc30): Linear(in_features=300, out_features=1, bias=True)
  (fc31): Linear(in_features=1, out_features=300, bias=True)
  (fe3): Linear(in_features=200, out_features=300, bias=True)
  (fc40): Linear(in_features=300, out_features=1, bias=True)
  (fc41): Linear(in_features=1, out_features=300, bias=True)
  (fe4): Linear(in_features=200, out_features=300, bias=True)
  (fc50): Linear(in_features=300, out_features=1, bias=True)
  (fc51): Linear(in_features=1, out_features=300, bias=True)
  (fe5): Linear(in_features=200, out_features=300, bias=True)
  (fc60): Linear(in_features=300, out_features=1, bias=True)
  (fc61): Linear(in_features=1, out_features=300, bias=True)
  (fe6): Linear(in_features=200, out_features=300, bias=True)
  (fc70): Linear(in_features=300, out_features=1, bias=True)
  (fc71): Linear(in_features=1, out_features=300, bias=True)
  (fe7): Linear(in_features=200, out_features=300, bias=True)
  (fc80): Linear(in_features=300, out_features=1, bias=True)
  (fc81): Linear(in_features=1, out_features=300, bias=True)
  (fe8): Linear(in_features=200, out_features=300, bias=True)
  (fc90): Linear(in_features=300, out_features=1, bias=True)
  (fc91): Linear(in_features=1, out_features=300, bias=True)
  (fe9): Linear(in_features=200, out_features=300, bias=True)
  (fc100): Linear(in_features=300, out_features=1, bias=True)
  (fc101): Linear(in_features=1, out_features=300, bias=True)
  (fe10): Linear(in_features=200, out_features=300, bias=True)
  (fc110): Linear(in_features=300, out_features=1, bias=True)
  (fc111): Linear(in_features=1, out_features=300, bias=True)
  (fe11): Linear(in_features=200, out_features=300, bias=True)
  (fc120): Linear(in_features=300, out_features=1, bias=True)
  (fc121): Linear(in_features=1, out_features=300, bias=True)
  (fe12): Linear(in_features=200, out_features=300, bias=True)
  (fc130): Linear(in_features=300, out_features=1, bias=True)
  (fc131): Linear(in_features=1, out_features=300, bias=True)
  (fe13): Linear(in_features=200, out_features=300, bias=True)
  (fc140): Linear(in_features=300, out_features=1, bias=True)
  (fc141): Linear(in_features=1, out_features=300, bias=True)
  (fe14): Linear(in_features=200, out_features=300, bias=True)
)
LGAN_discriminator(
  (Dropout): Dropout(p=0.5, inplace=False)
  (input): Linear(in_features=15, out_features=200, bias=True)
  (inputbn): BatchNorm1d(200, eps=1e-05, momentum=0.1, affine=True, track_running_stats=True)
  (fc0): Linear(in_features=200, out_features=200, bias=True)
  (bn0): BatchNorm1d(200, eps=1e-05, momentum=0.1, affine=True, track_running_stats=True)
  (fc1): Linear(in_features=200, out_features=200, bias=True)
  (bn1): BatchNorm1d(200, eps=1e-05, momentum=0.1, affine=True, track_running_stats=True)
  (fc2): Linear(in_features=200, out_features=200, bias=True)
  (bn2): BatchNorm1d(200, eps=1e-05, momentum=0.1, affine=True, track_running_stats=True)
  (fc3): Linear(in_features=200, out_features=200, bias=True)
  (bn3): BatchNorm1d(200, eps=1e-05, momentum=0.1, affine=True, track_running_stats=True)
  (output): Linear(in_features=200, out_features=1, bias=True)
)
(0, False, 15)
-----------Epoch 0-----------
iterator 100, D_Loss:1.4125065803527832, G_Loss:0.8605183362960815

iterator 200, D_Loss:1.4038705825805664, G_Loss:0.8839970231056213

iterator 300, D_Loss:1.3695533275604248, G_Loss:0.8565579056739807

iterator 400, D_Loss:1.396059274673462, G_Loss:0.8050363659858704

iterator 500, D_Loss:1.3745739459991455, G_Loss:0.791837215423584
…
iterator 4300, D_Loss:0.44035378098487854, G_Loss:13.672979354858398

iterator 4400, D_Loss:0.41356584429740906, G_Loss:12.755824089050293

iterator 4500, D_Loss:0.41581791639328003, G_Loss:13.682525634765625

iterator 4600, D_Loss:0.434098482131958, G_Loss:12.726000785827637

iterator 4700, D_Loss:0.4365842044353485, G_Loss:12.978784561157227

iterator 4800, D_Loss:0.4171723425388336, G_Loss:13.038106918334961

iterator 4900, D_Loss:0.4314604699611664, G_Loss:11.57992172241211

iterator 5000, D_Loss:0.43416473269462585, G_Loss:13.134411811828613

train row : 30148
sample row: 30148
LGAN_generator(
  (LSTM): LSTMCell(602, 200)
  (gmfc00): Linear(in_features=500, out_features=1, bias=True)
  (gmfc01): Linear(in_features=500, out_features=5, bias=True)
  (gmfc02): Linear(in_features=5, out_features=500, bias=True)
  (gmfe00): Linear(in_features=200, out_features=500, bias=True)
  (gmfe01): Linear(in_features=200, out_features=500, bias=True)
  (fc10): Linear(in_features=500, out_features=7, bias=True)
  (fc11): Linear(in_features=7, out_features=500, bias=True)
  (fe1): Linear(in_features=200, out_features=500, bias=True)
  (gmfc20): Linear(in_features=500, out_features=1, bias=True)
  (gmfc21): Linear(in_features=500, out_features=5, bias=True)
  (gmfc22): Linear(in_features=5, out_features=500, bias=True)
  (gmfe20): Linear(in_features=200, out_features=500, bias=True)
  (gmfe21): Linear(in_features=200, out_features=500, bias=True)
  (fc30): Linear(in_features=500, out_features=16, bias=True)
  (fc31): Linear(in_features=16, out_features=500, bias=True)
  (fe3): Linear(in_features=200, out_features=500, bias=True)
  (gmfc40): Linear(in_features=500, out_features=1, bias=True)
  (gmfc41): Linear(in_features=500, out_features=5, bias=True)
  (gmfc42): Linear(in_features=5, out_features=500, bias=True)
  (gmfe40): Linear(in_features=200, out_features=500, bias=True)
  (gmfe41): Linear(in_features=200, out_features=500, bias=True)
  (fc50): Linear(in_features=500, out_features=7, bias=True)
  (fc51): Linear(in_features=7, out_features=500, bias=True)
  (fe5): Linear(in_features=200, out_features=500, bias=True)
  (fc60): Linear(in_features=500, out_features=14, bias=True)
  (fc61): Linear(in_features=14, out_features=500, bias=True)
  (fe6): Linear(in_features=200, out_features=500, bias=True)
  (fc70): Linear(in_features=500, out_features=6, bias=True)
  (fc71): Linear(in_features=6, out_features=500, bias=True)
  (fe7): Linear(in_features=200, out_features=500, bias=True)
  (fc80): Linear(in_features=500, out_features=5, bias=True)
  (fc81): Linear(in_features=5, out_features=500, bias=True)
  (fe8): Linear(in_features=200, out_features=500, bias=True)
  (fc90): Linear(in_features=500, out_features=2, bias=True)
  (fc91): Linear(in_features=2, out_features=500, bias=True)
  (fe9): Linear(in_features=200, out_features=500, bias=True)
  (gmfc100): Linear(in_features=500, out_features=1, bias=True)
  (gmfc101): Linear(in_features=500, out_features=5, bias=True)
  (gmfc102): Linear(in_features=5, out_features=500, bias=True)
  (gmfe100): Linear(in_features=200, out_features=500, bias=True)
  (gmfe101): Linear(in_features=200, out_features=500, bias=True)
  (gmfc110): Linear(in_features=500, out_features=1, bias=True)
  (gmfc111): Linear(in_features=500, out_features=5, bias=True)
  (gmfc112): Linear(in_features=5, out_features=500, bias=True)
  (gmfe110): Linear(in_features=200, out_features=500, bias=True)
  (gmfe111): Linear(in_features=200, out_features=500, bias=True)
  (gmfc120): Linear(in_features=500, out_features=1, bias=True)
  (gmfc121): Linear(in_features=500, out_features=5, bias=True)
  (gmfc122): Linear(in_features=5, out_features=500, bias=True)
  (gmfe120): Linear(in_features=200, out_features=500, bias=True)
  (gmfe121): Linear(in_features=200, out_features=500, bias=True)
  (fc130): Linear(in_features=500, out_features=40, bias=True)
  (fc131): Linear(in_features=40, out_features=500, bias=True)
  (fe13): Linear(in_features=200, out_features=500, bias=True)
)
LGAN_discriminator(
  (Dropout): Dropout(p=0.5, inplace=False)
  (input): Linear(in_features=135, out_features=100, bias=True)
  (inputbn): BatchNorm1d(100, eps=1e-05, momentum=0.1, affine=True, track_running_stats=True)
  (fc0): Linear(in_features=100, out_features=100, bias=True)
  (bn0): BatchNorm1d(100, eps=1e-05, momentum=0.1, affine=True, track_running_stats=True)
  (output): Linear(in_features=100, out_features=1, bias=True)
)
(2, True, 133)
(30148, 2)
-----------Epoch 0-----------
iterator 0, D_Loss:1.5013387203216553, G_Loss:12.996711730957031

iterator 100, D_Loss:1.3223602771759033, G_Loss:1.0857635736465454

iterator 200, D_Loss:1.3194347620010376, G_Loss:1.0725460052490234

iterator 300, D_Loss:1.2831971645355225, G_Loss:1.0948065519332886

iterator 400, D_Loss:1.2438498735427856, G_Loss:1.1175849437713623
…
iterator 4200, D_Loss:0.5177642703056335, G_Loss:21.967498779296875

iterator 4300, D_Loss:0.5190576910972595, G_Loss:19.856210708618164

iterator 4400, D_Loss:0.5014886260032654, G_Loss:23.78472137451172

iterator 4500, D_Loss:0.5267449021339417, G_Loss:23.45346450805664

iterator 4600, D_Loss:0.5159794092178345, G_Loss:19.851428985595703

iterator 4700, D_Loss:0.5594583749771118, G_Loss:23.901968002319336

iterator 4800, D_Loss:0.5626057982444763, G_Loss:23.871822357177734

iterator 4900, D_Loss:0.5528672337532043, G_Loss:20.75176239013672

LGAN_generator(
  (LSTM): LSTMCell(302, 100)
  (gmfc00): Linear(in_features=100, out_features=1, bias=True)
  (gmfc01): Linear(in_features=100, out_features=5, bias=True)
  (gmfc02): Linear(in_features=5, out_features=100, bias=True)
  (gmfe00): Linear(in_features=100, out_features=100, bias=True)
  (gmfe01): Linear(in_features=100, out_features=100, bias=True)
  (fc10): Linear(in_features=100, out_features=7, bias=True)
  (fc11): Linear(in_features=7, out_features=100, bias=True)
  (fe1): Linear(in_features=100, out_features=100, bias=True)
  (gmfc20): Linear(in_features=100, out_features=1, bias=True)
  (gmfc21): Linear(in_features=100, out_features=5, bias=True)
  (gmfc22): Linear(in_features=5, out_features=100, bias=True)
  (gmfe20): Linear(in_features=100, out_features=100, bias=True)
  (gmfe21): Linear(in_features=100, out_features=100, bias=True)
  (fc30): Linear(in_features=100, out_features=16, bias=True)
  (fc31): Linear(in_features=16, out_features=100, bias=True)
  (fe3): Linear(in_features=100, out_features=100, bias=True)
  (gmfc40): Linear(in_features=100, out_features=1, bias=True)
  (gmfc41): Linear(in_features=100, out_features=5, bias=True)
  (gmfc42): Linear(in_features=5, out_features=100, bias=True)
  (gmfe40): Linear(in_features=100, out_features=100, bias=True)
  (gmfe41): Linear(in_features=100, out_features=100, bias=True)
  (fc50): Linear(in_features=100, out_features=7, bias=True)
  (fc51): Linear(in_features=7, out_features=100, bias=True)
  (fe5): Linear(in_features=100, out_features=100, bias=True)
  (fc60): Linear(in_features=100, out_features=14, bias=True)
  (fc61): Linear(in_features=14, out_features=100, bias=True)
  (fe6): Linear(in_features=100, out_features=100, bias=True)
  (fc70): Linear(in_features=100, out_features=6, bias=True)
  (fc71): Linear(in_features=6, out_features=100, bias=True)
  (fe7): Linear(in_features=100, out_features=100, bias=True)
  (fc80): Linear(in_features=100, out_features=5, bias=True)
  (fc81): Linear(in_features=5, out_features=100, bias=True)
  (fe8): Linear(in_features=100, out_features=100, bias=True)
  (fc90): Linear(in_features=100, out_features=2, bias=True)
  (fc91): Linear(in_features=2, out_features=100, bias=True)
  (fe9): Linear(in_features=100, out_features=100, bias=True)
  (gmfc100): Linear(in_features=100, out_features=1, bias=True)
  (gmfc101): Linear(in_features=100, out_features=5, bias=True)
  (gmfc102): Linear(in_features=5, out_features=100, bias=True)
  (gmfe100): Linear(in_features=100, out_features=100, bias=True)
  (gmfe101): Linear(in_features=100, out_features=100, bias=True)
  (gmfc110): Linear(in_features=100, out_features=1, bias=True)
  (gmfc111): Linear(in_features=100, out_features=5, bias=True)
  (gmfc112): Linear(in_features=5, out_features=100, bias=True)
  (gmfe110): Linear(in_features=100, out_features=100, bias=True)
  (gmfe111): Linear(in_features=100, out_features=100, bias=True)
  (gmfc120): Linear(in_features=100, out_features=1, bias=True)
  (gmfc121): Linear(in_features=100, out_features=5, bias=True)
  (gmfc122): Linear(in_features=5, out_features=100, bias=True)
  (gmfe120): Linear(in_features=100, out_features=100, bias=True)
  (gmfe121): Linear(in_features=100, out_features=100, bias=True)
  (fc130): Linear(in_features=100, out_features=40, bias=True)
  (fc131): Linear(in_features=40, out_features=100, bias=True)
  (fe13): Linear(in_features=100, out_features=100, bias=True)
)
LGAN_discriminator(
  (Dropout): Dropout(p=0.5, inplace=False)
  (input): Linear(in_features=135, out_features=500, bias=True)
  (inputbn): BatchNorm1d(500, eps=1e-05, momentum=0.1, affine=True, track_running_stats=True)
  (fc0): Linear(in_features=500, out_features=500, bias=True)
  (bn0): BatchNorm1d(500, eps=1e-05, momentum=0.1, affine=True, track_running_stats=True)
  (fc1): Linear(in_features=500, out_features=500, bias=True)
  (bn1): BatchNorm1d(500, eps=1e-05, momentum=0.1, affine=True, track_running_stats=True)
  (fc2): Linear(in_features=500, out_features=500, bias=True)
  (bn2): BatchNorm1d(500, eps=1e-05, momentum=0.1, affine=True, track_running_stats=True)
  (fc3): Linear(in_features=500, out_features=500, bias=True)
  (bn3): BatchNorm1d(500, eps=1e-05, momentum=0.1, affine=True, track_running_stats=True)
  (fc4): Linear(in_features=500, out_features=500, bias=True)
  (bn4): BatchNorm1d(500, eps=1e-05, momentum=0.1, affine=True, track_running_stats=True)
  (output): Linear(in_features=500, out_features=1, bias=True)
)
(2, True, 133)
(30148, 2)
-----------Epoch 0-----------
iterator 0, D_Loss:1.4599378108978271, G_Loss:7.840610980987549

iterator 100, D_Loss:1.417277216911316, G_Loss:9.103790283203125

iterator 200, D_Loss:1.4254894256591797, G_Loss:1.334517240524292

iterator 300, D_Loss:1.4064898490905762, G_Loss:1.606318712234497

iterator 400, D_Loss:1.369500756263733, G_Loss:1.216951608657837
…
iterator 4200, D_Loss:0.41844436526298523, G_Loss:15.427818298339844

iterator 4300, D_Loss:0.4205591678619385, G_Loss:15.476934432983398

iterator 4400, D_Loss:0.4375836253166199, G_Loss:15.273957252502441

iterator 4500, D_Loss:0.41516464948654175, G_Loss:14.904179573059082

iterator 4600, D_Loss:0.4281652867794037, G_Loss:14.633126258850098

iterator 4700, D_Loss:0.4169968366622925, G_Loss:15.856027603149414

iterator 4800, D_Loss:0.43608522415161133, G_Loss:14.283327102661133

iterator 4900, D_Loss:0.4260728061199188, G_Loss:14.14745807647705

train row : 30148
sample row: 30148
LGAN_generator(
  (LSTM): LSTMCell(302, 400)
  (gmfc00): Linear(in_features=100, out_features=1, bias=True)
  (gmfc01): Linear(in_features=100, out_features=5, bias=True)
  (gmfc02): Linear(in_features=5, out_features=100, bias=True)
  (gmfe00): Linear(in_features=400, out_features=100, bias=True)
  (gmfe01): Linear(in_features=400, out_features=100, bias=True)
  (fc10): Linear(in_features=100, out_features=7, bias=True)
  (fc11): Linear(in_features=7, out_features=100, bias=True)
  (fe1): Linear(in_features=400, out_features=100, bias=True)
  (gmfc20): Linear(in_features=100, out_features=1, bias=True)
  (gmfc21): Linear(in_features=100, out_features=5, bias=True)
  (gmfc22): Linear(in_features=5, out_features=100, bias=True)
  (gmfe20): Linear(in_features=400, out_features=100, bias=True)
  (gmfe21): Linear(in_features=400, out_features=100, bias=True)
  (fc30): Linear(in_features=100, out_features=16, bias=True)
  (fc31): Linear(in_features=16, out_features=100, bias=True)
  (fe3): Linear(in_features=400, out_features=100, bias=True)
  (gmfc40): Linear(in_features=100, out_features=1, bias=True)
  (gmfc41): Linear(in_features=100, out_features=5, bias=True)
  (gmfc42): Linear(in_features=5, out_features=100, bias=True)
  (gmfe40): Linear(in_features=400, out_features=100, bias=True)
  (gmfe41): Linear(in_features=400, out_features=100, bias=True)
  (fc50): Linear(in_features=100, out_features=7, bias=True)
  (fc51): Linear(in_features=7, out_features=100, bias=True)
  (fe5): Linear(in_features=400, out_features=100, bias=True)
  (fc60): Linear(in_features=100, out_features=14, bias=True)
  (fc61): Linear(in_features=14, out_features=100, bias=True)
  (fe6): Linear(in_features=400, out_features=100, bias=True)
  (fc70): Linear(in_features=100, out_features=6, bias=True)
  (fc71): Linear(in_features=6, out_features=100, bias=True)
  (fe7): Linear(in_features=400, out_features=100, bias=True)
  (fc80): Linear(in_features=100, out_features=5, bias=True)
  (fc81): Linear(in_features=5, out_features=100, bias=True)
  (fe8): Linear(in_features=400, out_features=100, bias=True)
  (fc90): Linear(in_features=100, out_features=2, bias=True)
  (fc91): Linear(in_features=2, out_features=100, bias=True)
  (fe9): Linear(in_features=400, out_features=100, bias=True)
  (gmfc100): Linear(in_features=100, out_features=1, bias=True)
  (gmfc101): Linear(in_features=100, out_features=5, bias=True)
  (gmfc102): Linear(in_features=5, out_features=100, bias=True)
  (gmfe100): Linear(in_features=400, out_features=100, bias=True)
  (gmfe101): Linear(in_features=400, out_features=100, bias=True)
  (gmfc110): Linear(in_features=100, out_features=1, bias=True)
  (gmfc111): Linear(in_features=100, out_features=5, bias=True)
  (gmfc112): Linear(in_features=5, out_features=100, bias=True)
  (gmfe110): Linear(in_features=400, out_features=100, bias=True)
  (gmfe111): Linear(in_features=400, out_features=100, bias=True)
  (gmfc120): Linear(in_features=100, out_features=1, bias=True)
  (gmfc121): Linear(in_features=100, out_features=5, bias=True)
  (gmfc122): Linear(in_features=5, out_features=100, bias=True)
  (gmfe120): Linear(in_features=400, out_features=100, bias=True)
  (gmfe121): Linear(in_features=400, out_features=100, bias=True)
  (fc130): Linear(in_features=100, out_features=40, bias=True)
  (fc131): Linear(in_features=40, out_features=100, bias=True)
  (fe13): Linear(in_features=400, out_features=100, bias=True)
)
LGAN_discriminator(
  (Dropout): Dropout(p=0.5, inplace=False)
  (input): Linear(in_features=135, out_features=400, bias=True)
  (inputbn): BatchNorm1d(400, eps=1e-05, momentum=0.1, affine=True, track_running_stats=True)
  (fc0): Linear(in_features=400, out_features=400, bias=True)
  (bn0): BatchNorm1d(400, eps=1e-05, momentum=0.1, affine=True, track_running_stats=True)
  (fc1): Linear(in_features=400, out_features=400, bias=True)
  (bn1): BatchNorm1d(400, eps=1e-05, momentum=0.1, affine=True, track_running_stats=True)
  (fc2): Linear(in_features=400, out_features=400, bias=True)
  (bn2): BatchNorm1d(400, eps=1e-05, momentum=0.1, affine=True, track_running_stats=True)
  (fc3): Linear(in_features=400, out_features=400, bias=True)
  (bn3): BatchNorm1d(400, eps=1e-05, momentum=0.1, affine=True, track_running_stats=True)
  (output): Linear(in_features=400, out_features=1, bias=True)
)
-----------Epoch 0-----------
iterator 100, D_Loss:1.3956518173217773, G_Loss:1.0337049961090088

iterator 200, D_Loss:1.4026219844818115, G_Loss:1.0144422054290771

iterator 300, D_Loss:1.407767653465271, G_Loss:1.0739567279815674

iterator 400, D_Loss:1.4016032218933105, G_Loss:1.0859519243240356

iterator 500, D_Loss:1.3999183177947998, G_Loss:0.9755454659461975
…
iterator 4300, D_Loss:1.0770703554153442, G_Loss:2.577655076980591

iterator 4400, D_Loss:1.2326889038085938, G_Loss:1.833812952041626

iterator 4500, D_Loss:0.8232936263084412, G_Loss:1.5352790355682373

iterator 4600, D_Loss:0.5368011593818665, G_Loss:2.568051815032959

iterator 4700, D_Loss:0.5428078174591064, G_Loss:2.102471351623535

iterator 4800, D_Loss:0.6196309328079224, G_Loss:2.716496706008911

iterator 4900, D_Loss:1.9284814596176147, G_Loss:3.2707390785217285

iterator 5000, D_Loss:1.4473992586135864, G_Loss:3.391218662261963

LGAN_generator(
  (LSTM): LSTMCell(352, 300)
  (gmfc00): Linear(in_features=300, out_features=1, bias=True)
  (gmfc01): Linear(in_features=300, out_features=5, bias=True)
  (gmfc02): Linear(in_features=5, out_features=300, bias=True)
  (gmfe00): Linear(in_features=300, out_features=300, bias=True)
  (gmfe01): Linear(in_features=300, out_features=300, bias=True)
  (fc10): Linear(in_features=300, out_features=7, bias=True)
  (fc11): Linear(in_features=7, out_features=300, bias=True)
  (fe1): Linear(in_features=300, out_features=300, bias=True)
  (gmfc20): Linear(in_features=300, out_features=1, bias=True)
  (gmfc21): Linear(in_features=300, out_features=5, bias=True)
  (gmfc22): Linear(in_features=5, out_features=300, bias=True)
  (gmfe20): Linear(in_features=300, out_features=300, bias=True)
  (gmfe21): Linear(in_features=300, out_features=300, bias=True)
  (fc30): Linear(in_features=300, out_features=16, bias=True)
  (fc31): Linear(in_features=16, out_features=300, bias=True)
  (fe3): Linear(in_features=300, out_features=300, bias=True)
  (gmfc40): Linear(in_features=300, out_features=1, bias=True)
  (gmfc41): Linear(in_features=300, out_features=5, bias=True)
  (gmfc42): Linear(in_features=5, out_features=300, bias=True)
  (gmfe40): Linear(in_features=300, out_features=300, bias=True)
  (gmfe41): Linear(in_features=300, out_features=300, bias=True)
  (fc50): Linear(in_features=300, out_features=7, bias=True)
  (fc51): Linear(in_features=7, out_features=300, bias=True)
  (fe5): Linear(in_features=300, out_features=300, bias=True)
  (fc60): Linear(in_features=300, out_features=14, bias=True)
  (fc61): Linear(in_features=14, out_features=300, bias=True)
  (fe6): Linear(in_features=300, out_features=300, bias=True)
  (fc70): Linear(in_features=300, out_features=6, bias=True)
  (fc71): Linear(in_features=6, out_features=300, bias=True)
  (fe7): Linear(in_features=300, out_features=300, bias=True)
  (fc80): Linear(in_features=300, out_features=5, bias=True)
  (fc81): Linear(in_features=5, out_features=300, bias=True)
  (fe8): Linear(in_features=300, out_features=300, bias=True)
  (fc90): Linear(in_features=300, out_features=2, bias=True)
  (fc91): Linear(in_features=2, out_features=300, bias=True)
  (fe9): Linear(in_features=300, out_features=300, bias=True)
  (gmfc100): Linear(in_features=300, out_features=1, bias=True)
  (gmfc101): Linear(in_features=300, out_features=5, bias=True)
  (gmfc102): Linear(in_features=5, out_features=300, bias=True)
  (gmfe100): Linear(in_features=300, out_features=300, bias=True)
  (gmfe101): Linear(in_features=300, out_features=300, bias=True)
  (gmfc110): Linear(in_features=300, out_features=1, bias=True)
  (gmfc111): Linear(in_features=300, out_features=5, bias=True)
  (gmfc112): Linear(in_features=5, out_features=300, bias=True)
  (gmfe110): Linear(in_features=300, out_features=300, bias=True)
  (gmfe111): Linear(in_features=300, out_features=300, bias=True)
  (gmfc120): Linear(in_features=300, out_features=1, bias=True)
  (gmfc121): Linear(in_features=300, out_features=5, bias=True)
  (gmfc122): Linear(in_features=5, out_features=300, bias=True)
  (gmfe120): Linear(in_features=300, out_features=300, bias=True)
  (gmfe121): Linear(in_features=300, out_features=300, bias=True)
  (fc130): Linear(in_features=300, out_features=40, bias=True)
  (fc131): Linear(in_features=40, out_features=300, bias=True)
  (fe13): Linear(in_features=300, out_features=300, bias=True)
)
LGAN_discriminator(
  (Dropout): Dropout(p=0.5, inplace=False)
  (input): Linear(in_features=135, out_features=300, bias=True)
  (inputbn): BatchNorm1d(300, eps=1e-05, momentum=0.1, affine=True, track_running_stats=True)
  (fc0): Linear(in_features=300, out_features=300, bias=True)
  (bn0): BatchNorm1d(300, eps=1e-05, momentum=0.1, affine=True, track_running_stats=True)
  (fc1): Linear(in_features=300, out_features=300, bias=True)
  (bn1): BatchNorm1d(300, eps=1e-05, momentum=0.1, affine=True, track_running_stats=True)
  (fc2): Linear(in_features=300, out_features=300, bias=True)
  (bn2): BatchNorm1d(300, eps=1e-05, momentum=0.1, affine=True, track_running_stats=True)
  (fc3): Linear(in_features=300, out_features=300, bias=True)
  (bn3): BatchNorm1d(300, eps=1e-05, momentum=0.1, affine=True, track_running_stats=True)
  (fc4): Linear(in_features=300, out_features=300, bias=True)
  (bn4): BatchNorm1d(300, eps=1e-05, momentum=0.1, affine=True, track_running_stats=True)
  (output): Linear(in_features=300, out_features=1, bias=True)
)
-----------Epoch 0-----------
iterator 100, D_Loss:1.4470856189727783, G_Loss:1.0534709692001343

iterator 200, D_Loss:1.420881986618042, G_Loss:1.018615484237671

iterator 300, D_Loss:1.4484204053878784, G_Loss:1.2583987712860107

iterator 400, D_Loss:1.4439313411712646, G_Loss:1.1657198667526245

iterator 500, D_Loss:1.3718132972717285, G_Loss:1.196414828300476
…
Traceback (most recent call last):
  File "/usr/local/easybuild-2019/easybuild/software/compiler/gcccore/8.3.0/python/3.7.4/lib/python3.7/multiprocessing/process.py", line 297, in _bootstrap
    self.run()
  File "/usr/local/easybuild-2019/easybuild/software/compiler/gcccore/8.3.0/python/3.7.4/lib/python3.7/multiprocessing/process.py", line 99, in run
    self._target(*self._args, **self._kwargs)
  File "Daisy/run.py", line 69, in thread_run
    train_method = config["train_method"]
KeyError: 'train_method'
train row : 30148
sample row: 30148
LGAN_generator(
  (LSTM): LSTMCell(300, 200)
  (gmfc00): Linear(in_features=200, out_features=1, bias=True)
  (gmfc01): Linear(in_features=200, out_features=5, bias=True)
  (gmfc02): Linear(in_features=5, out_features=200, bias=True)
  (gmfe00): Linear(in_features=200, out_features=200, bias=True)
  (gmfe01): Linear(in_features=200, out_features=200, bias=True)
  (fc10): Linear(in_features=200, out_features=7, bias=True)
  (fc11): Linear(in_features=7, out_features=200, bias=True)
  (fe1): Linear(in_features=200, out_features=200, bias=True)
  (gmfc20): Linear(in_features=200, out_features=1, bias=True)
  (gmfc21): Linear(in_features=200, out_features=5, bias=True)
  (gmfc22): Linear(in_features=5, out_features=200, bias=True)
  (gmfe20): Linear(in_features=200, out_features=200, bias=True)
  (gmfe21): Linear(in_features=200, out_features=200, bias=True)
  (fc30): Linear(in_features=200, out_features=16, bias=True)
  (fc31): Linear(in_features=16, out_features=200, bias=True)
  (fe3): Linear(in_features=200, out_features=200, bias=True)
  (gmfc40): Linear(in_features=200, out_features=1, bias=True)
  (gmfc41): Linear(in_features=200, out_features=5, bias=True)
  (gmfc42): Linear(in_features=5, out_features=200, bias=True)
  (gmfe40): Linear(in_features=200, out_features=200, bias=True)
  (gmfe41): Linear(in_features=200, out_features=200, bias=True)
  (fc50): Linear(in_features=200, out_features=7, bias=True)
  (fc51): Linear(in_features=7, out_features=200, bias=True)
  (fe5): Linear(in_features=200, out_features=200, bias=True)
  (fc60): Linear(in_features=200, out_features=14, bias=True)
  (fc61): Linear(in_features=14, out_features=200, bias=True)
  (fe6): Linear(in_features=200, out_features=200, bias=True)
  (fc70): Linear(in_features=200, out_features=6, bias=True)
  (fc71): Linear(in_features=6, out_features=200, bias=True)
  (fe7): Linear(in_features=200, out_features=200, bias=True)
  (fc80): Linear(in_features=200, out_features=5, bias=True)
  (fc81): Linear(in_features=5, out_features=200, bias=True)
  (fe8): Linear(in_features=200, out_features=200, bias=True)
  (fc90): Linear(in_features=200, out_features=2, bias=True)
  (fc91): Linear(in_features=2, out_features=200, bias=True)
  (fe9): Linear(in_features=200, out_features=200, bias=True)
  (gmfc100): Linear(in_features=200, out_features=1, bias=True)
  (gmfc101): Linear(in_features=200, out_features=5, bias=True)
  (gmfc102): Linear(in_features=5, out_features=200, bias=True)
  (gmfe100): Linear(in_features=200, out_features=200, bias=True)
  (gmfe101): Linear(in_features=200, out_features=200, bias=True)
  (gmfc110): Linear(in_features=200, out_features=1, bias=True)
  (gmfc111): Linear(in_features=200, out_features=5, bias=True)
  (gmfc112): Linear(in_features=5, out_features=200, bias=True)
  (gmfe110): Linear(in_features=200, out_features=200, bias=True)
  (gmfe111): Linear(in_features=200, out_features=200, bias=True)
  (gmfc120): Linear(in_features=200, out_features=1, bias=True)
  (gmfc121): Linear(in_features=200, out_features=5, bias=True)
  (gmfc122): Linear(in_features=5, out_features=200, bias=True)
  (gmfe120): Linear(in_features=200, out_features=200, bias=True)
  (gmfe121): Linear(in_features=200, out_features=200, bias=True)
  (fc130): Linear(in_features=200, out_features=40, bias=True)
  (fc131): Linear(in_features=40, out_features=200, bias=True)
  (fe13): Linear(in_features=200, out_features=200, bias=True)
  (fc140): Linear(in_features=200, out_features=2, bias=True)
  (fc141): Linear(in_features=2, out_features=200, bias=True)
  (fe14): Linear(in_features=200, out_features=200, bias=True)
)
LGAN_discriminator(
  (Dropout): Dropout(p=0.5, inplace=False)
  (input): Linear(in_features=135, out_features=400, bias=True)
  (inputbn): BatchNorm1d(400, eps=1e-05, momentum=0.1, affine=True, track_running_stats=True)
  (fc0): Linear(in_features=400, out_features=400, bias=True)
  (bn0): BatchNorm1d(400, eps=1e-05, momentum=0.1, affine=True, track_running_stats=True)
  (fc1): Linear(in_features=400, out_features=400, bias=True)
  (bn1): BatchNorm1d(400, eps=1e-05, momentum=0.1, affine=True, track_running_stats=True)
  (fc2): Linear(in_features=400, out_features=400, bias=True)
  (bn2): BatchNorm1d(400, eps=1e-05, momentum=0.1, affine=True, track_running_stats=True)
  (fc3): Linear(in_features=400, out_features=400, bias=True)
  (bn3): BatchNorm1d(400, eps=1e-05, momentum=0.1, affine=True, track_running_stats=True)
  (output): Linear(in_features=400, out_features=1, bias=True)
)
------ng : 0-------
generator loss: -0.0008516765665262938
discriminator loss: -1.0122312232851982e-06
------ng : 100-------
generator loss: -0.00016998854698613286
discriminator loss: 8.326387614943087e-06
------ng : 200-------
generator loss: 6.396165190380998e-06
discriminator loss: -6.699840014334768e-06
------ng : 300-------
generator loss: -0.0002835391787812114
…
discriminator loss: -8.456147043034434e-06
------ng : 4500-------
generator loss: 0.00020902031974401325
discriminator loss: -2.551265060901642e-05
------ng : 4600-------
generator loss: 0.0004769307270180434
discriminator loss: -2.47609568759799e-05
------ng : 4700-------
generator loss: -4.699109194916673e-05
discriminator loss: -2.1697145712096244e-05
------ng : 4800-------
generator loss: -1.6206275859076413e-06
discriminator loss: -1.61849420692306e-05
------ng : 4900-------
generator loss: -0.00019862741464748979
discriminator loss: -2.2293534129858017e-05
LGAN_generator(
  (LSTM): LSTMCell(500, 400)
  (gmfc00): Linear(in_features=400, out_features=1, bias=True)
  (gmfc01): Linear(in_features=400, out_features=5, bias=True)
  (gmfc02): Linear(in_features=5, out_features=400, bias=True)
  (gmfe00): Linear(in_features=400, out_features=400, bias=True)
  (gmfe01): Linear(in_features=400, out_features=400, bias=True)
  (fc10): Linear(in_features=400, out_features=7, bias=True)
  (fc11): Linear(in_features=7, out_features=400, bias=True)
  (fe1): Linear(in_features=400, out_features=400, bias=True)
  (gmfc20): Linear(in_features=400, out_features=1, bias=True)
  (gmfc21): Linear(in_features=400, out_features=5, bias=True)
  (gmfc22): Linear(in_features=5, out_features=400, bias=True)
  (gmfe20): Linear(in_features=400, out_features=400, bias=True)
  (gmfe21): Linear(in_features=400, out_features=400, bias=True)
  (fc30): Linear(in_features=400, out_features=16, bias=True)
  (fc31): Linear(in_features=16, out_features=400, bias=True)
  (fe3): Linear(in_features=400, out_features=400, bias=True)
  (gmfc40): Linear(in_features=400, out_features=1, bias=True)
  (gmfc41): Linear(in_features=400, out_features=5, bias=True)
  (gmfc42): Linear(in_features=5, out_features=400, bias=True)
  (gmfe40): Linear(in_features=400, out_features=400, bias=True)
  (gmfe41): Linear(in_features=400, out_features=400, bias=True)
  (fc50): Linear(in_features=400, out_features=7, bias=True)
  (fc51): Linear(in_features=7, out_features=400, bias=True)
  (fe5): Linear(in_features=400, out_features=400, bias=True)
  (fc60): Linear(in_features=400, out_features=14, bias=True)
  (fc61): Linear(in_features=14, out_features=400, bias=True)
  (fe6): Linear(in_features=400, out_features=400, bias=True)
  (fc70): Linear(in_features=400, out_features=6, bias=True)
  (fc71): Linear(in_features=6, out_features=400, bias=True)
  (fe7): Linear(in_features=400, out_features=400, bias=True)
  (fc80): Linear(in_features=400, out_features=5, bias=True)
  (fc81): Linear(in_features=5, out_features=400, bias=True)
  (fe8): Linear(in_features=400, out_features=400, bias=True)
  (fc90): Linear(in_features=400, out_features=2, bias=True)
  (fc91): Linear(in_features=2, out_features=400, bias=True)
  (fe9): Linear(in_features=400, out_features=400, bias=True)
  (gmfc100): Linear(in_features=400, out_features=1, bias=True)
  (gmfc101): Linear(in_features=400, out_features=5, bias=True)
  (gmfc102): Linear(in_features=5, out_features=400, bias=True)
  (gmfe100): Linear(in_features=400, out_features=400, bias=True)
  (gmfe101): Linear(in_features=400, out_features=400, bias=True)
  (gmfc110): Linear(in_features=400, out_features=1, bias=True)
  (gmfc111): Linear(in_features=400, out_features=5, bias=True)
  (gmfc112): Linear(in_features=5, out_features=400, bias=True)
  (gmfe110): Linear(in_features=400, out_features=400, bias=True)
  (gmfe111): Linear(in_features=400, out_features=400, bias=True)
  (gmfc120): Linear(in_features=400, out_features=1, bias=True)
  (gmfc121): Linear(in_features=400, out_features=5, bias=True)
  (gmfc122): Linear(in_features=5, out_features=400, bias=True)
  (gmfe120): Linear(in_features=400, out_features=400, bias=True)
  (gmfe121): Linear(in_features=400, out_features=400, bias=True)
  (fc130): Linear(in_features=400, out_features=40, bias=True)
  (fc131): Linear(in_features=40, out_features=400, bias=True)
  (fe13): Linear(in_features=400, out_features=400, bias=True)
  (fc140): Linear(in_features=400, out_features=2, bias=True)
  (fc141): Linear(in_features=2, out_features=400, bias=True)
  (fe14): Linear(in_features=400, out_features=400, bias=True)
)
LGAN_discriminator(
  (Dropout): Dropout(p=0.5, inplace=False)
  (input): Linear(in_features=135, out_features=400, bias=True)
  (inputbn): BatchNorm1d(400, eps=1e-05, momentum=0.1, affine=True, track_running_stats=True)
  (fc0): Linear(in_features=400, out_features=400, bias=True)
  (bn0): BatchNorm1d(400, eps=1e-05, momentum=0.1, affine=True, track_running_stats=True)
  (fc1): Linear(in_features=400, out_features=400, bias=True)
  (bn1): BatchNorm1d(400, eps=1e-05, momentum=0.1, affine=True, track_running_stats=True)
  (fc2): Linear(in_features=400, out_features=400, bias=True)
  (bn2): BatchNorm1d(400, eps=1e-05, momentum=0.1, affine=True, track_running_stats=True)
  (output): Linear(in_features=400, out_features=1, bias=True)
)
------ng : 0-------
generator loss: 0.004233052022755146
discriminator loss: -0.0001000002957880497
------ng : 100-------
generator loss: 0.0016245987499132752
discriminator loss: -0.006488721817731857
------ng : 200-------
generator loss: 0.002952514449134469
discriminator loss: -0.005848695524036884
------ng : 300-------
generator loss: 0.0031944289803504944
…
