train row : 30148
sample row: 30148
VGAN_generator(
  (input): Linear(in_features=128, out_features=100, bias=True)
  (inputbn): BatchNorm1d(100, eps=1e-05, momentum=0.1, affine=True, track_running_stats=True)
  (fc0): Linear(in_features=100, out_features=100, bias=True)
  (bn0): BatchNorm1d(100, eps=1e-05, momentum=0.1, affine=True, track_running_stats=True)
  (fc1): Linear(in_features=100, out_features=100, bias=True)
  (bn1): BatchNorm1d(100, eps=1e-05, momentum=0.1, affine=True, track_running_stats=True)
  (fc2): Linear(in_features=100, out_features=100, bias=True)
  (bn2): BatchNorm1d(100, eps=1e-05, momentum=0.1, affine=True, track_running_stats=True)
  (output): Linear(in_features=100, out_features=105, bias=True)
  (outputbn): BatchNorm1d(105, eps=1e-05, momentum=0.1, affine=True, track_running_stats=True)
)
VGAN_discriminator(
  (input): Linear(in_features=105, out_features=400, bias=True)
  (Dropout): Dropout(p=0.5, inplace=False)
  (fc0): Linear(in_features=400, out_features=400, bias=True)
  (fc1): Linear(in_features=400, out_features=400, bias=True)
  (output): Linear(in_features=400, out_features=1, bias=True)
)
(0, False, 105)
-----------Epoch 0-----------
iterator 100, D_Loss:0.5803886651992798, G_Loss:5.290630340576172

iterator 200, D_Loss:0.4867834448814392, G_Loss:6.708839416503906

iterator 300, D_Loss:0.5296993255615234, G_Loss:7.692121505737305

iterator 400, D_Loss:0.5284506678581238, G_Loss:7.861950397491455

iterator 500, D_Loss:0.4803599715232849, G_Loss:7.381644248962402
…
iterator 4200, D_Loss:0.9268916845321655, G_Loss:1.862990140914917

iterator 4300, D_Loss:0.9891798496246338, G_Loss:1.7467052936553955

iterator 4400, D_Loss:1.1154696941375732, G_Loss:1.778934359550476

iterator 4500, D_Loss:0.9509965777397156, G_Loss:1.7486615180969238

iterator 4600, D_Loss:0.987451434135437, G_Loss:1.8457117080688477

iterator 4700, D_Loss:0.9621143341064453, G_Loss:1.7873485088348389

iterator 4800, D_Loss:1.035848617553711, G_Loss:1.751009464263916

iterator 4900, D_Loss:0.9518769979476929, G_Loss:1.8492025136947632

iterator 5000, D_Loss:1.0029528141021729, G_Loss:1.7914390563964844

VGAN_generator(
  (input): Linear(in_features=256, out_features=200, bias=True)
  (inputbn): BatchNorm1d(200, eps=1e-05, momentum=0.1, affine=True, track_running_stats=True)
  (fc0): Linear(in_features=200, out_features=200, bias=True)
  (bn0): BatchNorm1d(200, eps=1e-05, momentum=0.1, affine=True, track_running_stats=True)
  (fc1): Linear(in_features=200, out_features=200, bias=True)
  (bn1): BatchNorm1d(200, eps=1e-05, momentum=0.1, affine=True, track_running_stats=True)
  (fc2): Linear(in_features=200, out_features=200, bias=True)
  (bn2): BatchNorm1d(200, eps=1e-05, momentum=0.1, affine=True, track_running_stats=True)
  (output): Linear(in_features=200, out_features=105, bias=True)
  (outputbn): BatchNorm1d(105, eps=1e-05, momentum=0.1, affine=True, track_running_stats=True)
)
VGAN_discriminator(
  (input): Linear(in_features=105, out_features=200, bias=True)
  (Dropout): Dropout(p=0.5, inplace=False)
  (fc0): Linear(in_features=200, out_features=200, bias=True)
  (fc1): Linear(in_features=200, out_features=200, bias=True)
  (fc2): Linear(in_features=200, out_features=200, bias=True)
  (output): Linear(in_features=200, out_features=1, bias=True)
)
(0, False, 105)
-----------Epoch 0-----------
iterator 100, D_Loss:0.7003183960914612, G_Loss:5.354097843170166

iterator 200, D_Loss:0.6004743576049805, G_Loss:6.4397382736206055

iterator 300, D_Loss:0.5656845569610596, G_Loss:7.434243679046631

iterator 400, D_Loss:0.5797899961471558, G_Loss:7.129823207855225

iterator 500, D_Loss:0.5549585819244385, G_Loss:6.315884113311768
…
iterator 4300, D_Loss:1.2785531282424927, G_Loss:1.0220131874084473

iterator 4400, D_Loss:1.3165329694747925, G_Loss:1.0089128017425537

iterator 4500, D_Loss:1.2891064882278442, G_Loss:1.0524637699127197

iterator 4600, D_Loss:1.2850267887115479, G_Loss:1.0250188112258911

iterator 4700, D_Loss:1.2612133026123047, G_Loss:1.0726490020751953

iterator 4800, D_Loss:1.2666934728622437, G_Loss:1.043380618095398

iterator 4900, D_Loss:1.2750611305236816, G_Loss:1.0553641319274902

iterator 5000, D_Loss:1.3234665393829346, G_Loss:0.9676655530929565

train row : 30148
sample row: 30148
VGAN_generator(
  (input): Linear(in_features=256, out_features=200, bias=True)
  (inputbn): BatchNorm1d(200, eps=1e-05, momentum=0.1, affine=True, track_running_stats=True)
  (fc0): Linear(in_features=200, out_features=200, bias=True)
  (bn0): BatchNorm1d(200, eps=1e-05, momentum=0.1, affine=True, track_running_stats=True)
  (output): Linear(in_features=200, out_features=15, bias=True)
  (outputbn): BatchNorm1d(15, eps=1e-05, momentum=0.1, affine=True, track_running_stats=True)
)
VGAN_discriminator(
  (input): Linear(in_features=15, out_features=200, bias=True)
  (Dropout): Dropout(p=0.5, inplace=False)
  (fc0): Linear(in_features=200, out_features=200, bias=True)
  (fc1): Linear(in_features=200, out_features=200, bias=True)
  (output): Linear(in_features=200, out_features=1, bias=True)
)
(0, False, 15)
-----------Epoch 0-----------
iterator 100, D_Loss:0.688385009765625, G_Loss:3.764533758163452

iterator 200, D_Loss:0.7176645994186401, G_Loss:4.4392409324646

iterator 300, D_Loss:0.6107150316238403, G_Loss:5.58353328704834

iterator 400, D_Loss:0.5709763169288635, G_Loss:5.853353500366211

iterator 500, D_Loss:0.5497614741325378, G_Loss:6.77285099029541
…
iterator 4200, D_Loss:1.0039544105529785, G_Loss:1.6705678701400757

iterator 4300, D_Loss:1.0093493461608887, G_Loss:1.6007781028747559

iterator 4400, D_Loss:1.003267765045166, G_Loss:1.7202081680297852

iterator 4500, D_Loss:0.9962202310562134, G_Loss:1.516274333000183

iterator 4600, D_Loss:0.9733999967575073, G_Loss:1.599217176437378

iterator 4700, D_Loss:1.0110628604888916, G_Loss:1.6552518606185913

iterator 4800, D_Loss:0.9985283017158508, G_Loss:1.6388580799102783

iterator 4900, D_Loss:0.9171727299690247, G_Loss:1.6448171138763428

iterator 5000, D_Loss:1.0714128017425537, G_Loss:1.6195327043533325

VGAN_generator(
  (input): Linear(in_features=256, out_features=100, bias=True)
  (inputbn): BatchNorm1d(100, eps=1e-05, momentum=0.1, affine=True, track_running_stats=True)
  (fc0): Linear(in_features=100, out_features=100, bias=True)
  (bn0): BatchNorm1d(100, eps=1e-05, momentum=0.1, affine=True, track_running_stats=True)
  (fc1): Linear(in_features=100, out_features=100, bias=True)
  (bn1): BatchNorm1d(100, eps=1e-05, momentum=0.1, affine=True, track_running_stats=True)
  (output): Linear(in_features=100, out_features=15, bias=True)
  (outputbn): BatchNorm1d(15, eps=1e-05, momentum=0.1, affine=True, track_running_stats=True)
)
VGAN_discriminator(
  (input): Linear(in_features=15, out_features=100, bias=True)
  (Dropout): Dropout(p=0.5, inplace=False)
  (fc0): Linear(in_features=100, out_features=100, bias=True)
  (output): Linear(in_features=100, out_features=1, bias=True)
)
(0, False, 15)
-----------Epoch 0-----------
iterator 100, D_Loss:1.260432481765747, G_Loss:0.8080135583877563

iterator 200, D_Loss:0.9709378480911255, G_Loss:1.1811453104019165

iterator 300, D_Loss:0.8305239677429199, G_Loss:1.8149456977844238

iterator 400, D_Loss:0.849388062953949, G_Loss:2.341179847717285

iterator 500, D_Loss:0.7484388947486877, G_Loss:2.8135085105895996
…
iterator 4300, D_Loss:1.0297664403915405, G_Loss:1.5605518817901611

iterator 4400, D_Loss:0.9724408388137817, G_Loss:1.8044407367706299

iterator 4500, D_Loss:0.9850271940231323, G_Loss:1.77053964138031

iterator 4600, D_Loss:0.907066285610199, G_Loss:1.7067115306854248

iterator 4700, D_Loss:0.9244940876960754, G_Loss:1.8792121410369873

iterator 4800, D_Loss:0.9920327663421631, G_Loss:1.8412034511566162

iterator 4900, D_Loss:0.94871586561203, G_Loss:1.825085997581482

iterator 5000, D_Loss:0.9102090001106262, G_Loss:1.8075435161590576

train row : 30148
sample row: 30148
VGAN_generator(
  (input): Linear(in_features=256, out_features=300, bias=True)
  (inputbn): BatchNorm1d(300, eps=1e-05, momentum=0.1, affine=True, track_running_stats=True)
  (fc0): Linear(in_features=300, out_features=300, bias=True)
  (bn0): BatchNorm1d(300, eps=1e-05, momentum=0.1, affine=True, track_running_stats=True)
  (output): Linear(in_features=300, out_features=135, bias=True)
  (outputbn): BatchNorm1d(135, eps=1e-05, momentum=0.1, affine=True, track_running_stats=True)
)
VGAN_discriminator(
  (input): Linear(in_features=135, out_features=200, bias=True)
  (Dropout): Dropout(p=0.5, inplace=False)
  (fc0): Linear(in_features=200, out_features=200, bias=True)
  (fc1): Linear(in_features=200, out_features=200, bias=True)
  (fc2): Linear(in_features=200, out_features=200, bias=True)
  (output): Linear(in_features=200, out_features=1, bias=True)
)
(0, False, 135)
-----------Epoch 0-----------
iterator 100, D_Loss:0.5968485474586487, G_Loss:12.664772033691406

iterator 200, D_Loss:0.44425198435783386, G_Loss:12.89126968383789

iterator 300, D_Loss:0.45668572187423706, G_Loss:12.529706954956055

iterator 400, D_Loss:0.4352073669433594, G_Loss:12.615533828735352

iterator 500, D_Loss:0.4647919237613678, G_Loss:12.58184814453125
…
iterator 4200, D_Loss:0.9506545066833496, G_Loss:2.5445399284362793

iterator 4300, D_Loss:0.933820366859436, G_Loss:2.473031520843506

iterator 4400, D_Loss:1.0025213956832886, G_Loss:2.567821979522705

iterator 4500, D_Loss:0.9207210540771484, G_Loss:2.6462557315826416

iterator 4600, D_Loss:0.8373527526855469, G_Loss:2.4683878421783447

iterator 4700, D_Loss:0.8662897348403931, G_Loss:2.5773143768310547

iterator 4800, D_Loss:0.8710445761680603, G_Loss:2.5964643955230713

iterator 4900, D_Loss:0.8460007905960083, G_Loss:2.6045548915863037

iterator 5000, D_Loss:0.887779712677002, G_Loss:2.602912664413452

VGAN_generator(
  (input): Linear(in_features=128, out_features=300, bias=True)
  (inputbn): BatchNorm1d(300, eps=1e-05, momentum=0.1, affine=True, track_running_stats=True)
  (fc0): Linear(in_features=300, out_features=300, bias=True)
  (bn0): BatchNorm1d(300, eps=1e-05, momentum=0.1, affine=True, track_running_stats=True)
  (fc1): Linear(in_features=300, out_features=300, bias=True)
  (bn1): BatchNorm1d(300, eps=1e-05, momentum=0.1, affine=True, track_running_stats=True)
  (output): Linear(in_features=300, out_features=135, bias=True)
  (outputbn): BatchNorm1d(135, eps=1e-05, momentum=0.1, affine=True, track_running_stats=True)
)
VGAN_discriminator(
  (input): Linear(in_features=135, out_features=200, bias=True)
  (Dropout): Dropout(p=0.5, inplace=False)
  (fc0): Linear(in_features=200, out_features=200, bias=True)
  (fc1): Linear(in_features=200, out_features=200, bias=True)
  (fc2): Linear(in_features=200, out_features=200, bias=True)
  (output): Linear(in_features=200, out_features=1, bias=True)
)
(0, False, 135)
-----------Epoch 0-----------
iterator 100, D_Loss:0.8455665111541748, G_Loss:9.003435134887695

iterator 200, D_Loss:0.5698524117469788, G_Loss:11.159344673156738

iterator 300, D_Loss:0.5556261539459229, G_Loss:11.616289138793945

iterator 400, D_Loss:0.5324919819831848, G_Loss:11.634581565856934

iterator 500, D_Loss:0.5793496370315552, G_Loss:12.279573440551758
…
iterator 4300, D_Loss:0.7213492393493652, G_Loss:3.1227965354919434

iterator 4400, D_Loss:0.7780145406723022, G_Loss:3.639702081680298

iterator 4500, D_Loss:0.7225736379623413, G_Loss:3.2709760665893555

iterator 4600, D_Loss:0.6808555126190186, G_Loss:3.5757384300231934

iterator 4700, D_Loss:0.767371416091919, G_Loss:3.2666594982147217

iterator 4800, D_Loss:0.6912699937820435, G_Loss:2.9014453887939453

iterator 4900, D_Loss:0.6465988159179688, G_Loss:3.109971761703491

iterator 5000, D_Loss:0.681726336479187, G_Loss:3.371866464614868

train row : 30148
sample row: 30148
VGAN_generator(
  (input): Linear(in_features=128, out_features=100, bias=True)
  (inputbn): BatchNorm1d(100, eps=1e-05, momentum=0.1, affine=True, track_running_stats=True)
  (fc0): Linear(in_features=100, out_features=100, bias=True)
  (bn0): BatchNorm1d(100, eps=1e-05, momentum=0.1, affine=True, track_running_stats=True)
  (fc1): Linear(in_features=100, out_features=100, bias=True)
  (bn1): BatchNorm1d(100, eps=1e-05, momentum=0.1, affine=True, track_running_stats=True)
  (output): Linear(in_features=100, out_features=45, bias=True)
  (outputbn): BatchNorm1d(45, eps=1e-05, momentum=0.1, affine=True, track_running_stats=True)
)
VGAN_discriminator(
  (input): Linear(in_features=45, out_features=200, bias=True)
  (Dropout): Dropout(p=0.5, inplace=False)
  (fc0): Linear(in_features=200, out_features=200, bias=True)
  (fc1): Linear(in_features=200, out_features=200, bias=True)
  (fc2): Linear(in_features=200, out_features=200, bias=True)
  (output): Linear(in_features=200, out_features=1, bias=True)
)
(0, False, 45)
-----------Epoch 0-----------
iterator 100, D_Loss:1.1730294227600098, G_Loss:7.698119163513184

iterator 200, D_Loss:0.5568476915359497, G_Loss:9.247259140014648

iterator 300, D_Loss:0.5479323267936707, G_Loss:10.258594512939453

iterator 400, D_Loss:0.514741837978363, G_Loss:11.001577377319336

iterator 500, D_Loss:0.5864728093147278, G_Loss:11.514263153076172
…
iterator 4200, D_Loss:0.5939082503318787, G_Loss:4.602112770080566

iterator 4300, D_Loss:0.5659378170967102, G_Loss:4.4846272468566895

iterator 4400, D_Loss:0.6287850737571716, G_Loss:4.225216865539551

iterator 4500, D_Loss:0.5186170339584351, G_Loss:4.280765533447266

iterator 4600, D_Loss:0.5189884305000305, G_Loss:4.452374458312988

iterator 4700, D_Loss:0.5423893332481384, G_Loss:4.537381172180176

iterator 4800, D_Loss:0.6262663006782532, G_Loss:4.495725154876709

iterator 4900, D_Loss:0.5609474778175354, G_Loss:4.394124984741211

iterator 5000, D_Loss:0.6151125431060791, G_Loss:4.173478603363037

VGAN_generator(
  (input): Linear(in_features=256, out_features=300, bias=True)
  (inputbn): BatchNorm1d(300, eps=1e-05, momentum=0.1, affine=True, track_running_stats=True)
  (fc0): Linear(in_features=300, out_features=300, bias=True)
  (bn0): BatchNorm1d(300, eps=1e-05, momentum=0.1, affine=True, track_running_stats=True)
  (fc1): Linear(in_features=300, out_features=300, bias=True)
  (bn1): BatchNorm1d(300, eps=1e-05, momentum=0.1, affine=True, track_running_stats=True)
  (output): Linear(in_features=300, out_features=45, bias=True)
  (outputbn): BatchNorm1d(45, eps=1e-05, momentum=0.1, affine=True, track_running_stats=True)
)
VGAN_discriminator(
  (input): Linear(in_features=45, out_features=300, bias=True)
  (Dropout): Dropout(p=0.5, inplace=False)
  (fc0): Linear(in_features=300, out_features=300, bias=True)
  (fc1): Linear(in_features=300, out_features=300, bias=True)
  (fc2): Linear(in_features=300, out_features=300, bias=True)
  (output): Linear(in_features=300, out_features=1, bias=True)
)
(0, False, 45)
-----------Epoch 0-----------
iterator 100, D_Loss:0.5141373872756958, G_Loss:12.751045227050781

iterator 200, D_Loss:0.4457976818084717, G_Loss:12.303573608398438

iterator 300, D_Loss:0.4719335436820984, G_Loss:11.560619354248047

iterator 400, D_Loss:0.46907293796539307, G_Loss:9.812501907348633

iterator 500, D_Loss:0.4885024428367615, G_Loss:10.691404342651367
…
iterator 4300, D_Loss:0.8504902124404907, G_Loss:2.739762783050537

iterator 4400, D_Loss:0.9906686544418335, G_Loss:2.824413299560547

iterator 4500, D_Loss:0.8974800705909729, G_Loss:2.7085659503936768

iterator 4600, D_Loss:0.956027626991272, G_Loss:3.801936626434326

iterator 4700, D_Loss:0.7927060127258301, G_Loss:3.6623430252075195

iterator 4800, D_Loss:0.7712992429733276, G_Loss:2.831165313720703

iterator 4900, D_Loss:0.8586959838867188, G_Loss:2.6094603538513184

iterator 5000, D_Loss:0.7857503890991211, G_Loss:2.716334342956543

train row : 30148
sample row: 30148
LGAN_generator(
  (LSTM): LSTMCell(400, 300)
  (gmfc00): Linear(in_features=200, out_features=1, bias=True)
  (gmfc01): Linear(in_features=200, out_features=5, bias=True)
  (gmfc02): Linear(in_features=5, out_features=200, bias=True)
  (gmfe00): Linear(in_features=300, out_features=200, bias=True)
  (gmfe01): Linear(in_features=300, out_features=200, bias=True)
  (fc10): Linear(in_features=200, out_features=7, bias=True)
  (fc11): Linear(in_features=7, out_features=200, bias=True)
  (fe1): Linear(in_features=300, out_features=200, bias=True)
  (gmfc20): Linear(in_features=200, out_features=1, bias=True)
  (gmfc21): Linear(in_features=200, out_features=5, bias=True)
  (gmfc22): Linear(in_features=5, out_features=200, bias=True)
  (gmfe20): Linear(in_features=300, out_features=200, bias=True)
  (gmfe21): Linear(in_features=300, out_features=200, bias=True)
  (fc30): Linear(in_features=200, out_features=16, bias=True)
  (fc31): Linear(in_features=16, out_features=200, bias=True)
  (fe3): Linear(in_features=300, out_features=200, bias=True)
  (gmfc40): Linear(in_features=200, out_features=1, bias=True)
  (gmfc41): Linear(in_features=200, out_features=5, bias=True)
  (gmfc42): Linear(in_features=5, out_features=200, bias=True)
  (gmfe40): Linear(in_features=300, out_features=200, bias=True)
  (gmfe41): Linear(in_features=300, out_features=200, bias=True)
  (fc50): Linear(in_features=200, out_features=7, bias=True)
  (fc51): Linear(in_features=7, out_features=200, bias=True)
  (fe5): Linear(in_features=300, out_features=200, bias=True)
  (fc60): Linear(in_features=200, out_features=14, bias=True)
  (fc61): Linear(in_features=14, out_features=200, bias=True)
  (fe6): Linear(in_features=300, out_features=200, bias=True)
  (fc70): Linear(in_features=200, out_features=6, bias=True)
  (fc71): Linear(in_features=6, out_features=200, bias=True)
  (fe7): Linear(in_features=300, out_features=200, bias=True)
  (fc80): Linear(in_features=200, out_features=5, bias=True)
  (fc81): Linear(in_features=5, out_features=200, bias=True)
  (fe8): Linear(in_features=300, out_features=200, bias=True)
  (fc90): Linear(in_features=200, out_features=2, bias=True)
  (fc91): Linear(in_features=2, out_features=200, bias=True)
  (fe9): Linear(in_features=300, out_features=200, bias=True)
  (gmfc100): Linear(in_features=200, out_features=1, bias=True)
  (gmfc101): Linear(in_features=200, out_features=5, bias=True)
  (gmfc102): Linear(in_features=5, out_features=200, bias=True)
  (gmfe100): Linear(in_features=300, out_features=200, bias=True)
  (gmfe101): Linear(in_features=300, out_features=200, bias=True)
  (gmfc110): Linear(in_features=200, out_features=1, bias=True)
  (gmfc111): Linear(in_features=200, out_features=5, bias=True)
  (gmfc112): Linear(in_features=5, out_features=200, bias=True)
  (gmfe110): Linear(in_features=300, out_features=200, bias=True)
  (gmfe111): Linear(in_features=300, out_features=200, bias=True)
  (gmfc120): Linear(in_features=200, out_features=1, bias=True)
  (gmfc121): Linear(in_features=200, out_features=5, bias=True)
  (gmfc122): Linear(in_features=5, out_features=200, bias=True)
  (gmfe120): Linear(in_features=300, out_features=200, bias=True)
  (gmfe121): Linear(in_features=300, out_features=200, bias=True)
  (fc130): Linear(in_features=200, out_features=40, bias=True)
  (fc131): Linear(in_features=40, out_features=200, bias=True)
  (fe13): Linear(in_features=300, out_features=200, bias=True)
  (fc140): Linear(in_features=200, out_features=2, bias=True)
  (fc141): Linear(in_features=2, out_features=200, bias=True)
  (fe14): Linear(in_features=300, out_features=200, bias=True)
)
LGAN_discriminator(
  (Dropout): Dropout(p=0.5, inplace=False)
  (input): Linear(in_features=135, out_features=500, bias=True)
  (inputbn): BatchNorm1d(500, eps=1e-05, momentum=0.1, affine=True, track_running_stats=True)
  (fc0): Linear(in_features=500, out_features=500, bias=True)
  (bn0): BatchNorm1d(500, eps=1e-05, momentum=0.1, affine=True, track_running_stats=True)
  (fc1): Linear(in_features=500, out_features=500, bias=True)
  (bn1): BatchNorm1d(500, eps=1e-05, momentum=0.1, affine=True, track_running_stats=True)
  (fc2): Linear(in_features=500, out_features=500, bias=True)
  (bn2): BatchNorm1d(500, eps=1e-05, momentum=0.1, affine=True, track_running_stats=True)
  (fc3): Linear(in_features=500, out_features=500, bias=True)
  (bn3): BatchNorm1d(500, eps=1e-05, momentum=0.1, affine=True, track_running_stats=True)
  (fc4): Linear(in_features=500, out_features=500, bias=True)
  (bn4): BatchNorm1d(500, eps=1e-05, momentum=0.1, affine=True, track_running_stats=True)
  (output): Linear(in_features=500, out_features=1, bias=True)
)
(0, False, 135)
-----------Epoch 0-----------
iterator 100, D_Loss:1.3956108093261719, G_Loss:0.9636914134025574

iterator 200, D_Loss:1.3764410018920898, G_Loss:1.0714269876480103

iterator 300, D_Loss:1.4068820476531982, G_Loss:0.9929214715957642

iterator 400, D_Loss:1.3823206424713135, G_Loss:0.9789959192276001

iterator 500, D_Loss:1.3863296508789062, G_Loss:1.099163293838501
…
iterator 4300, D_Loss:0.4334172010421753, G_Loss:14.853714942932129

iterator 4400, D_Loss:0.45560920238494873, G_Loss:12.628535270690918

iterator 4500, D_Loss:0.43302205204963684, G_Loss:14.442304611206055

iterator 4600, D_Loss:0.40758076310157776, G_Loss:13.04853343963623

iterator 4700, D_Loss:0.41290605068206787, G_Loss:13.496082305908203

iterator 4800, D_Loss:0.42212074995040894, G_Loss:14.984495162963867

iterator 4900, D_Loss:0.41335615515708923, G_Loss:13.765342712402344

iterator 5000, D_Loss:0.44975438714027405, G_Loss:14.107461929321289

LGAN_generator(
  (LSTM): LSTMCell(300, 400)
  (gmfc00): Linear(in_features=200, out_features=1, bias=True)
  (gmfc01): Linear(in_features=200, out_features=5, bias=True)
  (gmfc02): Linear(in_features=5, out_features=200, bias=True)
  (gmfe00): Linear(in_features=400, out_features=200, bias=True)
  (gmfe01): Linear(in_features=400, out_features=200, bias=True)
  (fc10): Linear(in_features=200, out_features=7, bias=True)
  (fc11): Linear(in_features=7, out_features=200, bias=True)
  (fe1): Linear(in_features=400, out_features=200, bias=True)
  (gmfc20): Linear(in_features=200, out_features=1, bias=True)
  (gmfc21): Linear(in_features=200, out_features=5, bias=True)
  (gmfc22): Linear(in_features=5, out_features=200, bias=True)
  (gmfe20): Linear(in_features=400, out_features=200, bias=True)
  (gmfe21): Linear(in_features=400, out_features=200, bias=True)
  (fc30): Linear(in_features=200, out_features=16, bias=True)
  (fc31): Linear(in_features=16, out_features=200, bias=True)
  (fe3): Linear(in_features=400, out_features=200, bias=True)
  (gmfc40): Linear(in_features=200, out_features=1, bias=True)
  (gmfc41): Linear(in_features=200, out_features=5, bias=True)
  (gmfc42): Linear(in_features=5, out_features=200, bias=True)
  (gmfe40): Linear(in_features=400, out_features=200, bias=True)
  (gmfe41): Linear(in_features=400, out_features=200, bias=True)
  (fc50): Linear(in_features=200, out_features=7, bias=True)
  (fc51): Linear(in_features=7, out_features=200, bias=True)
  (fe5): Linear(in_features=400, out_features=200, bias=True)
  (fc60): Linear(in_features=200, out_features=14, bias=True)
  (fc61): Linear(in_features=14, out_features=200, bias=True)
  (fe6): Linear(in_features=400, out_features=200, bias=True)
  (fc70): Linear(in_features=200, out_features=6, bias=True)
  (fc71): Linear(in_features=6, out_features=200, bias=True)
  (fe7): Linear(in_features=400, out_features=200, bias=True)
  (fc80): Linear(in_features=200, out_features=5, bias=True)
  (fc81): Linear(in_features=5, out_features=200, bias=True)
  (fe8): Linear(in_features=400, out_features=200, bias=True)
  (fc90): Linear(in_features=200, out_features=2, bias=True)
  (fc91): Linear(in_features=2, out_features=200, bias=True)
  (fe9): Linear(in_features=400, out_features=200, bias=True)
  (gmfc100): Linear(in_features=200, out_features=1, bias=True)
  (gmfc101): Linear(in_features=200, out_features=5, bias=True)
  (gmfc102): Linear(in_features=5, out_features=200, bias=True)
  (gmfe100): Linear(in_features=400, out_features=200, bias=True)
  (gmfe101): Linear(in_features=400, out_features=200, bias=True)
  (gmfc110): Linear(in_features=200, out_features=1, bias=True)
  (gmfc111): Linear(in_features=200, out_features=5, bias=True)
  (gmfc112): Linear(in_features=5, out_features=200, bias=True)
  (gmfe110): Linear(in_features=400, out_features=200, bias=True)
  (gmfe111): Linear(in_features=400, out_features=200, bias=True)
  (gmfc120): Linear(in_features=200, out_features=1, bias=True)
  (gmfc121): Linear(in_features=200, out_features=5, bias=True)
  (gmfc122): Linear(in_features=5, out_features=200, bias=True)
  (gmfe120): Linear(in_features=400, out_features=200, bias=True)
  (gmfe121): Linear(in_features=400, out_features=200, bias=True)
  (fc130): Linear(in_features=200, out_features=40, bias=True)
  (fc131): Linear(in_features=40, out_features=200, bias=True)
  (fe13): Linear(in_features=400, out_features=200, bias=True)
  (fc140): Linear(in_features=200, out_features=2, bias=True)
  (fc141): Linear(in_features=2, out_features=200, bias=True)
  (fe14): Linear(in_features=400, out_features=200, bias=True)
)
LGAN_discriminator(
  (Dropout): Dropout(p=0.5, inplace=False)
  (input): Linear(in_features=135, out_features=200, bias=True)
  (inputbn): BatchNorm1d(200, eps=1e-05, momentum=0.1, affine=True, track_running_stats=True)
  (fc0): Linear(in_features=200, out_features=200, bias=True)
  (bn0): BatchNorm1d(200, eps=1e-05, momentum=0.1, affine=True, track_running_stats=True)
  (fc1): Linear(in_features=200, out_features=200, bias=True)
  (bn1): BatchNorm1d(200, eps=1e-05, momentum=0.1, affine=True, track_running_stats=True)
  (fc2): Linear(in_features=200, out_features=200, bias=True)
  (bn2): BatchNorm1d(200, eps=1e-05, momentum=0.1, affine=True, track_running_stats=True)
  (output): Linear(in_features=200, out_features=1, bias=True)
)
(0, False, 135)
-----------Epoch 0-----------
iterator 100, D_Loss:1.4175366163253784, G_Loss:0.9100823402404785

iterator 200, D_Loss:1.4006874561309814, G_Loss:0.9302290081977844

iterator 300, D_Loss:1.403992772102356, G_Loss:0.909889817237854

iterator 400, D_Loss:1.3939138650894165, G_Loss:0.8970764875411987

iterator 500, D_Loss:1.3753044605255127, G_Loss:0.9140807390213013
…
iterator 4300, D_Loss:0.44562941789627075, G_Loss:18.658828735351562

iterator 4400, D_Loss:0.42427346110343933, G_Loss:17.643898010253906

iterator 4500, D_Loss:0.4259437024593353, G_Loss:20.525455474853516

iterator 4600, D_Loss:0.4419250786304474, G_Loss:16.789857864379883

iterator 4700, D_Loss:0.4565046727657318, G_Loss:17.69710922241211

iterator 4800, D_Loss:0.4264526963233948, G_Loss:16.58165740966797

iterator 4900, D_Loss:0.43542027473449707, G_Loss:20.00197982788086

iterator 5000, D_Loss:0.44073954224586487, G_Loss:19.173728942871094

train row : 30148
sample row: 30148
LGAN_generator(
  (LSTM): LSTMCell(800, 200)
  (gmfc00): Linear(in_features=400, out_features=1, bias=True)
  (gmfc01): Linear(in_features=400, out_features=5, bias=True)
  (gmfc02): Linear(in_features=5, out_features=400, bias=True)
  (gmfe00): Linear(in_features=200, out_features=400, bias=True)
  (gmfe01): Linear(in_features=200, out_features=400, bias=True)
  (fc10): Linear(in_features=400, out_features=1, bias=True)
  (fc11): Linear(in_features=1, out_features=400, bias=True)
  (fe1): Linear(in_features=200, out_features=400, bias=True)
  (gmfc20): Linear(in_features=400, out_features=1, bias=True)
  (gmfc21): Linear(in_features=400, out_features=5, bias=True)
  (gmfc22): Linear(in_features=5, out_features=400, bias=True)
  (gmfe20): Linear(in_features=200, out_features=400, bias=True)
  (gmfe21): Linear(in_features=200, out_features=400, bias=True)
  (fc30): Linear(in_features=400, out_features=1, bias=True)
  (fc31): Linear(in_features=1, out_features=400, bias=True)
  (fe3): Linear(in_features=200, out_features=400, bias=True)
  (gmfc40): Linear(in_features=400, out_features=1, bias=True)
  (gmfc41): Linear(in_features=400, out_features=5, bias=True)
  (gmfc42): Linear(in_features=5, out_features=400, bias=True)
  (gmfe40): Linear(in_features=200, out_features=400, bias=True)
  (gmfe41): Linear(in_features=200, out_features=400, bias=True)
  (fc50): Linear(in_features=400, out_features=1, bias=True)
  (fc51): Linear(in_features=1, out_features=400, bias=True)
  (fe5): Linear(in_features=200, out_features=400, bias=True)
  (fc60): Linear(in_features=400, out_features=1, bias=True)
  (fc61): Linear(in_features=1, out_features=400, bias=True)
  (fe6): Linear(in_features=200, out_features=400, bias=True)
  (fc70): Linear(in_features=400, out_features=1, bias=True)
  (fc71): Linear(in_features=1, out_features=400, bias=True)
  (fe7): Linear(in_features=200, out_features=400, bias=True)
  (fc80): Linear(in_features=400, out_features=1, bias=True)
  (fc81): Linear(in_features=1, out_features=400, bias=True)
  (fe8): Linear(in_features=200, out_features=400, bias=True)
  (fc90): Linear(in_features=400, out_features=1, bias=True)
  (fc91): Linear(in_features=1, out_features=400, bias=True)
  (fe9): Linear(in_features=200, out_features=400, bias=True)
  (gmfc100): Linear(in_features=400, out_features=1, bias=True)
  (gmfc101): Linear(in_features=400, out_features=5, bias=True)
  (gmfc102): Linear(in_features=5, out_features=400, bias=True)
  (gmfe100): Linear(in_features=200, out_features=400, bias=True)
  (gmfe101): Linear(in_features=200, out_features=400, bias=True)
  (gmfc110): Linear(in_features=400, out_features=1, bias=True)
  (gmfc111): Linear(in_features=400, out_features=5, bias=True)
  (gmfc112): Linear(in_features=5, out_features=400, bias=True)
  (gmfe110): Linear(in_features=200, out_features=400, bias=True)
  (gmfe111): Linear(in_features=200, out_features=400, bias=True)
  (gmfc120): Linear(in_features=400, out_features=1, bias=True)
  (gmfc121): Linear(in_features=400, out_features=5, bias=True)
  (gmfc122): Linear(in_features=5, out_features=400, bias=True)
  (gmfe120): Linear(in_features=200, out_features=400, bias=True)
  (gmfe121): Linear(in_features=200, out_features=400, bias=True)
  (fc130): Linear(in_features=400, out_features=1, bias=True)
  (fc131): Linear(in_features=1, out_features=400, bias=True)
  (fe13): Linear(in_features=200, out_features=400, bias=True)
  (fc140): Linear(in_features=400, out_features=1, bias=True)
  (fc141): Linear(in_features=1, out_features=400, bias=True)
  (fe14): Linear(in_features=200, out_features=400, bias=True)
)
LGAN_discriminator(
  (Dropout): Dropout(p=0.5, inplace=False)
  (input): Linear(in_features=45, out_features=100, bias=True)
  (inputbn): BatchNorm1d(100, eps=1e-05, momentum=0.1, affine=True, track_running_stats=True)
  (fc0): Linear(in_features=100, out_features=100, bias=True)
  (bn0): BatchNorm1d(100, eps=1e-05, momentum=0.1, affine=True, track_running_stats=True)
  (output): Linear(in_features=100, out_features=1, bias=True)
)
(0, False, 45)
-----------Epoch 0-----------
iterator 100, D_Loss:1.380711317062378, G_Loss:1.0534448623657227

iterator 200, D_Loss:1.3612850904464722, G_Loss:0.9750094413757324

iterator 300, D_Loss:1.3590494394302368, G_Loss:1.1098887920379639

iterator 400, D_Loss:1.331087589263916, G_Loss:1.1556532382965088

iterator 500, D_Loss:1.3150174617767334, G_Loss:1.1351274251937866
…
iterator 4200, D_Loss:0.8911426067352295, G_Loss:3.0996859073638916

iterator 4300, D_Loss:0.8455963730812073, G_Loss:2.5716123580932617

iterator 4400, D_Loss:0.7868614196777344, G_Loss:2.2503929138183594

iterator 4500, D_Loss:0.9303331971168518, G_Loss:3.974174737930298

iterator 4600, D_Loss:0.701414942741394, G_Loss:3.16269850730896

iterator 4700, D_Loss:0.8689768314361572, G_Loss:3.50419282913208

iterator 4800, D_Loss:1.6541825532913208, G_Loss:2.733236074447632

iterator 4900, D_Loss:1.1697429418563843, G_Loss:3.1503472328186035

iterator 5000, D_Loss:0.7353603839874268, G_Loss:3.002476692199707

LGAN_generator(
  (LSTM): LSTMCell(300, 500)
  (gmfc00): Linear(in_features=100, out_features=1, bias=True)
  (gmfc01): Linear(in_features=100, out_features=5, bias=True)
  (gmfc02): Linear(in_features=5, out_features=100, bias=True)
  (gmfe00): Linear(in_features=500, out_features=100, bias=True)
  (gmfe01): Linear(in_features=500, out_features=100, bias=True)
  (fc10): Linear(in_features=100, out_features=1, bias=True)
  (fc11): Linear(in_features=1, out_features=100, bias=True)
  (fe1): Linear(in_features=500, out_features=100, bias=True)
  (gmfc20): Linear(in_features=100, out_features=1, bias=True)
  (gmfc21): Linear(in_features=100, out_features=5, bias=True)
  (gmfc22): Linear(in_features=5, out_features=100, bias=True)
  (gmfe20): Linear(in_features=500, out_features=100, bias=True)
  (gmfe21): Linear(in_features=500, out_features=100, bias=True)
  (fc30): Linear(in_features=100, out_features=1, bias=True)
  (fc31): Linear(in_features=1, out_features=100, bias=True)
  (fe3): Linear(in_features=500, out_features=100, bias=True)
  (gmfc40): Linear(in_features=100, out_features=1, bias=True)
  (gmfc41): Linear(in_features=100, out_features=5, bias=True)
  (gmfc42): Linear(in_features=5, out_features=100, bias=True)
  (gmfe40): Linear(in_features=500, out_features=100, bias=True)
  (gmfe41): Linear(in_features=500, out_features=100, bias=True)
  (fc50): Linear(in_features=100, out_features=1, bias=True)
  (fc51): Linear(in_features=1, out_features=100, bias=True)
  (fe5): Linear(in_features=500, out_features=100, bias=True)
  (fc60): Linear(in_features=100, out_features=1, bias=True)
  (fc61): Linear(in_features=1, out_features=100, bias=True)
  (fe6): Linear(in_features=500, out_features=100, bias=True)
  (fc70): Linear(in_features=100, out_features=1, bias=True)
  (fc71): Linear(in_features=1, out_features=100, bias=True)
  (fe7): Linear(in_features=500, out_features=100, bias=True)
  (fc80): Linear(in_features=100, out_features=1, bias=True)
  (fc81): Linear(in_features=1, out_features=100, bias=True)
  (fe8): Linear(in_features=500, out_features=100, bias=True)
  (fc90): Linear(in_features=100, out_features=1, bias=True)
  (fc91): Linear(in_features=1, out_features=100, bias=True)
  (fe9): Linear(in_features=500, out_features=100, bias=True)
  (gmfc100): Linear(in_features=100, out_features=1, bias=True)
  (gmfc101): Linear(in_features=100, out_features=5, bias=True)
  (gmfc102): Linear(in_features=5, out_features=100, bias=True)
  (gmfe100): Linear(in_features=500, out_features=100, bias=True)
  (gmfe101): Linear(in_features=500, out_features=100, bias=True)
  (gmfc110): Linear(in_features=100, out_features=1, bias=True)
  (gmfc111): Linear(in_features=100, out_features=5, bias=True)
  (gmfc112): Linear(in_features=5, out_features=100, bias=True)
  (gmfe110): Linear(in_features=500, out_features=100, bias=True)
  (gmfe111): Linear(in_features=500, out_features=100, bias=True)
  (gmfc120): Linear(in_features=100, out_features=1, bias=True)
  (gmfc121): Linear(in_features=100, out_features=5, bias=True)
  (gmfc122): Linear(in_features=5, out_features=100, bias=True)
  (gmfe120): Linear(in_features=500, out_features=100, bias=True)
  (gmfe121): Linear(in_features=500, out_features=100, bias=True)
  (fc130): Linear(in_features=100, out_features=1, bias=True)
  (fc131): Linear(in_features=1, out_features=100, bias=True)
  (fe13): Linear(in_features=500, out_features=100, bias=True)
  (fc140): Linear(in_features=100, out_features=1, bias=True)
  (fc141): Linear(in_features=1, out_features=100, bias=True)
  (fe14): Linear(in_features=500, out_features=100, bias=True)
)
LGAN_discriminator(
  (Dropout): Dropout(p=0.5, inplace=False)
  (input): Linear(in_features=45, out_features=100, bias=True)
  (inputbn): BatchNorm1d(100, eps=1e-05, momentum=0.1, affine=True, track_running_stats=True)
  (fc0): Linear(in_features=100, out_features=100, bias=True)
  (bn0): BatchNorm1d(100, eps=1e-05, momentum=0.1, affine=True, track_running_stats=True)
  (output): Linear(in_features=100, out_features=1, bias=True)
)
(0, False, 45)
-----------Epoch 0-----------
iterator 100, D_Loss:1.400888204574585, G_Loss:1.0004005432128906

iterator 200, D_Loss:1.3917291164398193, G_Loss:0.9788689613342285

iterator 300, D_Loss:1.3501958847045898, G_Loss:1.024251937866211

iterator 400, D_Loss:1.3843423128128052, G_Loss:1.112734317779541

iterator 500, D_Loss:1.32039475440979, G_Loss:1.075608730316162
…
/usr/local/easybuild-2019/easybuild/build/PyTorch/1.4.0/fosscuda-2019b-Python-3.7.4/pytorch-1.4.0/aten/src/THCUNN/BCECriterion.cu:42: Acctype bce_functor<Dtype, Acctype>::operator()(Tuple) [with Tuple = thrust::detail::tuple_of_iterator_references<thrust::device_reference<float>, thrust::device_reference<float>, thrust::null_type, thrust::null_type, thrust::null_type, thrust::null_type, thrust::null_type, thrust::null_type, thrust::null_type, thrust::null_type>, Dtype = float, Acctype = float]: block: [0,0,0], thread: [191,0,0] Assertion `input >= 0. && input <= 1.` failed.
LGAN_generator(
  (LSTM): LSTMCell(500, 300)
  (fc00): Linear(in_features=300, out_features=1, bias=True)
  (fc01): Linear(in_features=1, out_features=300, bias=True)
  (fe0): Linear(in_features=300, out_features=300, bias=True)
  (fc10): Linear(in_features=300, out_features=7, bias=True)
  (fc11): Linear(in_features=7, out_features=300, bias=True)
  (fe1): Linear(in_features=300, out_features=300, bias=True)
  (fc20): Linear(in_features=300, out_features=1, bias=True)
  (fc21): Linear(in_features=1, out_features=300, bias=True)
  (fe2): Linear(in_features=300, out_features=300, bias=True)
  (fc30): Linear(in_features=300, out_features=16, bias=True)
  (fc31): Linear(in_features=16, out_features=300, bias=True)
  (fe3): Linear(in_features=300, out_features=300, bias=True)
  (fc40): Linear(in_features=300, out_features=1, bias=True)
  (fc41): Linear(in_features=1, out_features=300, bias=True)
  (fe4): Linear(in_features=300, out_features=300, bias=True)
  (fc50): Linear(in_features=300, out_features=7, bias=True)
  (fc51): Linear(in_features=7, out_features=300, bias=True)
  (fe5): Linear(in_features=300, out_features=300, bias=True)
  (fc60): Linear(in_features=300, out_features=14, bias=True)
  (fc61): Linear(in_features=14, out_features=300, bias=True)
  (fe6): Linear(in_features=300, out_features=300, bias=True)
  (fc70): Linear(in_features=300, out_features=6, bias=True)
  (fc71): Linear(in_features=6, out_features=300, bias=True)
  (fe7): Linear(in_features=300, out_features=300, bias=True)
  (fc80): Linear(in_features=300, out_features=5, bias=True)
  (fc81): Linear(in_features=5, out_features=300, bias=True)
  (fe8): Linear(in_features=300, out_features=300, bias=True)
  (fc90): Linear(in_features=300, out_features=2, bias=True)
  (fc91): Linear(in_features=2, out_features=300, bias=True)
  (fe9): Linear(in_features=300, out_features=300, bias=True)
  (fc100): Linear(in_features=300, out_features=1, bias=True)
  (fc101): Linear(in_features=1, out_features=300, bias=True)
  (fe10): Linear(in_features=300, out_features=300, bias=True)
  (fc110): Linear(in_features=300, out_features=1, bias=True)
  (fc111): Linear(in_features=1, out_features=300, bias=True)
  (fe11): Linear(in_features=300, out_features=300, bias=True)
  (fc120): Linear(in_features=300, out_features=1, bias=True)
  (fc121): Linear(in_features=1, out_features=300, bias=True)
  (fe12): Linear(in_features=300, out_features=300, bias=True)
  (fc130): Linear(in_features=300, out_features=40, bias=True)
  (fc131): Linear(in_features=40, out_features=300, bias=True)
  (fe13): Linear(in_features=300, out_features=300, bias=True)
  (fc140): Linear(in_features=300, out_features=2, bias=True)
  (fc141): Linear(in_features=2, out_features=300, bias=True)
  (fe14): Linear(in_features=300, out_features=300, bias=True)
)
LGAN_discriminator(
  (Dropout): Dropout(p=0.5, inplace=False)
  (input): Linear(in_features=105, out_features=200, bias=True)
  (inputbn): BatchNorm1d(200, eps=1e-05, momentum=0.1, affine=True, track_running_stats=True)
  (fc0): Linear(in_features=200, out_features=200, bias=True)
  (bn0): BatchNorm1d(200, eps=1e-05, momentum=0.1, affine=True, track_running_stats=True)
  (fc1): Linear(in_features=200, out_features=200, bias=True)
  (bn1): BatchNorm1d(200, eps=1e-05, momentum=0.1, affine=True, track_running_stats=True)
  (fc2): Linear(in_features=200, out_features=200, bias=True)
  (bn2): BatchNorm1d(200, eps=1e-05, momentum=0.1, affine=True, track_running_stats=True)
  (fc3): Linear(in_features=200, out_features=200, bias=True)
  (bn3): BatchNorm1d(200, eps=1e-05, momentum=0.1, affine=True, track_running_stats=True)
  (fc4): Linear(in_features=200, out_features=200, bias=True)
  (bn4): BatchNorm1d(200, eps=1e-05, momentum=0.1, affine=True, track_running_stats=True)
  (output): Linear(in_features=200, out_features=1, bias=True)
)
(0, False, 105)
-----------Epoch 0-----------
iterator 100, D_Loss:1.3722243309020996, G_Loss:0.922204315662384

iterator 200, D_Loss:1.3087289333343506, G_Loss:1.0238591432571411

iterator 300, D_Loss:1.4011528491973877, G_Loss:1.4708003997802734

iterator 400, D_Loss:0.9650695323944092, G_Loss:3.070857048034668

iterator 500, D_Loss:0.5283440947532654, G_Loss:4.639966011047363
…
    V_Train(search, path, sample_it, gen, dis, config["n_epochs"], param["lr"], train_it, param["z_dim"], dataset, col_type, sample_times,itertimes = 100, steps_per_epoch = config["steps_per_epoch"],GPU=GPU,KL=KL)
  File "/home/youran/Daisy/Daisy/synthesizer/train.py", line 113, in V_Train
    D_Loss2 = F.binary_cross_entropy(y_fake, fake_label)
  File "/usr/local/easybuild-2019/easybuild/software/mpi/gcc-cuda/8.3.0-10.1.243/openmpi/3.1.4/pytorch/1.4.0-python-3.7.4/lib/python3.7/site-packages/torch/nn/functional.py", line 2077, in binary_cross_entropy
    input, target, weight, reduction_enum)
RuntimeError: reduce failed to synchronize: cudaErrorAssert: device-side assert triggered
LGAN_generator(
  (LSTM): LSTMCell(300, 300)
  (fc00): Linear(in_features=200, out_features=1, bias=True)
  (fc01): Linear(in_features=1, out_features=200, bias=True)
  (fe0): Linear(in_features=300, out_features=200, bias=True)
  (fc10): Linear(in_features=200, out_features=7, bias=True)
  (fc11): Linear(in_features=7, out_features=200, bias=True)
  (fe1): Linear(in_features=300, out_features=200, bias=True)
  (fc20): Linear(in_features=200, out_features=1, bias=True)
  (fc21): Linear(in_features=1, out_features=200, bias=True)
  (fe2): Linear(in_features=300, out_features=200, bias=True)
  (fc30): Linear(in_features=200, out_features=16, bias=True)
  (fc31): Linear(in_features=16, out_features=200, bias=True)
  (fe3): Linear(in_features=300, out_features=200, bias=True)
  (fc40): Linear(in_features=200, out_features=1, bias=True)
  (fc41): Linear(in_features=1, out_features=200, bias=True)
  (fe4): Linear(in_features=300, out_features=200, bias=True)
  (fc50): Linear(in_features=200, out_features=7, bias=True)
  (fc51): Linear(in_features=7, out_features=200, bias=True)
  (fe5): Linear(in_features=300, out_features=200, bias=True)
  (fc60): Linear(in_features=200, out_features=14, bias=True)
  (fc61): Linear(in_features=14, out_features=200, bias=True)
  (fe6): Linear(in_features=300, out_features=200, bias=True)
  (fc70): Linear(in_features=200, out_features=6, bias=True)
  (fc71): Linear(in_features=6, out_features=200, bias=True)
  (fe7): Linear(in_features=300, out_features=200, bias=True)
  (fc80): Linear(in_features=200, out_features=5, bias=True)
  (fc81): Linear(in_features=5, out_features=200, bias=True)
  (fe8): Linear(in_features=300, out_features=200, bias=True)
  (fc90): Linear(in_features=200, out_features=2, bias=True)
  (fc91): Linear(in_features=2, out_features=200, bias=True)
  (fe9): Linear(in_features=300, out_features=200, bias=True)
  (fc100): Linear(in_features=200, out_features=1, bias=True)
  (fc101): Linear(in_features=1, out_features=200, bias=True)
  (fe10): Linear(in_features=300, out_features=200, bias=True)
  (fc110): Linear(in_features=200, out_features=1, bias=True)
  (fc111): Linear(in_features=1, out_features=200, bias=True)
  (fe11): Linear(in_features=300, out_features=200, bias=True)
  (fc120): Linear(in_features=200, out_features=1, bias=True)
  (fc121): Linear(in_features=1, out_features=200, bias=True)
  (fe12): Linear(in_features=300, out_features=200, bias=True)
  (fc130): Linear(in_features=200, out_features=40, bias=True)
  (fc131): Linear(in_features=40, out_features=200, bias=True)
  (fe13): Linear(in_features=300, out_features=200, bias=True)
  (fc140): Linear(in_features=200, out_features=2, bias=True)
  (fc141): Linear(in_features=2, out_features=200, bias=True)
  (fe14): Linear(in_features=300, out_features=200, bias=True)
)
LGAN_discriminator(
  (Dropout): Dropout(p=0.5, inplace=False)
  (input): Linear(in_features=105, out_features=400, bias=True)
  (inputbn): BatchNorm1d(400, eps=1e-05, momentum=0.1, affine=True, track_running_stats=True)
  (fc0): Linear(in_features=400, out_features=400, bias=True)
  (bn0): BatchNorm1d(400, eps=1e-05, momentum=0.1, affine=True, track_running_stats=True)
  (fc1): Linear(in_features=400, out_features=400, bias=True)
  (bn1): BatchNorm1d(400, eps=1e-05, momentum=0.1, affine=True, track_running_stats=True)
  (fc2): Linear(in_features=400, out_features=400, bias=True)
  (bn2): BatchNorm1d(400, eps=1e-05, momentum=0.1, affine=True, track_running_stats=True)
  (fc3): Linear(in_features=400, out_features=400, bias=True)
  (bn3): BatchNorm1d(400, eps=1e-05, momentum=0.1, affine=True, track_running_stats=True)
  (output): Linear(in_features=400, out_features=1, bias=True)
)
(0, False, 105)
-----------Epoch 0-----------
iterator 100, D_Loss:1.4162781238555908, G_Loss:0.9271424412727356

iterator 200, D_Loss:1.377925157546997, G_Loss:0.9812499284744263

iterator 300, D_Loss:1.3930253982543945, G_Loss:0.9690947532653809

iterator 400, D_Loss:1.4168989658355713, G_Loss:0.9440276026725769

iterator 500, D_Loss:1.4165012836456299, G_Loss:0.9376480579376221
…
/usr/local/easybuild-2019/easybuild/build/PyTorch/1.4.0/fosscuda-2019b-Python-3.7.4/pytorch-1.4.0/aten/src/THCUNN/BCECriterion.cu:42: Acctype bce_functor<Dtype, Acctype>::operator()(Tuple) [with Tuple = thrust::detail::tuple_of_iterator_references<thrust::device_reference<float>, thrust::device_reference<float>, thrust::null_type, thrust::null_type, thrust::null_type, thrust::null_type, thrust::null_type, thrust::null_type, thrust::null_type, thrust::null_type>, Dtype = float, Acctype = float]: block: [0,0,0], thread: [95,0,0] Assertion `input >= 0. && input <= 1.` failed.
LGAN_generator(
  (LSTM): LSTMCell(250, 500)
  (fc00): Linear(in_features=200, out_features=1, bias=True)
  (fc01): Linear(in_features=1, out_features=200, bias=True)
  (fe0): Linear(in_features=500, out_features=200, bias=True)
  (fc10): Linear(in_features=200, out_features=1, bias=True)
  (fc11): Linear(in_features=1, out_features=200, bias=True)
  (fe1): Linear(in_features=500, out_features=200, bias=True)
  (fc20): Linear(in_features=200, out_features=1, bias=True)
  (fc21): Linear(in_features=1, out_features=200, bias=True)
  (fe2): Linear(in_features=500, out_features=200, bias=True)
  (fc30): Linear(in_features=200, out_features=1, bias=True)
  (fc31): Linear(in_features=1, out_features=200, bias=True)
  (fe3): Linear(in_features=500, out_features=200, bias=True)
  (fc40): Linear(in_features=200, out_features=1, bias=True)
  (fc41): Linear(in_features=1, out_features=200, bias=True)
  (fe4): Linear(in_features=500, out_features=200, bias=True)
  (fc50): Linear(in_features=200, out_features=1, bias=True)
  (fc51): Linear(in_features=1, out_features=200, bias=True)
  (fe5): Linear(in_features=500, out_features=200, bias=True)
  (fc60): Linear(in_features=200, out_features=1, bias=True)
  (fc61): Linear(in_features=1, out_features=200, bias=True)
  (fe6): Linear(in_features=500, out_features=200, bias=True)
  (fc70): Linear(in_features=200, out_features=1, bias=True)
  (fc71): Linear(in_features=1, out_features=200, bias=True)
  (fe7): Linear(in_features=500, out_features=200, bias=True)
  (fc80): Linear(in_features=200, out_features=1, bias=True)
  (fc81): Linear(in_features=1, out_features=200, bias=True)
  (fe8): Linear(in_features=500, out_features=200, bias=True)
  (fc90): Linear(in_features=200, out_features=1, bias=True)
  (fc91): Linear(in_features=1, out_features=200, bias=True)
  (fe9): Linear(in_features=500, out_features=200, bias=True)
  (fc100): Linear(in_features=200, out_features=1, bias=True)
  (fc101): Linear(in_features=1, out_features=200, bias=True)
  (fe10): Linear(in_features=500, out_features=200, bias=True)
  (fc110): Linear(in_features=200, out_features=1, bias=True)
  (fc111): Linear(in_features=1, out_features=200, bias=True)
  (fe11): Linear(in_features=500, out_features=200, bias=True)
  (fc120): Linear(in_features=200, out_features=1, bias=True)
  (fc121): Linear(in_features=1, out_features=200, bias=True)
  (fe12): Linear(in_features=500, out_features=200, bias=True)
  (fc130): Linear(in_features=200, out_features=1, bias=True)
  (fc131): Linear(in_features=1, out_features=200, bias=True)
  (fe13): Linear(in_features=500, out_features=200, bias=True)
  (fc140): Linear(in_features=200, out_features=1, bias=True)
  (fc141): Linear(in_features=1, out_features=200, bias=True)
  (fe14): Linear(in_features=500, out_features=200, bias=True)
)
LGAN_discriminator(
  (Dropout): Dropout(p=0.5, inplace=False)
  (input): Linear(in_features=15, out_features=200, bias=True)
  (inputbn): BatchNorm1d(200, eps=1e-05, momentum=0.1, affine=True, track_running_stats=True)
  (fc0): Linear(in_features=200, out_features=200, bias=True)
  (bn0): BatchNorm1d(200, eps=1e-05, momentum=0.1, affine=True, track_running_stats=True)
  (fc1): Linear(in_features=200, out_features=200, bias=True)
  (bn1): BatchNorm1d(200, eps=1e-05, momentum=0.1, affine=True, track_running_stats=True)
  (fc2): Linear(in_features=200, out_features=200, bias=True)
  (bn2): BatchNorm1d(200, eps=1e-05, momentum=0.1, affine=True, track_running_stats=True)
  (fc3): Linear(in_features=200, out_features=200, bias=True)
  (bn3): BatchNorm1d(200, eps=1e-05, momentum=0.1, affine=True, track_running_stats=True)
  (fc4): Linear(in_features=200, out_features=200, bias=True)
  (bn4): BatchNorm1d(200, eps=1e-05, momentum=0.1, affine=True, track_running_stats=True)
  (output): Linear(in_features=200, out_features=1, bias=True)
)
(0, False, 15)
-----------Epoch 0-----------
iterator 100, D_Loss:1.4227170944213867, G_Loss:0.8860251903533936

iterator 200, D_Loss:1.3999888896942139, G_Loss:0.8686384558677673

iterator 300, D_Loss:1.3540440797805786, G_Loss:0.8664714097976685

iterator 400, D_Loss:1.3516789674758911, G_Loss:0.8455531597137451

iterator 500, D_Loss:1.3809497356414795, G_Loss:0.8842948079109192
…
    V_Train(search, path, sample_it, gen, dis, config["n_epochs"], param["lr"], train_it, param["z_dim"], dataset, col_type, sample_times,itertimes = 100, steps_per_epoch = config["steps_per_epoch"],GPU=GPU,KL=KL)
  File "/home/youran/Daisy/Daisy/synthesizer/train.py", line 113, in V_Train
    D_Loss2 = F.binary_cross_entropy(y_fake, fake_label)
  File "/usr/local/easybuild-2019/easybuild/software/mpi/gcc-cuda/8.3.0-10.1.243/openmpi/3.1.4/pytorch/1.4.0-python-3.7.4/lib/python3.7/site-packages/torch/nn/functional.py", line 2077, in binary_cross_entropy
    input, target, weight, reduction_enum)
RuntimeError: reduce failed to synchronize: cudaErrorAssert: device-side assert triggered
LGAN_generator(
  (LSTM): LSTMCell(900, 300)
  (fc00): Linear(in_features=500, out_features=1, bias=True)
  (fc01): Linear(in_features=1, out_features=500, bias=True)
  (fe0): Linear(in_features=300, out_features=500, bias=True)
  (fc10): Linear(in_features=500, out_features=1, bias=True)
  (fc11): Linear(in_features=1, out_features=500, bias=True)
  (fe1): Linear(in_features=300, out_features=500, bias=True)
  (fc20): Linear(in_features=500, out_features=1, bias=True)
  (fc21): Linear(in_features=1, out_features=500, bias=True)
  (fe2): Linear(in_features=300, out_features=500, bias=True)
  (fc30): Linear(in_features=500, out_features=1, bias=True)
  (fc31): Linear(in_features=1, out_features=500, bias=True)
  (fe3): Linear(in_features=300, out_features=500, bias=True)
  (fc40): Linear(in_features=500, out_features=1, bias=True)
  (fc41): Linear(in_features=1, out_features=500, bias=True)
  (fe4): Linear(in_features=300, out_features=500, bias=True)
  (fc50): Linear(in_features=500, out_features=1, bias=True)
  (fc51): Linear(in_features=1, out_features=500, bias=True)
  (fe5): Linear(in_features=300, out_features=500, bias=True)
  (fc60): Linear(in_features=500, out_features=1, bias=True)
  (fc61): Linear(in_features=1, out_features=500, bias=True)
  (fe6): Linear(in_features=300, out_features=500, bias=True)
  (fc70): Linear(in_features=500, out_features=1, bias=True)
  (fc71): Linear(in_features=1, out_features=500, bias=True)
  (fe7): Linear(in_features=300, out_features=500, bias=True)
  (fc80): Linear(in_features=500, out_features=1, bias=True)
  (fc81): Linear(in_features=1, out_features=500, bias=True)
  (fe8): Linear(in_features=300, out_features=500, bias=True)
  (fc90): Linear(in_features=500, out_features=1, bias=True)
  (fc91): Linear(in_features=1, out_features=500, bias=True)
  (fe9): Linear(in_features=300, out_features=500, bias=True)
  (fc100): Linear(in_features=500, out_features=1, bias=True)
  (fc101): Linear(in_features=1, out_features=500, bias=True)
  (fe10): Linear(in_features=300, out_features=500, bias=True)
  (fc110): Linear(in_features=500, out_features=1, bias=True)
  (fc111): Linear(in_features=1, out_features=500, bias=True)
  (fe11): Linear(in_features=300, out_features=500, bias=True)
  (fc120): Linear(in_features=500, out_features=1, bias=True)
  (fc121): Linear(in_features=1, out_features=500, bias=True)
  (fe12): Linear(in_features=300, out_features=500, bias=True)
  (fc130): Linear(in_features=500, out_features=1, bias=True)
  (fc131): Linear(in_features=1, out_features=500, bias=True)
  (fe13): Linear(in_features=300, out_features=500, bias=True)
  (fc140): Linear(in_features=500, out_features=1, bias=True)
  (fc141): Linear(in_features=1, out_features=500, bias=True)
  (fe14): Linear(in_features=300, out_features=500, bias=True)
)
LGAN_discriminator(
  (Dropout): Dropout(p=0.5, inplace=False)
  (input): Linear(in_features=15, out_features=100, bias=True)
  (inputbn): BatchNorm1d(100, eps=1e-05, momentum=0.1, affine=True, track_running_stats=True)
  (fc0): Linear(in_features=100, out_features=100, bias=True)
  (bn0): BatchNorm1d(100, eps=1e-05, momentum=0.1, affine=True, track_running_stats=True)
  (fc1): Linear(in_features=100, out_features=100, bias=True)
  (bn1): BatchNorm1d(100, eps=1e-05, momentum=0.1, affine=True, track_running_stats=True)
  (fc2): Linear(in_features=100, out_features=100, bias=True)
  (bn2): BatchNorm1d(100, eps=1e-05, momentum=0.1, affine=True, track_running_stats=True)
  (fc3): Linear(in_features=100, out_features=100, bias=True)
  (bn3): BatchNorm1d(100, eps=1e-05, momentum=0.1, affine=True, track_running_stats=True)
  (output): Linear(in_features=100, out_features=1, bias=True)
)
(0, False, 15)
-----------Epoch 0-----------
iterator 100, D_Loss:1.413510799407959, G_Loss:0.7920998930931091

iterator 200, D_Loss:1.420274019241333, G_Loss:0.8797985315322876

iterator 300, D_Loss:1.4134972095489502, G_Loss:0.8829971551895142

iterator 400, D_Loss:1.3919785022735596, G_Loss:0.8476954102516174

iterator 500, D_Loss:1.3689062595367432, G_Loss:0.8505034446716309
…
iterator 4300, D_Loss:0.44040924310684204, G_Loss:10.785229682922363

iterator 4400, D_Loss:0.455644816160202, G_Loss:11.473433494567871

iterator 4500, D_Loss:0.43596941232681274, G_Loss:10.062350273132324

iterator 4600, D_Loss:0.4072796106338501, G_Loss:11.381233215332031

iterator 4700, D_Loss:0.4179787337779999, G_Loss:11.877860069274902

iterator 4800, D_Loss:0.42540353536605835, G_Loss:11.328627586364746

iterator 4900, D_Loss:0.42272457480430603, G_Loss:9.597363471984863

iterator 5000, D_Loss:0.45217081904411316, G_Loss:12.933123588562012

train row : 30148
sample row: 30148
LGAN_generator(
  (LSTM): LSTMCell(402, 100)
  (gmfc00): Linear(in_features=200, out_features=1, bias=True)
  (gmfc01): Linear(in_features=200, out_features=5, bias=True)
  (gmfc02): Linear(in_features=5, out_features=200, bias=True)
  (gmfe00): Linear(in_features=100, out_features=200, bias=True)
  (gmfe01): Linear(in_features=100, out_features=200, bias=True)
  (fc10): Linear(in_features=200, out_features=7, bias=True)
  (fc11): Linear(in_features=7, out_features=200, bias=True)
  (fe1): Linear(in_features=100, out_features=200, bias=True)
  (gmfc20): Linear(in_features=200, out_features=1, bias=True)
  (gmfc21): Linear(in_features=200, out_features=5, bias=True)
  (gmfc22): Linear(in_features=5, out_features=200, bias=True)
  (gmfe20): Linear(in_features=100, out_features=200, bias=True)
  (gmfe21): Linear(in_features=100, out_features=200, bias=True)
  (fc30): Linear(in_features=200, out_features=16, bias=True)
  (fc31): Linear(in_features=16, out_features=200, bias=True)
  (fe3): Linear(in_features=100, out_features=200, bias=True)
  (gmfc40): Linear(in_features=200, out_features=1, bias=True)
  (gmfc41): Linear(in_features=200, out_features=5, bias=True)
  (gmfc42): Linear(in_features=5, out_features=200, bias=True)
  (gmfe40): Linear(in_features=100, out_features=200, bias=True)
  (gmfe41): Linear(in_features=100, out_features=200, bias=True)
  (fc50): Linear(in_features=200, out_features=7, bias=True)
  (fc51): Linear(in_features=7, out_features=200, bias=True)
  (fe5): Linear(in_features=100, out_features=200, bias=True)
  (fc60): Linear(in_features=200, out_features=14, bias=True)
  (fc61): Linear(in_features=14, out_features=200, bias=True)
  (fe6): Linear(in_features=100, out_features=200, bias=True)
  (fc70): Linear(in_features=200, out_features=6, bias=True)
  (fc71): Linear(in_features=6, out_features=200, bias=True)
  (fe7): Linear(in_features=100, out_features=200, bias=True)
  (fc80): Linear(in_features=200, out_features=5, bias=True)
  (fc81): Linear(in_features=5, out_features=200, bias=True)
  (fe8): Linear(in_features=100, out_features=200, bias=True)
  (fc90): Linear(in_features=200, out_features=2, bias=True)
  (fc91): Linear(in_features=2, out_features=200, bias=True)
  (fe9): Linear(in_features=100, out_features=200, bias=True)
  (gmfc100): Linear(in_features=200, out_features=1, bias=True)
  (gmfc101): Linear(in_features=200, out_features=5, bias=True)
  (gmfc102): Linear(in_features=5, out_features=200, bias=True)
  (gmfe100): Linear(in_features=100, out_features=200, bias=True)
  (gmfe101): Linear(in_features=100, out_features=200, bias=True)
  (gmfc110): Linear(in_features=200, out_features=1, bias=True)
  (gmfc111): Linear(in_features=200, out_features=5, bias=True)
  (gmfc112): Linear(in_features=5, out_features=200, bias=True)
  (gmfe110): Linear(in_features=100, out_features=200, bias=True)
  (gmfe111): Linear(in_features=100, out_features=200, bias=True)
  (gmfc120): Linear(in_features=200, out_features=1, bias=True)
  (gmfc121): Linear(in_features=200, out_features=5, bias=True)
  (gmfc122): Linear(in_features=5, out_features=200, bias=True)
  (gmfe120): Linear(in_features=100, out_features=200, bias=True)
  (gmfe121): Linear(in_features=100, out_features=200, bias=True)
  (fc130): Linear(in_features=200, out_features=40, bias=True)
  (fc131): Linear(in_features=40, out_features=200, bias=True)
  (fe13): Linear(in_features=100, out_features=200, bias=True)
)
LGAN_discriminator(
  (Dropout): Dropout(p=0.5, inplace=False)
  (input): Linear(in_features=135, out_features=100, bias=True)
  (inputbn): BatchNorm1d(100, eps=1e-05, momentum=0.1, affine=True, track_running_stats=True)
  (fc0): Linear(in_features=100, out_features=100, bias=True)
  (bn0): BatchNorm1d(100, eps=1e-05, momentum=0.1, affine=True, track_running_stats=True)
  (fc1): Linear(in_features=100, out_features=100, bias=True)
  (bn1): BatchNorm1d(100, eps=1e-05, momentum=0.1, affine=True, track_running_stats=True)
  (fc2): Linear(in_features=100, out_features=100, bias=True)
  (bn2): BatchNorm1d(100, eps=1e-05, momentum=0.1, affine=True, track_running_stats=True)
  (fc3): Linear(in_features=100, out_features=100, bias=True)
  (bn3): BatchNorm1d(100, eps=1e-05, momentum=0.1, affine=True, track_running_stats=True)
  (output): Linear(in_features=100, out_features=1, bias=True)
)
(2, True, 133)
(30148, 2)
-----------Epoch 0-----------
iterator 0, D_Loss:1.4532897472381592, G_Loss:13.32984447479248

iterator 100, D_Loss:1.3964014053344727, G_Loss:1.7617123126983643

iterator 200, D_Loss:1.3706594705581665, G_Loss:1.4959046840667725

iterator 300, D_Loss:1.3779072761535645, G_Loss:1.580679178237915

iterator 400, D_Loss:1.391062617301941, G_Loss:1.1796941757202148
…
iterator 4200, D_Loss:0.41398531198501587, G_Loss:12.996520042419434

iterator 4300, D_Loss:0.43734997510910034, G_Loss:12.31261157989502

iterator 4400, D_Loss:0.4352070093154907, G_Loss:10.790339469909668

iterator 4500, D_Loss:0.45414894819259644, G_Loss:10.214700698852539

iterator 4600, D_Loss:0.4127116799354553, G_Loss:12.493408203125

iterator 4700, D_Loss:0.4212810695171356, G_Loss:12.036279678344727

iterator 4800, D_Loss:0.4193815588951111, G_Loss:11.503402709960938

iterator 4900, D_Loss:0.41781988739967346, G_Loss:12.66853141784668

LGAN_generator(
  (LSTM): LSTMCell(602, 300)
  (gmfc00): Linear(in_features=200, out_features=1, bias=True)
  (gmfc01): Linear(in_features=200, out_features=5, bias=True)
  (gmfc02): Linear(in_features=5, out_features=200, bias=True)
  (gmfe00): Linear(in_features=300, out_features=200, bias=True)
  (gmfe01): Linear(in_features=300, out_features=200, bias=True)
  (fc10): Linear(in_features=200, out_features=7, bias=True)
  (fc11): Linear(in_features=7, out_features=200, bias=True)
  (fe1): Linear(in_features=300, out_features=200, bias=True)
  (gmfc20): Linear(in_features=200, out_features=1, bias=True)
  (gmfc21): Linear(in_features=200, out_features=5, bias=True)
  (gmfc22): Linear(in_features=5, out_features=200, bias=True)
  (gmfe20): Linear(in_features=300, out_features=200, bias=True)
  (gmfe21): Linear(in_features=300, out_features=200, bias=True)
  (fc30): Linear(in_features=200, out_features=16, bias=True)
  (fc31): Linear(in_features=16, out_features=200, bias=True)
  (fe3): Linear(in_features=300, out_features=200, bias=True)
  (gmfc40): Linear(in_features=200, out_features=1, bias=True)
  (gmfc41): Linear(in_features=200, out_features=5, bias=True)
  (gmfc42): Linear(in_features=5, out_features=200, bias=True)
  (gmfe40): Linear(in_features=300, out_features=200, bias=True)
  (gmfe41): Linear(in_features=300, out_features=200, bias=True)
  (fc50): Linear(in_features=200, out_features=7, bias=True)
  (fc51): Linear(in_features=7, out_features=200, bias=True)
  (fe5): Linear(in_features=300, out_features=200, bias=True)
  (fc60): Linear(in_features=200, out_features=14, bias=True)
  (fc61): Linear(in_features=14, out_features=200, bias=True)
  (fe6): Linear(in_features=300, out_features=200, bias=True)
  (fc70): Linear(in_features=200, out_features=6, bias=True)
  (fc71): Linear(in_features=6, out_features=200, bias=True)
  (fe7): Linear(in_features=300, out_features=200, bias=True)
  (fc80): Linear(in_features=200, out_features=5, bias=True)
  (fc81): Linear(in_features=5, out_features=200, bias=True)
  (fe8): Linear(in_features=300, out_features=200, bias=True)
  (fc90): Linear(in_features=200, out_features=2, bias=True)
  (fc91): Linear(in_features=2, out_features=200, bias=True)
  (fe9): Linear(in_features=300, out_features=200, bias=True)
  (gmfc100): Linear(in_features=200, out_features=1, bias=True)
  (gmfc101): Linear(in_features=200, out_features=5, bias=True)
  (gmfc102): Linear(in_features=5, out_features=200, bias=True)
  (gmfe100): Linear(in_features=300, out_features=200, bias=True)
  (gmfe101): Linear(in_features=300, out_features=200, bias=True)
  (gmfc110): Linear(in_features=200, out_features=1, bias=True)
  (gmfc111): Linear(in_features=200, out_features=5, bias=True)
  (gmfc112): Linear(in_features=5, out_features=200, bias=True)
  (gmfe110): Linear(in_features=300, out_features=200, bias=True)
  (gmfe111): Linear(in_features=300, out_features=200, bias=True)
  (gmfc120): Linear(in_features=200, out_features=1, bias=True)
  (gmfc121): Linear(in_features=200, out_features=5, bias=True)
  (gmfc122): Linear(in_features=5, out_features=200, bias=True)
  (gmfe120): Linear(in_features=300, out_features=200, bias=True)
  (gmfe121): Linear(in_features=300, out_features=200, bias=True)
  (fc130): Linear(in_features=200, out_features=40, bias=True)
  (fc131): Linear(in_features=40, out_features=200, bias=True)
  (fe13): Linear(in_features=300, out_features=200, bias=True)
)
LGAN_discriminator(
  (Dropout): Dropout(p=0.5, inplace=False)
  (input): Linear(in_features=135, out_features=500, bias=True)
  (inputbn): BatchNorm1d(500, eps=1e-05, momentum=0.1, affine=True, track_running_stats=True)
  (fc0): Linear(in_features=500, out_features=500, bias=True)
  (bn0): BatchNorm1d(500, eps=1e-05, momentum=0.1, affine=True, track_running_stats=True)
  (fc1): Linear(in_features=500, out_features=500, bias=True)
  (bn1): BatchNorm1d(500, eps=1e-05, momentum=0.1, affine=True, track_running_stats=True)
  (fc2): Linear(in_features=500, out_features=500, bias=True)
  (bn2): BatchNorm1d(500, eps=1e-05, momentum=0.1, affine=True, track_running_stats=True)
  (fc3): Linear(in_features=500, out_features=500, bias=True)
  (bn3): BatchNorm1d(500, eps=1e-05, momentum=0.1, affine=True, track_running_stats=True)
  (fc4): Linear(in_features=500, out_features=500, bias=True)
  (bn4): BatchNorm1d(500, eps=1e-05, momentum=0.1, affine=True, track_running_stats=True)
  (output): Linear(in_features=500, out_features=1, bias=True)
)
(2, True, 133)
(30148, 2)
-----------Epoch 0-----------
iterator 0, D_Loss:1.4644038677215576, G_Loss:9.716032981872559

iterator 100, D_Loss:1.3935743570327759, G_Loss:1.8752198219299316

iterator 200, D_Loss:1.4246183633804321, G_Loss:1.4786021709442139

iterator 300, D_Loss:1.3726952075958252, G_Loss:1.5243794918060303

iterator 400, D_Loss:1.3641862869262695, G_Loss:1.6800765991210938
…
iterator 4200, D_Loss:0.4493788778781891, G_Loss:7.656396865844727

iterator 4300, D_Loss:3.703826904296875, G_Loss:8.20985221862793

iterator 4400, D_Loss:0.6056133508682251, G_Loss:5.344554901123047

iterator 4500, D_Loss:0.557327151298523, G_Loss:7.128269195556641

iterator 4600, D_Loss:0.4776041805744171, G_Loss:6.468404293060303

iterator 4700, D_Loss:0.4424355924129486, G_Loss:2.9549360275268555

iterator 4800, D_Loss:0.4542474150657654, G_Loss:2.875892400741577

iterator 4900, D_Loss:0.4197424054145813, G_Loss:7.996331691741943

train row : 30148
sample row: 30148
LGAN_generator(
  (LSTM): LSTMCell(602, 200)
  (gmfc00): Linear(in_features=200, out_features=1, bias=True)
  (gmfc01): Linear(in_features=200, out_features=5, bias=True)
  (gmfc02): Linear(in_features=5, out_features=200, bias=True)
  (gmfe00): Linear(in_features=200, out_features=200, bias=True)
  (gmfe01): Linear(in_features=200, out_features=200, bias=True)
  (fc10): Linear(in_features=200, out_features=7, bias=True)
  (fc11): Linear(in_features=7, out_features=200, bias=True)
  (fe1): Linear(in_features=200, out_features=200, bias=True)
  (gmfc20): Linear(in_features=200, out_features=1, bias=True)
  (gmfc21): Linear(in_features=200, out_features=5, bias=True)
  (gmfc22): Linear(in_features=5, out_features=200, bias=True)
  (gmfe20): Linear(in_features=200, out_features=200, bias=True)
  (gmfe21): Linear(in_features=200, out_features=200, bias=True)
  (fc30): Linear(in_features=200, out_features=16, bias=True)
  (fc31): Linear(in_features=16, out_features=200, bias=True)
  (fe3): Linear(in_features=200, out_features=200, bias=True)
  (gmfc40): Linear(in_features=200, out_features=1, bias=True)
  (gmfc41): Linear(in_features=200, out_features=5, bias=True)
  (gmfc42): Linear(in_features=5, out_features=200, bias=True)
  (gmfe40): Linear(in_features=200, out_features=200, bias=True)
  (gmfe41): Linear(in_features=200, out_features=200, bias=True)
  (fc50): Linear(in_features=200, out_features=7, bias=True)
  (fc51): Linear(in_features=7, out_features=200, bias=True)
  (fe5): Linear(in_features=200, out_features=200, bias=True)
  (fc60): Linear(in_features=200, out_features=14, bias=True)
  (fc61): Linear(in_features=14, out_features=200, bias=True)
  (fe6): Linear(in_features=200, out_features=200, bias=True)
  (fc70): Linear(in_features=200, out_features=6, bias=True)
  (fc71): Linear(in_features=6, out_features=200, bias=True)
  (fe7): Linear(in_features=200, out_features=200, bias=True)
  (fc80): Linear(in_features=200, out_features=5, bias=True)
  (fc81): Linear(in_features=5, out_features=200, bias=True)
  (fe8): Linear(in_features=200, out_features=200, bias=True)
  (fc90): Linear(in_features=200, out_features=2, bias=True)
  (fc91): Linear(in_features=2, out_features=200, bias=True)
  (fe9): Linear(in_features=200, out_features=200, bias=True)
  (gmfc100): Linear(in_features=200, out_features=1, bias=True)
  (gmfc101): Linear(in_features=200, out_features=5, bias=True)
  (gmfc102): Linear(in_features=5, out_features=200, bias=True)
  (gmfe100): Linear(in_features=200, out_features=200, bias=True)
  (gmfe101): Linear(in_features=200, out_features=200, bias=True)
  (gmfc110): Linear(in_features=200, out_features=1, bias=True)
  (gmfc111): Linear(in_features=200, out_features=5, bias=True)
  (gmfc112): Linear(in_features=5, out_features=200, bias=True)
  (gmfe110): Linear(in_features=200, out_features=200, bias=True)
  (gmfe111): Linear(in_features=200, out_features=200, bias=True)
  (gmfc120): Linear(in_features=200, out_features=1, bias=True)
  (gmfc121): Linear(in_features=200, out_features=5, bias=True)
  (gmfc122): Linear(in_features=5, out_features=200, bias=True)
  (gmfe120): Linear(in_features=200, out_features=200, bias=True)
  (gmfe121): Linear(in_features=200, out_features=200, bias=True)
  (fc130): Linear(in_features=200, out_features=40, bias=True)
  (fc131): Linear(in_features=40, out_features=200, bias=True)
  (fe13): Linear(in_features=200, out_features=200, bias=True)
)
LGAN_discriminator(
  (Dropout): Dropout(p=0.5, inplace=False)
  (input): Linear(in_features=135, out_features=200, bias=True)
  (inputbn): BatchNorm1d(200, eps=1e-05, momentum=0.1, affine=True, track_running_stats=True)
  (fc0): Linear(in_features=200, out_features=200, bias=True)
  (bn0): BatchNorm1d(200, eps=1e-05, momentum=0.1, affine=True, track_running_stats=True)
  (fc1): Linear(in_features=200, out_features=200, bias=True)
  (bn1): BatchNorm1d(200, eps=1e-05, momentum=0.1, affine=True, track_running_stats=True)
  (fc2): Linear(in_features=200, out_features=200, bias=True)
  (bn2): BatchNorm1d(200, eps=1e-05, momentum=0.1, affine=True, track_running_stats=True)
  (output): Linear(in_features=200, out_features=1, bias=True)
)
-----------Epoch 0-----------
iterator 100, D_Loss:1.4076108932495117, G_Loss:1.4091508388519287

iterator 200, D_Loss:1.3507986068725586, G_Loss:1.7538478374481201

iterator 300, D_Loss:1.389392375946045, G_Loss:1.6839772462844849

iterator 400, D_Loss:1.391484022140503, G_Loss:1.224316120147705

iterator 500, D_Loss:1.3533117771148682, G_Loss:1.3485865592956543
…

iterator 4300, D_Loss:0.7390807867050171, G_Loss:9.174257278442383

iterator 4400, D_Loss:0.4775726795196533, G_Loss:3.52618408203125

iterator 4500, D_Loss:0.5626643300056458, G_Loss:10.636514663696289

iterator 4600, D_Loss:0.4493342936038971, G_Loss:6.067545413970947

iterator 4700, D_Loss:0.4892668128013611, G_Loss:9.610254287719727

iterator 4800, D_Loss:0.47156578302383423, G_Loss:6.315702438354492

iterator 4900, D_Loss:0.496111661195755, G_Loss:12.77462387084961

iterator 5000, D_Loss:0.49679431319236755, G_Loss:8.736035346984863

LGAN_generator(
  (LSTM): LSTMCell(702, 100)
  (gmfc00): Linear(in_features=500, out_features=1, bias=True)
  (gmfc01): Linear(in_features=500, out_features=5, bias=True)
  (gmfc02): Linear(in_features=5, out_features=500, bias=True)
  (gmfe00): Linear(in_features=100, out_features=500, bias=True)
  (gmfe01): Linear(in_features=100, out_features=500, bias=True)
  (fc10): Linear(in_features=500, out_features=7, bias=True)
  (fc11): Linear(in_features=7, out_features=500, bias=True)
  (fe1): Linear(in_features=100, out_features=500, bias=True)
  (gmfc20): Linear(in_features=500, out_features=1, bias=True)
  (gmfc21): Linear(in_features=500, out_features=5, bias=True)
  (gmfc22): Linear(in_features=5, out_features=500, bias=True)
  (gmfe20): Linear(in_features=100, out_features=500, bias=True)
  (gmfe21): Linear(in_features=100, out_features=500, bias=True)
  (fc30): Linear(in_features=500, out_features=16, bias=True)
  (fc31): Linear(in_features=16, out_features=500, bias=True)
  (fe3): Linear(in_features=100, out_features=500, bias=True)
  (gmfc40): Linear(in_features=500, out_features=1, bias=True)
  (gmfc41): Linear(in_features=500, out_features=5, bias=True)
  (gmfc42): Linear(in_features=5, out_features=500, bias=True)
  (gmfe40): Linear(in_features=100, out_features=500, bias=True)
  (gmfe41): Linear(in_features=100, out_features=500, bias=True)
  (fc50): Linear(in_features=500, out_features=7, bias=True)
  (fc51): Linear(in_features=7, out_features=500, bias=True)
  (fe5): Linear(in_features=100, out_features=500, bias=True)
  (fc60): Linear(in_features=500, out_features=14, bias=True)
  (fc61): Linear(in_features=14, out_features=500, bias=True)
  (fe6): Linear(in_features=100, out_features=500, bias=True)
  (fc70): Linear(in_features=500, out_features=6, bias=True)
  (fc71): Linear(in_features=6, out_features=500, bias=True)
  (fe7): Linear(in_features=100, out_features=500, bias=True)
  (fc80): Linear(in_features=500, out_features=5, bias=True)
  (fc81): Linear(in_features=5, out_features=500, bias=True)
  (fe8): Linear(in_features=100, out_features=500, bias=True)
  (fc90): Linear(in_features=500, out_features=2, bias=True)
  (fc91): Linear(in_features=2, out_features=500, bias=True)
  (fe9): Linear(in_features=100, out_features=500, bias=True)
  (gmfc100): Linear(in_features=500, out_features=1, bias=True)
  (gmfc101): Linear(in_features=500, out_features=5, bias=True)
  (gmfc102): Linear(in_features=5, out_features=500, bias=True)
  (gmfe100): Linear(in_features=100, out_features=500, bias=True)
  (gmfe101): Linear(in_features=100, out_features=500, bias=True)
  (gmfc110): Linear(in_features=500, out_features=1, bias=True)
  (gmfc111): Linear(in_features=500, out_features=5, bias=True)
  (gmfc112): Linear(in_features=5, out_features=500, bias=True)
  (gmfe110): Linear(in_features=100, out_features=500, bias=True)
  (gmfe111): Linear(in_features=100, out_features=500, bias=True)
  (gmfc120): Linear(in_features=500, out_features=1, bias=True)
  (gmfc121): Linear(in_features=500, out_features=5, bias=True)
  (gmfc122): Linear(in_features=5, out_features=500, bias=True)
  (gmfe120): Linear(in_features=100, out_features=500, bias=True)
  (gmfe121): Linear(in_features=100, out_features=500, bias=True)
  (fc130): Linear(in_features=500, out_features=40, bias=True)
  (fc131): Linear(in_features=40, out_features=500, bias=True)
  (fe13): Linear(in_features=100, out_features=500, bias=True)
)
LGAN_discriminator(
  (Dropout): Dropout(p=0.5, inplace=False)
  (input): Linear(in_features=135, out_features=400, bias=True)
  (inputbn): BatchNorm1d(400, eps=1e-05, momentum=0.1, affine=True, track_running_stats=True)
  (fc0): Linear(in_features=400, out_features=400, bias=True)
  (bn0): BatchNorm1d(400, eps=1e-05, momentum=0.1, affine=True, track_running_stats=True)
  (fc1): Linear(in_features=400, out_features=400, bias=True)
  (bn1): BatchNorm1d(400, eps=1e-05, momentum=0.1, affine=True, track_running_stats=True)
  (fc2): Linear(in_features=400, out_features=400, bias=True)
  (bn2): BatchNorm1d(400, eps=1e-05, momentum=0.1, affine=True, track_running_stats=True)
  (output): Linear(in_features=400, out_features=1, bias=True)
)
-----------Epoch 0-----------
iterator 100, D_Loss:1.4043948650360107, G_Loss:1.0658493041992188

iterator 200, D_Loss:1.4015939235687256, G_Loss:0.9765491485595703

iterator 300, D_Loss:1.3720123767852783, G_Loss:1.0064177513122559

iterator 400, D_Loss:1.3855233192443848, G_Loss:0.9876258373260498

iterator 500, D_Loss:1.3858014345169067, G_Loss:1.0418524742126465
…
Traceback (most recent call last):
  File "/usr/local/easybuild-2019/easybuild/software/compiler/gcccore/8.3.0/python/3.7.4/lib/python3.7/multiprocessing/process.py", line 297, in _bootstrap
    self.run()
  File "/usr/local/easybuild-2019/easybuild/software/compiler/gcccore/8.3.0/python/3.7.4/lib/python3.7/multiprocessing/process.py", line 99, in run
    self._target(*self._args, **self._kwargs)
  File "Daisy/run.py", line 69, in thread_run
    train_method = config["train_method"]
KeyError: 'train_method'
train row : 30148
sample row: 30148
LGAN_generator(
  (LSTM): LSTMCell(600, 300)
  (gmfc00): Linear(in_features=200, out_features=1, bias=True)
  (gmfc01): Linear(in_features=200, out_features=5, bias=True)
  (gmfc02): Linear(in_features=5, out_features=200, bias=True)
  (gmfe00): Linear(in_features=300, out_features=200, bias=True)
  (gmfe01): Linear(in_features=300, out_features=200, bias=True)
  (fc10): Linear(in_features=200, out_features=7, bias=True)
  (fc11): Linear(in_features=7, out_features=200, bias=True)
  (fe1): Linear(in_features=300, out_features=200, bias=True)
  (gmfc20): Linear(in_features=200, out_features=1, bias=True)
  (gmfc21): Linear(in_features=200, out_features=5, bias=True)
  (gmfc22): Linear(in_features=5, out_features=200, bias=True)
  (gmfe20): Linear(in_features=300, out_features=200, bias=True)
  (gmfe21): Linear(in_features=300, out_features=200, bias=True)
  (fc30): Linear(in_features=200, out_features=16, bias=True)
  (fc31): Linear(in_features=16, out_features=200, bias=True)
  (fe3): Linear(in_features=300, out_features=200, bias=True)
  (gmfc40): Linear(in_features=200, out_features=1, bias=True)
  (gmfc41): Linear(in_features=200, out_features=5, bias=True)
  (gmfc42): Linear(in_features=5, out_features=200, bias=True)
  (gmfe40): Linear(in_features=300, out_features=200, bias=True)
  (gmfe41): Linear(in_features=300, out_features=200, bias=True)
  (fc50): Linear(in_features=200, out_features=7, bias=True)
  (fc51): Linear(in_features=7, out_features=200, bias=True)
  (fe5): Linear(in_features=300, out_features=200, bias=True)
  (fc60): Linear(in_features=200, out_features=14, bias=True)
  (fc61): Linear(in_features=14, out_features=200, bias=True)
  (fe6): Linear(in_features=300, out_features=200, bias=True)
  (fc70): Linear(in_features=200, out_features=6, bias=True)
  (fc71): Linear(in_features=6, out_features=200, bias=True)
  (fe7): Linear(in_features=300, out_features=200, bias=True)
  (fc80): Linear(in_features=200, out_features=5, bias=True)
  (fc81): Linear(in_features=5, out_features=200, bias=True)
  (fe8): Linear(in_features=300, out_features=200, bias=True)
  (fc90): Linear(in_features=200, out_features=2, bias=True)
  (fc91): Linear(in_features=2, out_features=200, bias=True)
  (fe9): Linear(in_features=300, out_features=200, bias=True)
  (gmfc100): Linear(in_features=200, out_features=1, bias=True)
  (gmfc101): Linear(in_features=200, out_features=5, bias=True)
  (gmfc102): Linear(in_features=5, out_features=200, bias=True)
  (gmfe100): Linear(in_features=300, out_features=200, bias=True)
  (gmfe101): Linear(in_features=300, out_features=200, bias=True)
  (gmfc110): Linear(in_features=200, out_features=1, bias=True)
  (gmfc111): Linear(in_features=200, out_features=5, bias=True)
  (gmfc112): Linear(in_features=5, out_features=200, bias=True)
  (gmfe110): Linear(in_features=300, out_features=200, bias=True)
  (gmfe111): Linear(in_features=300, out_features=200, bias=True)
  (gmfc120): Linear(in_features=200, out_features=1, bias=True)
  (gmfc121): Linear(in_features=200, out_features=5, bias=True)
  (gmfc122): Linear(in_features=5, out_features=200, bias=True)
  (gmfe120): Linear(in_features=300, out_features=200, bias=True)
  (gmfe121): Linear(in_features=300, out_features=200, bias=True)
  (fc130): Linear(in_features=200, out_features=40, bias=True)
  (fc131): Linear(in_features=40, out_features=200, bias=True)
  (fe13): Linear(in_features=300, out_features=200, bias=True)
  (fc140): Linear(in_features=200, out_features=2, bias=True)
  (fc141): Linear(in_features=2, out_features=200, bias=True)
  (fe14): Linear(in_features=300, out_features=200, bias=True)
)
LGAN_discriminator(
  (Dropout): Dropout(p=0.5, inplace=False)
  (input): Linear(in_features=135, out_features=200, bias=True)
  (inputbn): BatchNorm1d(200, eps=1e-05, momentum=0.1, affine=True, track_running_stats=True)
  (fc0): Linear(in_features=200, out_features=200, bias=True)
  (bn0): BatchNorm1d(200, eps=1e-05, momentum=0.1, affine=True, track_running_stats=True)
  (fc1): Linear(in_features=200, out_features=200, bias=True)
  (bn1): BatchNorm1d(200, eps=1e-05, momentum=0.1, affine=True, track_running_stats=True)
  (fc2): Linear(in_features=200, out_features=200, bias=True)
  (bn2): BatchNorm1d(200, eps=1e-05, momentum=0.1, affine=True, track_running_stats=True)
  (output): Linear(in_features=200, out_features=1, bias=True)
)
------ng : 0-------
generator loss: 0.002270350931212306
discriminator loss: -1.6307691112160683e-05
------ng : 100-------
generator loss: -0.0012600678019225597
discriminator loss: -0.002132675377652049
------ng : 200-------
generator loss: -0.0013511135475710034
discriminator loss: -0.0037358328700065613
------ng : 300-------
generator loss: -0.002847072435542941
…
discriminator loss: -0.002218766137957573
------ng : 4500-------
generator loss: -0.002319661434739828
discriminator loss: -0.002128642052412033
------ng : 4600-------
generator loss: -0.002113253576681018
discriminator loss: -0.0011678454466164112
------ng : 4700-------
generator loss: -0.002057616598904133
discriminator loss: -0.002306518144905567
------ng : 4800-------
generator loss: -0.001452449127100408
discriminator loss: -0.0021687985863536596
------ng : 4900-------
generator loss: -0.0011279289610683918
discriminator loss: -0.0017465578857809305
LGAN_generator(
  (LSTM): LSTMCell(450, 400)
  (gmfc00): Linear(in_features=400, out_features=1, bias=True)
  (gmfc01): Linear(in_features=400, out_features=5, bias=True)
  (gmfc02): Linear(in_features=5, out_features=400, bias=True)
  (gmfe00): Linear(in_features=400, out_features=400, bias=True)
  (gmfe01): Linear(in_features=400, out_features=400, bias=True)
  (fc10): Linear(in_features=400, out_features=7, bias=True)
  (fc11): Linear(in_features=7, out_features=400, bias=True)
  (fe1): Linear(in_features=400, out_features=400, bias=True)
  (gmfc20): Linear(in_features=400, out_features=1, bias=True)
  (gmfc21): Linear(in_features=400, out_features=5, bias=True)
  (gmfc22): Linear(in_features=5, out_features=400, bias=True)
  (gmfe20): Linear(in_features=400, out_features=400, bias=True)
  (gmfe21): Linear(in_features=400, out_features=400, bias=True)
  (fc30): Linear(in_features=400, out_features=16, bias=True)
  (fc31): Linear(in_features=16, out_features=400, bias=True)
  (fe3): Linear(in_features=400, out_features=400, bias=True)
  (gmfc40): Linear(in_features=400, out_features=1, bias=True)
  (gmfc41): Linear(in_features=400, out_features=5, bias=True)
  (gmfc42): Linear(in_features=5, out_features=400, bias=True)
  (gmfe40): Linear(in_features=400, out_features=400, bias=True)
  (gmfe41): Linear(in_features=400, out_features=400, bias=True)
  (fc50): Linear(in_features=400, out_features=7, bias=True)
  (fc51): Linear(in_features=7, out_features=400, bias=True)
  (fe5): Linear(in_features=400, out_features=400, bias=True)
  (fc60): Linear(in_features=400, out_features=14, bias=True)
  (fc61): Linear(in_features=14, out_features=400, bias=True)
  (fe6): Linear(in_features=400, out_features=400, bias=True)
  (fc70): Linear(in_features=400, out_features=6, bias=True)
  (fc71): Linear(in_features=6, out_features=400, bias=True)
  (fe7): Linear(in_features=400, out_features=400, bias=True)
  (fc80): Linear(in_features=400, out_features=5, bias=True)
  (fc81): Linear(in_features=5, out_features=400, bias=True)
  (fe8): Linear(in_features=400, out_features=400, bias=True)
  (fc90): Linear(in_features=400, out_features=2, bias=True)
  (fc91): Linear(in_features=2, out_features=400, bias=True)
  (fe9): Linear(in_features=400, out_features=400, bias=True)
  (gmfc100): Linear(in_features=400, out_features=1, bias=True)
  (gmfc101): Linear(in_features=400, out_features=5, bias=True)
  (gmfc102): Linear(in_features=5, out_features=400, bias=True)
  (gmfe100): Linear(in_features=400, out_features=400, bias=True)
  (gmfe101): Linear(in_features=400, out_features=400, bias=True)
  (gmfc110): Linear(in_features=400, out_features=1, bias=True)
  (gmfc111): Linear(in_features=400, out_features=5, bias=True)
  (gmfc112): Linear(in_features=5, out_features=400, bias=True)
  (gmfe110): Linear(in_features=400, out_features=400, bias=True)
  (gmfe111): Linear(in_features=400, out_features=400, bias=True)
  (gmfc120): Linear(in_features=400, out_features=1, bias=True)
  (gmfc121): Linear(in_features=400, out_features=5, bias=True)
  (gmfc122): Linear(in_features=5, out_features=400, bias=True)
  (gmfe120): Linear(in_features=400, out_features=400, bias=True)
  (gmfe121): Linear(in_features=400, out_features=400, bias=True)
  (fc130): Linear(in_features=400, out_features=40, bias=True)
  (fc131): Linear(in_features=40, out_features=400, bias=True)
  (fe13): Linear(in_features=400, out_features=400, bias=True)
  (fc140): Linear(in_features=400, out_features=2, bias=True)
  (fc141): Linear(in_features=2, out_features=400, bias=True)
  (fe14): Linear(in_features=400, out_features=400, bias=True)
)
LGAN_discriminator(
  (Dropout): Dropout(p=0.5, inplace=False)
  (input): Linear(in_features=135, out_features=400, bias=True)
  (inputbn): BatchNorm1d(400, eps=1e-05, momentum=0.1, affine=True, track_running_stats=True)
  (fc0): Linear(in_features=400, out_features=400, bias=True)
  (bn0): BatchNorm1d(400, eps=1e-05, momentum=0.1, affine=True, track_running_stats=True)
  (fc1): Linear(in_features=400, out_features=400, bias=True)
  (bn1): BatchNorm1d(400, eps=1e-05, momentum=0.1, affine=True, track_running_stats=True)
  (fc2): Linear(in_features=400, out_features=400, bias=True)
  (bn2): BatchNorm1d(400, eps=1e-05, momentum=0.1, affine=True, track_running_stats=True)
  (fc3): Linear(in_features=400, out_features=400, bias=True)
  (bn3): BatchNorm1d(400, eps=1e-05, momentum=0.1, affine=True, track_running_stats=True)
  (output): Linear(in_features=400, out_features=1, bias=True)
)
------ng : 0-------
generator loss: -0.003641969757154584
discriminator loss: 0.0001240381971001625
------ng : 100-------
generator loss: -0.0002874906058423221
discriminator loss: 3.2588111935183406e-05
------ng : 200-------
generator loss: 0.00012027307093376294
discriminator loss: -4.296496626920998e-06
------ng : 300-------
generator loss: -0.00024942829622887075
…
