
The following have been reloaded with a version change:
  1) pillow/7.2.0-python-3.7.4 => pillow/6.2.1

train row : 30148
sample row: 30148
VGAN_generator(
  (input): Linear(in_features=128, out_features=400, bias=True)
  (inputbn): BatchNorm1d(400, eps=1e-05, momentum=0.1, affine=True, track_running_stats=True)
  (fc0): Linear(in_features=400, out_features=400, bias=True)
  (bn0): BatchNorm1d(400, eps=1e-05, momentum=0.1, affine=True, track_running_stats=True)
  (fc1): Linear(in_features=400, out_features=400, bias=True)
  (bn1): BatchNorm1d(400, eps=1e-05, momentum=0.1, affine=True, track_running_stats=True)
  (output): Linear(in_features=400, out_features=105, bias=True)
  (outputbn): BatchNorm1d(105, eps=1e-05, momentum=0.1, affine=True, track_running_stats=True)
)
VGAN_discriminator(
  (input): Linear(in_features=105, out_features=100, bias=True)
  (Dropout): Dropout(p=0.5, inplace=False)
  (fc0): Linear(in_features=100, out_features=100, bias=True)
  (output): Linear(in_features=100, out_features=1, bias=True)
)
(0, False, 105)
-----------Epoch 0-----------
iterator 100, D_Loss:1.2961790561676025, G_Loss:1.706352949142456

iterator 200, D_Loss:1.0722646713256836, G_Loss:1.833174705505371

iterator 300, D_Loss:0.7886496782302856, G_Loss:2.690109968185425

iterator 400, D_Loss:0.7251337766647339, G_Loss:3.4306256771087646

iterator 500, D_Loss:0.6559261083602905, G_Loss:3.990328788757324
…
iterator 4200, D_Loss:1.2763053178787231, G_Loss:1.1220848560333252

iterator 4300, D_Loss:1.2510948181152344, G_Loss:1.0702800750732422

iterator 4400, D_Loss:1.2774397134780884, G_Loss:1.101989507675171

iterator 4500, D_Loss:1.3296446800231934, G_Loss:1.1049360036849976

iterator 4600, D_Loss:1.2306675910949707, G_Loss:1.1139397621154785

iterator 4700, D_Loss:1.2719298601150513, G_Loss:1.095054268836975

iterator 4800, D_Loss:1.3216865062713623, G_Loss:1.0548808574676514

iterator 4900, D_Loss:1.2442457675933838, G_Loss:0.9711155891418457

iterator 5000, D_Loss:1.264481782913208, G_Loss:1.166975975036621

VGAN_generator(
  (input): Linear(in_features=128, out_features=300, bias=True)
  (inputbn): BatchNorm1d(300, eps=1e-05, momentum=0.1, affine=True, track_running_stats=True)
  (fc0): Linear(in_features=300, out_features=300, bias=True)
  (bn0): BatchNorm1d(300, eps=1e-05, momentum=0.1, affine=True, track_running_stats=True)
  (output): Linear(in_features=300, out_features=105, bias=True)
  (outputbn): BatchNorm1d(105, eps=1e-05, momentum=0.1, affine=True, track_running_stats=True)
)
VGAN_discriminator(
  (input): Linear(in_features=105, out_features=200, bias=True)
  (Dropout): Dropout(p=0.5, inplace=False)
  (fc0): Linear(in_features=200, out_features=200, bias=True)
  (fc1): Linear(in_features=200, out_features=200, bias=True)
  (fc2): Linear(in_features=200, out_features=200, bias=True)
  (output): Linear(in_features=200, out_features=1, bias=True)
)
(0, False, 105)
-----------Epoch 0-----------
iterator 100, D_Loss:0.5771395564079285, G_Loss:7.941619396209717

iterator 200, D_Loss:0.49460113048553467, G_Loss:8.383402824401855

iterator 300, D_Loss:0.47340667247772217, G_Loss:9.110745429992676

iterator 400, D_Loss:0.5038169026374817, G_Loss:7.801514625549316

iterator 500, D_Loss:0.4581637978553772, G_Loss:7.3675007820129395
…
iterator 4300, D_Loss:1.30958092212677, G_Loss:1.015231728553772

iterator 4400, D_Loss:1.3085310459136963, G_Loss:1.042407751083374

iterator 4500, D_Loss:1.3024342060089111, G_Loss:1.062065839767456

iterator 4600, D_Loss:1.291286587715149, G_Loss:0.9884534478187561

iterator 4700, D_Loss:1.3018479347229004, G_Loss:1.0735076665878296

iterator 4800, D_Loss:1.305558443069458, G_Loss:1.021655559539795

iterator 4900, D_Loss:1.2935354709625244, G_Loss:1.001198649406433

iterator 5000, D_Loss:1.2765580415725708, G_Loss:1.0193891525268555

train row : 30148
sample row: 30148
VGAN_generator(
  (input): Linear(in_features=128, out_features=100, bias=True)
  (inputbn): BatchNorm1d(100, eps=1e-05, momentum=0.1, affine=True, track_running_stats=True)
  (fc0): Linear(in_features=100, out_features=100, bias=True)
  (bn0): BatchNorm1d(100, eps=1e-05, momentum=0.1, affine=True, track_running_stats=True)
  (fc1): Linear(in_features=100, out_features=100, bias=True)
  (bn1): BatchNorm1d(100, eps=1e-05, momentum=0.1, affine=True, track_running_stats=True)
  (output): Linear(in_features=100, out_features=15, bias=True)
  (outputbn): BatchNorm1d(15, eps=1e-05, momentum=0.1, affine=True, track_running_stats=True)
)
VGAN_discriminator(
  (input): Linear(in_features=15, out_features=100, bias=True)
  (Dropout): Dropout(p=0.5, inplace=False)
  (fc0): Linear(in_features=100, out_features=100, bias=True)
  (output): Linear(in_features=100, out_features=1, bias=True)
)
(0, False, 15)
-----------Epoch 0-----------
iterator 100, D_Loss:1.228487253189087, G_Loss:0.7984766364097595

iterator 200, D_Loss:1.0658336877822876, G_Loss:1.1053540706634521

iterator 300, D_Loss:0.8979784250259399, G_Loss:1.57491135597229

iterator 400, D_Loss:0.8878492116928101, G_Loss:2.040571689605713

iterator 500, D_Loss:0.8269651532173157, G_Loss:2.3728981018066406
…
iterator 4200, D_Loss:0.88944411277771, G_Loss:1.9726345539093018

iterator 4300, D_Loss:0.866324782371521, G_Loss:2.040802240371704

iterator 4400, D_Loss:0.8426737189292908, G_Loss:2.177213191986084

iterator 4500, D_Loss:0.8273556232452393, G_Loss:2.1211984157562256

iterator 4600, D_Loss:0.9054007530212402, G_Loss:2.0298638343811035

iterator 4700, D_Loss:0.860151469707489, G_Loss:2.279883861541748

iterator 4800, D_Loss:0.8527189493179321, G_Loss:2.2013792991638184

iterator 4900, D_Loss:0.8550450801849365, G_Loss:2.1168594360351562

iterator 5000, D_Loss:0.9112837314605713, G_Loss:1.9430032968521118

VGAN_generator(
  (input): Linear(in_features=256, out_features=100, bias=True)
  (inputbn): BatchNorm1d(100, eps=1e-05, momentum=0.1, affine=True, track_running_stats=True)
  (fc0): Linear(in_features=100, out_features=100, bias=True)
  (bn0): BatchNorm1d(100, eps=1e-05, momentum=0.1, affine=True, track_running_stats=True)
  (fc1): Linear(in_features=100, out_features=100, bias=True)
  (bn1): BatchNorm1d(100, eps=1e-05, momentum=0.1, affine=True, track_running_stats=True)
  (fc2): Linear(in_features=100, out_features=100, bias=True)
  (bn2): BatchNorm1d(100, eps=1e-05, momentum=0.1, affine=True, track_running_stats=True)
  (output): Linear(in_features=100, out_features=15, bias=True)
  (outputbn): BatchNorm1d(15, eps=1e-05, momentum=0.1, affine=True, track_running_stats=True)
)
VGAN_discriminator(
  (input): Linear(in_features=15, out_features=400, bias=True)
  (Dropout): Dropout(p=0.5, inplace=False)
  (fc0): Linear(in_features=400, out_features=400, bias=True)
  (fc1): Linear(in_features=400, out_features=400, bias=True)
  (output): Linear(in_features=400, out_features=1, bias=True)
)
(0, False, 15)
-----------Epoch 0-----------
iterator 100, D_Loss:0.5438079237937927, G_Loss:5.632805824279785

iterator 200, D_Loss:0.5075170397758484, G_Loss:7.434718132019043

iterator 300, D_Loss:0.505500316619873, G_Loss:7.856341361999512

iterator 400, D_Loss:0.48698776960372925, G_Loss:9.760000228881836

iterator 500, D_Loss:0.44388777017593384, G_Loss:9.103960990905762
…
iterator 4300, D_Loss:0.7386610507965088, G_Loss:2.999070405960083

iterator 4400, D_Loss:0.7866076231002808, G_Loss:2.9142303466796875

iterator 4500, D_Loss:0.7662918567657471, G_Loss:2.77176570892334

iterator 4600, D_Loss:0.7779383659362793, G_Loss:2.8147189617156982

iterator 4700, D_Loss:0.7540707588195801, G_Loss:2.806279182434082

iterator 4800, D_Loss:0.7788919806480408, G_Loss:2.7905709743499756

iterator 4900, D_Loss:0.7584725022315979, G_Loss:2.936062812805176

iterator 5000, D_Loss:0.7907460331916809, G_Loss:2.8282434940338135

train row : 30148
sample row: 30148
VGAN_generator(
  (input): Linear(in_features=256, out_features=400, bias=True)
  (inputbn): BatchNorm1d(400, eps=1e-05, momentum=0.1, affine=True, track_running_stats=True)
  (fc0): Linear(in_features=400, out_features=400, bias=True)
  (bn0): BatchNorm1d(400, eps=1e-05, momentum=0.1, affine=True, track_running_stats=True)
  (fc1): Linear(in_features=400, out_features=400, bias=True)
  (bn1): BatchNorm1d(400, eps=1e-05, momentum=0.1, affine=True, track_running_stats=True)
  (output): Linear(in_features=400, out_features=135, bias=True)
  (outputbn): BatchNorm1d(135, eps=1e-05, momentum=0.1, affine=True, track_running_stats=True)
)
VGAN_discriminator(
  (input): Linear(in_features=135, out_features=300, bias=True)
  (Dropout): Dropout(p=0.5, inplace=False)
  (fc0): Linear(in_features=300, out_features=300, bias=True)
  (fc1): Linear(in_features=300, out_features=300, bias=True)
  (output): Linear(in_features=300, out_features=1, bias=True)
)
(0, False, 135)
-----------Epoch 0-----------
iterator 100, D_Loss:0.5028337240219116, G_Loss:9.525386810302734

iterator 200, D_Loss:0.48870664834976196, G_Loss:10.01361083984375

iterator 300, D_Loss:0.4872882068157196, G_Loss:10.665801048278809

iterator 400, D_Loss:0.4673478603363037, G_Loss:11.19657039642334

iterator 500, D_Loss:0.4662908911705017, G_Loss:11.551486015319824
…
iterator 4200, D_Loss:0.806972861289978, G_Loss:2.9911789894104004

iterator 4300, D_Loss:0.7678529024124146, G_Loss:3.3033509254455566

iterator 4400, D_Loss:0.7309375405311584, G_Loss:3.067880392074585

iterator 4500, D_Loss:0.7295670509338379, G_Loss:3.548633575439453

iterator 4600, D_Loss:0.7220957279205322, G_Loss:3.3801772594451904

iterator 4700, D_Loss:0.7287725210189819, G_Loss:3.223895788192749

iterator 4800, D_Loss:0.7623618841171265, G_Loss:3.3222830295562744

iterator 4900, D_Loss:0.7679516077041626, G_Loss:3.202086925506592

iterator 5000, D_Loss:0.8067704439163208, G_Loss:3.2534027099609375

VGAN_generator(
  (input): Linear(in_features=256, out_features=200, bias=True)
  (inputbn): BatchNorm1d(200, eps=1e-05, momentum=0.1, affine=True, track_running_stats=True)
  (fc0): Linear(in_features=200, out_features=200, bias=True)
  (bn0): BatchNorm1d(200, eps=1e-05, momentum=0.1, affine=True, track_running_stats=True)
  (fc1): Linear(in_features=200, out_features=200, bias=True)
  (bn1): BatchNorm1d(200, eps=1e-05, momentum=0.1, affine=True, track_running_stats=True)
  (output): Linear(in_features=200, out_features=135, bias=True)
  (outputbn): BatchNorm1d(135, eps=1e-05, momentum=0.1, affine=True, track_running_stats=True)
)
VGAN_discriminator(
  (input): Linear(in_features=135, out_features=100, bias=True)
  (Dropout): Dropout(p=0.5, inplace=False)
  (fc0): Linear(in_features=100, out_features=100, bias=True)
  (fc1): Linear(in_features=100, out_features=100, bias=True)
  (fc2): Linear(in_features=100, out_features=100, bias=True)
  (output): Linear(in_features=100, out_features=1, bias=True)
)
(0, False, 135)
-----------Epoch 0-----------
iterator 100, D_Loss:0.5470073223114014, G_Loss:8.441478729248047

iterator 200, D_Loss:0.5131534337997437, G_Loss:9.81100845336914

iterator 300, D_Loss:0.49398207664489746, G_Loss:9.846076965332031

iterator 400, D_Loss:0.5022975206375122, G_Loss:9.264074325561523

iterator 500, D_Loss:0.48980891704559326, G_Loss:8.054426193237305
…
iterator 4300, D_Loss:1.1237090826034546, G_Loss:1.496416449546814

iterator 4400, D_Loss:1.0893032550811768, G_Loss:1.5498888492584229

iterator 4500, D_Loss:1.1127307415008545, G_Loss:1.7964897155761719

iterator 4600, D_Loss:1.126163363456726, G_Loss:1.477441430091858

iterator 4700, D_Loss:1.0704474449157715, G_Loss:2.004995346069336

iterator 4800, D_Loss:1.1029305458068848, G_Loss:1.3974013328552246

iterator 4900, D_Loss:1.1674858331680298, G_Loss:1.4431767463684082

iterator 5000, D_Loss:1.1188061237335205, G_Loss:1.5500520467758179

train row : 30148
sample row: 30148
VGAN_generator(
  (input): Linear(in_features=128, out_features=100, bias=True)
  (inputbn): BatchNorm1d(100, eps=1e-05, momentum=0.1, affine=True, track_running_stats=True)
  (fc0): Linear(in_features=100, out_features=100, bias=True)
  (bn0): BatchNorm1d(100, eps=1e-05, momentum=0.1, affine=True, track_running_stats=True)
  (output): Linear(in_features=100, out_features=45, bias=True)
  (outputbn): BatchNorm1d(45, eps=1e-05, momentum=0.1, affine=True, track_running_stats=True)
)
VGAN_discriminator(
  (input): Linear(in_features=45, out_features=400, bias=True)
  (Dropout): Dropout(p=0.5, inplace=False)
  (fc0): Linear(in_features=400, out_features=400, bias=True)
  (output): Linear(in_features=400, out_features=1, bias=True)
)
(0, False, 45)
-----------Epoch 0-----------
iterator 100, D_Loss:0.5226553082466125, G_Loss:10.907844543457031

iterator 200, D_Loss:0.5081183314323425, G_Loss:9.135859489440918

iterator 300, D_Loss:0.42987778782844543, G_Loss:10.230077743530273

iterator 400, D_Loss:0.45654505491256714, G_Loss:8.52822494506836

iterator 500, D_Loss:0.43352043628692627, G_Loss:10.676607131958008
…
iterator 4200, D_Loss:0.7193858027458191, G_Loss:3.7502636909484863

iterator 4300, D_Loss:0.7248052358627319, G_Loss:3.221167802810669

iterator 4400, D_Loss:0.8600324988365173, G_Loss:3.6325314044952393

iterator 4500, D_Loss:0.8588661551475525, G_Loss:2.803114891052246

iterator 4600, D_Loss:0.875964343547821, G_Loss:3.789515256881714

iterator 4700, D_Loss:0.7931303977966309, G_Loss:3.4511377811431885

iterator 4800, D_Loss:0.8585470914840698, G_Loss:3.402211904525757

iterator 4900, D_Loss:0.8582266569137573, G_Loss:3.5019710063934326

iterator 5000, D_Loss:0.8148415088653564, G_Loss:3.238090991973877

VGAN_generator(
  (input): Linear(in_features=128, out_features=200, bias=True)
  (inputbn): BatchNorm1d(200, eps=1e-05, momentum=0.1, affine=True, track_running_stats=True)
  (fc0): Linear(in_features=200, out_features=200, bias=True)
  (bn0): BatchNorm1d(200, eps=1e-05, momentum=0.1, affine=True, track_running_stats=True)
  (fc1): Linear(in_features=200, out_features=200, bias=True)
  (bn1): BatchNorm1d(200, eps=1e-05, momentum=0.1, affine=True, track_running_stats=True)
  (fc2): Linear(in_features=200, out_features=200, bias=True)
  (bn2): BatchNorm1d(200, eps=1e-05, momentum=0.1, affine=True, track_running_stats=True)
  (output): Linear(in_features=200, out_features=45, bias=True)
  (outputbn): BatchNorm1d(45, eps=1e-05, momentum=0.1, affine=True, track_running_stats=True)
)
VGAN_discriminator(
  (input): Linear(in_features=45, out_features=300, bias=True)
  (Dropout): Dropout(p=0.5, inplace=False)
  (fc0): Linear(in_features=300, out_features=300, bias=True)
  (fc1): Linear(in_features=300, out_features=300, bias=True)
  (output): Linear(in_features=300, out_features=1, bias=True)
)
(0, False, 45)
-----------Epoch 0-----------
iterator 100, D_Loss:0.5319156050682068, G_Loss:8.826647758483887

iterator 200, D_Loss:0.45860034227371216, G_Loss:11.366049766540527

iterator 300, D_Loss:0.44867581129074097, G_Loss:11.78145980834961

iterator 400, D_Loss:0.47178366780281067, G_Loss:11.177865982055664

iterator 500, D_Loss:0.4436870515346527, G_Loss:10.954803466796875
…
iterator 4300, D_Loss:0.7703526616096497, G_Loss:3.251736640930176

iterator 4400, D_Loss:0.6854792833328247, G_Loss:3.7306039333343506

iterator 4500, D_Loss:0.7330708503723145, G_Loss:3.3605289459228516

iterator 4600, D_Loss:0.6981848478317261, G_Loss:3.2710649967193604

iterator 4700, D_Loss:0.7620318531990051, G_Loss:3.4767072200775146

iterator 4800, D_Loss:0.7445657253265381, G_Loss:3.143571138381958

iterator 4900, D_Loss:0.7658072710037231, G_Loss:3.606851816177368

iterator 5000, D_Loss:0.7875684499740601, G_Loss:3.5935959815979004

train row : 30148
sample row: 30148
LGAN_generator(
  (LSTM): LSTMCell(500, 500)
  (gmfc00): Linear(in_features=100, out_features=1, bias=True)
  (gmfc01): Linear(in_features=100, out_features=5, bias=True)
  (gmfc02): Linear(in_features=5, out_features=100, bias=True)
  (gmfe00): Linear(in_features=500, out_features=100, bias=True)
  (gmfe01): Linear(in_features=500, out_features=100, bias=True)
  (fc10): Linear(in_features=100, out_features=7, bias=True)
  (fc11): Linear(in_features=7, out_features=100, bias=True)
  (fe1): Linear(in_features=500, out_features=100, bias=True)
  (gmfc20): Linear(in_features=100, out_features=1, bias=True)
  (gmfc21): Linear(in_features=100, out_features=5, bias=True)
  (gmfc22): Linear(in_features=5, out_features=100, bias=True)
  (gmfe20): Linear(in_features=500, out_features=100, bias=True)
  (gmfe21): Linear(in_features=500, out_features=100, bias=True)
  (fc30): Linear(in_features=100, out_features=16, bias=True)
  (fc31): Linear(in_features=16, out_features=100, bias=True)
  (fe3): Linear(in_features=500, out_features=100, bias=True)
  (gmfc40): Linear(in_features=100, out_features=1, bias=True)
  (gmfc41): Linear(in_features=100, out_features=5, bias=True)
  (gmfc42): Linear(in_features=5, out_features=100, bias=True)
  (gmfe40): Linear(in_features=500, out_features=100, bias=True)
  (gmfe41): Linear(in_features=500, out_features=100, bias=True)
  (fc50): Linear(in_features=100, out_features=7, bias=True)
  (fc51): Linear(in_features=7, out_features=100, bias=True)
  (fe5): Linear(in_features=500, out_features=100, bias=True)
  (fc60): Linear(in_features=100, out_features=14, bias=True)
  (fc61): Linear(in_features=14, out_features=100, bias=True)
  (fe6): Linear(in_features=500, out_features=100, bias=True)
  (fc70): Linear(in_features=100, out_features=6, bias=True)
  (fc71): Linear(in_features=6, out_features=100, bias=True)
  (fe7): Linear(in_features=500, out_features=100, bias=True)
  (fc80): Linear(in_features=100, out_features=5, bias=True)
  (fc81): Linear(in_features=5, out_features=100, bias=True)
  (fe8): Linear(in_features=500, out_features=100, bias=True)
  (fc90): Linear(in_features=100, out_features=2, bias=True)
  (fc91): Linear(in_features=2, out_features=100, bias=True)
  (fe9): Linear(in_features=500, out_features=100, bias=True)
  (gmfc100): Linear(in_features=100, out_features=1, bias=True)
  (gmfc101): Linear(in_features=100, out_features=5, bias=True)
  (gmfc102): Linear(in_features=5, out_features=100, bias=True)
  (gmfe100): Linear(in_features=500, out_features=100, bias=True)
  (gmfe101): Linear(in_features=500, out_features=100, bias=True)
  (gmfc110): Linear(in_features=100, out_features=1, bias=True)
  (gmfc111): Linear(in_features=100, out_features=5, bias=True)
  (gmfc112): Linear(in_features=5, out_features=100, bias=True)
  (gmfe110): Linear(in_features=500, out_features=100, bias=True)
  (gmfe111): Linear(in_features=500, out_features=100, bias=True)
  (gmfc120): Linear(in_features=100, out_features=1, bias=True)
  (gmfc121): Linear(in_features=100, out_features=5, bias=True)
  (gmfc122): Linear(in_features=5, out_features=100, bias=True)
  (gmfe120): Linear(in_features=500, out_features=100, bias=True)
  (gmfe121): Linear(in_features=500, out_features=100, bias=True)
  (fc130): Linear(in_features=100, out_features=40, bias=True)
  (fc131): Linear(in_features=40, out_features=100, bias=True)
  (fe13): Linear(in_features=500, out_features=100, bias=True)
  (fc140): Linear(in_features=100, out_features=2, bias=True)
  (fc141): Linear(in_features=2, out_features=100, bias=True)
  (fe14): Linear(in_features=500, out_features=100, bias=True)
)
LGAN_discriminator(
  (Dropout): Dropout(p=0.5, inplace=False)
  (input): Linear(in_features=135, out_features=100, bias=True)
  (inputbn): BatchNorm1d(100, eps=1e-05, momentum=0.1, affine=True, track_running_stats=True)
  (fc0): Linear(in_features=100, out_features=100, bias=True)
  (bn0): BatchNorm1d(100, eps=1e-05, momentum=0.1, affine=True, track_running_stats=True)
  (fc1): Linear(in_features=100, out_features=100, bias=True)
  (bn1): BatchNorm1d(100, eps=1e-05, momentum=0.1, affine=True, track_running_stats=True)
  (fc2): Linear(in_features=100, out_features=100, bias=True)
  (bn2): BatchNorm1d(100, eps=1e-05, momentum=0.1, affine=True, track_running_stats=True)
  (output): Linear(in_features=100, out_features=1, bias=True)
)
(0, False, 135)
-----------Epoch 0-----------
iterator 100, D_Loss:1.4002270698547363, G_Loss:1.1939849853515625

iterator 200, D_Loss:1.4274656772613525, G_Loss:1.0994523763656616

iterator 300, D_Loss:1.4167864322662354, G_Loss:1.029848337173462

iterator 400, D_Loss:1.4342067241668701, G_Loss:0.9516621828079224

iterator 500, D_Loss:1.4136613607406616, G_Loss:1.0118969678878784
…
iterator 4300, D_Loss:1.2065443992614746, G_Loss:2.227491855621338

iterator 4400, D_Loss:1.0185693502426147, G_Loss:1.7971415519714355

iterator 4500, D_Loss:0.6871687173843384, G_Loss:1.031177282333374

iterator 4600, D_Loss:1.0329259634017944, G_Loss:1.8327571153640747

iterator 4700, D_Loss:0.9258782267570496, G_Loss:1.5377576351165771

iterator 4800, D_Loss:1.399200677871704, G_Loss:1.6352276802062988

iterator 4900, D_Loss:1.0697085857391357, G_Loss:1.318547010421753

iterator 5000, D_Loss:1.1862847805023193, G_Loss:1.4189136028289795

LGAN_generator(
  (LSTM): LSTMCell(600, 300)
  (gmfc00): Linear(in_features=400, out_features=1, bias=True)
  (gmfc01): Linear(in_features=400, out_features=5, bias=True)
  (gmfc02): Linear(in_features=5, out_features=400, bias=True)
  (gmfe00): Linear(in_features=300, out_features=400, bias=True)
  (gmfe01): Linear(in_features=300, out_features=400, bias=True)
  (fc10): Linear(in_features=400, out_features=7, bias=True)
  (fc11): Linear(in_features=7, out_features=400, bias=True)
  (fe1): Linear(in_features=300, out_features=400, bias=True)
  (gmfc20): Linear(in_features=400, out_features=1, bias=True)
  (gmfc21): Linear(in_features=400, out_features=5, bias=True)
  (gmfc22): Linear(in_features=5, out_features=400, bias=True)
  (gmfe20): Linear(in_features=300, out_features=400, bias=True)
  (gmfe21): Linear(in_features=300, out_features=400, bias=True)
  (fc30): Linear(in_features=400, out_features=16, bias=True)
  (fc31): Linear(in_features=16, out_features=400, bias=True)
  (fe3): Linear(in_features=300, out_features=400, bias=True)
  (gmfc40): Linear(in_features=400, out_features=1, bias=True)
  (gmfc41): Linear(in_features=400, out_features=5, bias=True)
  (gmfc42): Linear(in_features=5, out_features=400, bias=True)
  (gmfe40): Linear(in_features=300, out_features=400, bias=True)
  (gmfe41): Linear(in_features=300, out_features=400, bias=True)
  (fc50): Linear(in_features=400, out_features=7, bias=True)
  (fc51): Linear(in_features=7, out_features=400, bias=True)
  (fe5): Linear(in_features=300, out_features=400, bias=True)
  (fc60): Linear(in_features=400, out_features=14, bias=True)
  (fc61): Linear(in_features=14, out_features=400, bias=True)
  (fe6): Linear(in_features=300, out_features=400, bias=True)
  (fc70): Linear(in_features=400, out_features=6, bias=True)
  (fc71): Linear(in_features=6, out_features=400, bias=True)
  (fe7): Linear(in_features=300, out_features=400, bias=True)
  (fc80): Linear(in_features=400, out_features=5, bias=True)
  (fc81): Linear(in_features=5, out_features=400, bias=True)
  (fe8): Linear(in_features=300, out_features=400, bias=True)
  (fc90): Linear(in_features=400, out_features=2, bias=True)
  (fc91): Linear(in_features=2, out_features=400, bias=True)
  (fe9): Linear(in_features=300, out_features=400, bias=True)
  (gmfc100): Linear(in_features=400, out_features=1, bias=True)
  (gmfc101): Linear(in_features=400, out_features=5, bias=True)
  (gmfc102): Linear(in_features=5, out_features=400, bias=True)
  (gmfe100): Linear(in_features=300, out_features=400, bias=True)
  (gmfe101): Linear(in_features=300, out_features=400, bias=True)
  (gmfc110): Linear(in_features=400, out_features=1, bias=True)
  (gmfc111): Linear(in_features=400, out_features=5, bias=True)
  (gmfc112): Linear(in_features=5, out_features=400, bias=True)
  (gmfe110): Linear(in_features=300, out_features=400, bias=True)
  (gmfe111): Linear(in_features=300, out_features=400, bias=True)
  (gmfc120): Linear(in_features=400, out_features=1, bias=True)
  (gmfc121): Linear(in_features=400, out_features=5, bias=True)
  (gmfc122): Linear(in_features=5, out_features=400, bias=True)
  (gmfe120): Linear(in_features=300, out_features=400, bias=True)
  (gmfe121): Linear(in_features=300, out_features=400, bias=True)
  (fc130): Linear(in_features=400, out_features=40, bias=True)
  (fc131): Linear(in_features=40, out_features=400, bias=True)
  (fe13): Linear(in_features=300, out_features=400, bias=True)
  (fc140): Linear(in_features=400, out_features=2, bias=True)
  (fc141): Linear(in_features=2, out_features=400, bias=True)
  (fe14): Linear(in_features=300, out_features=400, bias=True)
)
LGAN_discriminator(
  (Dropout): Dropout(p=0.5, inplace=False)
  (input): Linear(in_features=135, out_features=200, bias=True)
  (inputbn): BatchNorm1d(200, eps=1e-05, momentum=0.1, affine=True, track_running_stats=True)
  (fc0): Linear(in_features=200, out_features=200, bias=True)
  (bn0): BatchNorm1d(200, eps=1e-05, momentum=0.1, affine=True, track_running_stats=True)
  (fc1): Linear(in_features=200, out_features=200, bias=True)
  (bn1): BatchNorm1d(200, eps=1e-05, momentum=0.1, affine=True, track_running_stats=True)
  (fc2): Linear(in_features=200, out_features=200, bias=True)
  (bn2): BatchNorm1d(200, eps=1e-05, momentum=0.1, affine=True, track_running_stats=True)
  (fc3): Linear(in_features=200, out_features=200, bias=True)
  (bn3): BatchNorm1d(200, eps=1e-05, momentum=0.1, affine=True, track_running_stats=True)
  (fc4): Linear(in_features=200, out_features=200, bias=True)
  (bn4): BatchNorm1d(200, eps=1e-05, momentum=0.1, affine=True, track_running_stats=True)
  (output): Linear(in_features=200, out_features=1, bias=True)
)
(0, False, 135)
-----------Epoch 0-----------
iterator 100, D_Loss:1.3737965822219849, G_Loss:1.035611867904663

iterator 200, D_Loss:1.3401365280151367, G_Loss:1.003636121749878

iterator 300, D_Loss:1.2669506072998047, G_Loss:1.048567771911621

iterator 400, D_Loss:0.9141737818717957, G_Loss:2.1814050674438477

iterator 500, D_Loss:0.5510886907577515, G_Loss:3.381507396697998
…
/usr/local/easybuild-2019/easybuild/build/PyTorch/1.4.0/fosscuda-2019b-Python-3.7.4/pytorch-1.4.0/aten/src/THCUNN/BCECriterion.cu:42: Acctype bce_functor<Dtype, Acctype>::operator()(Tuple) [with Tuple = thrust::detail::tuple_of_iterator_references<thrust::device_reference<float>, thrust::device_reference<float>, thrust::null_type, thrust::null_type, thrust::null_type, thrust::null_type, thrust::null_type, thrust::null_type, thrust::null_type, thrust::null_type>, Dtype = float, Acctype = float]: block: [0,0,0], thread: [31,0,0] Assertion `input >= 0. && input <= 1.` failed.
LGAN_generator(
  (LSTM): LSTMCell(300, 300)
  (gmfc00): Linear(in_features=200, out_features=1, bias=True)
  (gmfc01): Linear(in_features=200, out_features=5, bias=True)
  (gmfc02): Linear(in_features=5, out_features=200, bias=True)
  (gmfe00): Linear(in_features=300, out_features=200, bias=True)
  (gmfe01): Linear(in_features=300, out_features=200, bias=True)
  (fc10): Linear(in_features=200, out_features=1, bias=True)
  (fc11): Linear(in_features=1, out_features=200, bias=True)
  (fe1): Linear(in_features=300, out_features=200, bias=True)
  (gmfc20): Linear(in_features=200, out_features=1, bias=True)
  (gmfc21): Linear(in_features=200, out_features=5, bias=True)
  (gmfc22): Linear(in_features=5, out_features=200, bias=True)
  (gmfe20): Linear(in_features=300, out_features=200, bias=True)
  (gmfe21): Linear(in_features=300, out_features=200, bias=True)
  (fc30): Linear(in_features=200, out_features=1, bias=True)
  (fc31): Linear(in_features=1, out_features=200, bias=True)
  (fe3): Linear(in_features=300, out_features=200, bias=True)
  (gmfc40): Linear(in_features=200, out_features=1, bias=True)
  (gmfc41): Linear(in_features=200, out_features=5, bias=True)
  (gmfc42): Linear(in_features=5, out_features=200, bias=True)
  (gmfe40): Linear(in_features=300, out_features=200, bias=True)
  (gmfe41): Linear(in_features=300, out_features=200, bias=True)
  (fc50): Linear(in_features=200, out_features=1, bias=True)
  (fc51): Linear(in_features=1, out_features=200, bias=True)
  (fe5): Linear(in_features=300, out_features=200, bias=True)
  (fc60): Linear(in_features=200, out_features=1, bias=True)
  (fc61): Linear(in_features=1, out_features=200, bias=True)
  (fe6): Linear(in_features=300, out_features=200, bias=True)
  (fc70): Linear(in_features=200, out_features=1, bias=True)
  (fc71): Linear(in_features=1, out_features=200, bias=True)
  (fe7): Linear(in_features=300, out_features=200, bias=True)
  (fc80): Linear(in_features=200, out_features=1, bias=True)
  (fc81): Linear(in_features=1, out_features=200, bias=True)
  (fe8): Linear(in_features=300, out_features=200, bias=True)
  (fc90): Linear(in_features=200, out_features=1, bias=True)
  (fc91): Linear(in_features=1, out_features=200, bias=True)
  (fe9): Linear(in_features=300, out_features=200, bias=True)
  (gmfc100): Linear(in_features=200, out_features=1, bias=True)
  (gmfc101): Linear(in_features=200, out_features=5, bias=True)
  (gmfc102): Linear(in_features=5, out_features=200, bias=True)
  (gmfe100): Linear(in_features=300, out_features=200, bias=True)
  (gmfe101): Linear(in_features=300, out_features=200, bias=True)
  (gmfc110): Linear(in_features=200, out_features=1, bias=True)
  (gmfc111): Linear(in_features=200, out_features=5, bias=True)
  (gmfc112): Linear(in_features=5, out_features=200, bias=True)
  (gmfe110): Linear(in_features=300, out_features=200, bias=True)
  (gmfe111): Linear(in_features=300, out_features=200, bias=True)
  (gmfc120): Linear(in_features=200, out_features=1, bias=True)
  (gmfc121): Linear(in_features=200, out_features=5, bias=True)
  (gmfc122): Linear(in_features=5, out_features=200, bias=True)
  (gmfe120): Linear(in_features=300, out_features=200, bias=True)
  (gmfe121): Linear(in_features=300, out_features=200, bias=True)
  (fc130): Linear(in_features=200, out_features=1, bias=True)
  (fc131): Linear(in_features=1, out_features=200, bias=True)
  (fe13): Linear(in_features=300, out_features=200, bias=True)
  (fc140): Linear(in_features=200, out_features=1, bias=True)
  (fc141): Linear(in_features=1, out_features=200, bias=True)
  (fe14): Linear(in_features=300, out_features=200, bias=True)
)
LGAN_discriminator(
  (Dropout): Dropout(p=0.5, inplace=False)
  (input): Linear(in_features=45, out_features=500, bias=True)
  (inputbn): BatchNorm1d(500, eps=1e-05, momentum=0.1, affine=True, track_running_stats=True)
  (fc0): Linear(in_features=500, out_features=500, bias=True)
  (bn0): BatchNorm1d(500, eps=1e-05, momentum=0.1, affine=True, track_running_stats=True)
  (fc1): Linear(in_features=500, out_features=500, bias=True)
  (bn1): BatchNorm1d(500, eps=1e-05, momentum=0.1, affine=True, track_running_stats=True)
  (fc2): Linear(in_features=500, out_features=500, bias=True)
  (bn2): BatchNorm1d(500, eps=1e-05, momentum=0.1, affine=True, track_running_stats=True)
  (fc3): Linear(in_features=500, out_features=500, bias=True)
  (bn3): BatchNorm1d(500, eps=1e-05, momentum=0.1, affine=True, track_running_stats=True)
  (output): Linear(in_features=500, out_features=1, bias=True)
)
(0, False, 45)
-----------Epoch 0-----------
iterator 100, D_Loss:1.37733793258667, G_Loss:1.1149535179138184

iterator 200, D_Loss:1.3834394216537476, G_Loss:1.0760622024536133

iterator 300, D_Loss:1.3757259845733643, G_Loss:1.1087863445281982

iterator 400, D_Loss:1.3943278789520264, G_Loss:1.0411598682403564

iterator 500, D_Loss:1.3569886684417725, G_Loss:1.0718088150024414
…
    V_Train(search, path, sample_it, gen, dis, config["n_epochs"], param["lr"], train_it, param["z_dim"], dataset, col_type, sample_times,itertimes = 100, steps_per_epoch = config["steps_per_epoch"],GPU=GPU,KL=KL)
  File "/home/youran/Daisy/Daisy/synthesizer/train.py", line 113, in V_Train
    D_Loss2 = F.binary_cross_entropy(y_fake, fake_label)
  File "/usr/local/easybuild-2019/easybuild/software/mpi/gcc-cuda/8.3.0-10.1.243/openmpi/3.1.4/pytorch/1.4.0-python-3.7.4/lib/python3.7/site-packages/torch/nn/functional.py", line 2077, in binary_cross_entropy
    input, target, weight, reduction_enum)
RuntimeError: reduce failed to synchronize: cudaErrorAssert: device-side assert triggered
LGAN_generator(
  (LSTM): LSTMCell(650, 200)
  (gmfc00): Linear(in_features=600, out_features=1, bias=True)
  (gmfc01): Linear(in_features=600, out_features=5, bias=True)
  (gmfc02): Linear(in_features=5, out_features=600, bias=True)
  (gmfe00): Linear(in_features=200, out_features=600, bias=True)
  (gmfe01): Linear(in_features=200, out_features=600, bias=True)
  (fc10): Linear(in_features=600, out_features=1, bias=True)
  (fc11): Linear(in_features=1, out_features=600, bias=True)
  (fe1): Linear(in_features=200, out_features=600, bias=True)
  (gmfc20): Linear(in_features=600, out_features=1, bias=True)
  (gmfc21): Linear(in_features=600, out_features=5, bias=True)
  (gmfc22): Linear(in_features=5, out_features=600, bias=True)
  (gmfe20): Linear(in_features=200, out_features=600, bias=True)
  (gmfe21): Linear(in_features=200, out_features=600, bias=True)
  (fc30): Linear(in_features=600, out_features=1, bias=True)
  (fc31): Linear(in_features=1, out_features=600, bias=True)
  (fe3): Linear(in_features=200, out_features=600, bias=True)
  (gmfc40): Linear(in_features=600, out_features=1, bias=True)
  (gmfc41): Linear(in_features=600, out_features=5, bias=True)
  (gmfc42): Linear(in_features=5, out_features=600, bias=True)
  (gmfe40): Linear(in_features=200, out_features=600, bias=True)
  (gmfe41): Linear(in_features=200, out_features=600, bias=True)
  (fc50): Linear(in_features=600, out_features=1, bias=True)
  (fc51): Linear(in_features=1, out_features=600, bias=True)
  (fe5): Linear(in_features=200, out_features=600, bias=True)
  (fc60): Linear(in_features=600, out_features=1, bias=True)
  (fc61): Linear(in_features=1, out_features=600, bias=True)
  (fe6): Linear(in_features=200, out_features=600, bias=True)
  (fc70): Linear(in_features=600, out_features=1, bias=True)
  (fc71): Linear(in_features=1, out_features=600, bias=True)
  (fe7): Linear(in_features=200, out_features=600, bias=True)
  (fc80): Linear(in_features=600, out_features=1, bias=True)
  (fc81): Linear(in_features=1, out_features=600, bias=True)
  (fe8): Linear(in_features=200, out_features=600, bias=True)
  (fc90): Linear(in_features=600, out_features=1, bias=True)
  (fc91): Linear(in_features=1, out_features=600, bias=True)
  (fe9): Linear(in_features=200, out_features=600, bias=True)
  (gmfc100): Linear(in_features=600, out_features=1, bias=True)
  (gmfc101): Linear(in_features=600, out_features=5, bias=True)
  (gmfc102): Linear(in_features=5, out_features=600, bias=True)
  (gmfe100): Linear(in_features=200, out_features=600, bias=True)
  (gmfe101): Linear(in_features=200, out_features=600, bias=True)
  (gmfc110): Linear(in_features=600, out_features=1, bias=True)
  (gmfc111): Linear(in_features=600, out_features=5, bias=True)
  (gmfc112): Linear(in_features=5, out_features=600, bias=True)
  (gmfe110): Linear(in_features=200, out_features=600, bias=True)
  (gmfe111): Linear(in_features=200, out_features=600, bias=True)
  (gmfc120): Linear(in_features=600, out_features=1, bias=True)
  (gmfc121): Linear(in_features=600, out_features=5, bias=True)
  (gmfc122): Linear(in_features=5, out_features=600, bias=True)
  (gmfe120): Linear(in_features=200, out_features=600, bias=True)
  (gmfe121): Linear(in_features=200, out_features=600, bias=True)
  (fc130): Linear(in_features=600, out_features=1, bias=True)
  (fc131): Linear(in_features=1, out_features=600, bias=True)
  (fe13): Linear(in_features=200, out_features=600, bias=True)
  (fc140): Linear(in_features=600, out_features=1, bias=True)
  (fc141): Linear(in_features=1, out_features=600, bias=True)
  (fe14): Linear(in_features=200, out_features=600, bias=True)
)
LGAN_discriminator(
  (Dropout): Dropout(p=0.5, inplace=False)
  (input): Linear(in_features=45, out_features=500, bias=True)
  (inputbn): BatchNorm1d(500, eps=1e-05, momentum=0.1, affine=True, track_running_stats=True)
  (fc0): Linear(in_features=500, out_features=500, bias=True)
  (bn0): BatchNorm1d(500, eps=1e-05, momentum=0.1, affine=True, track_running_stats=True)
  (output): Linear(in_features=500, out_features=1, bias=True)
)
(0, False, 45)
-----------Epoch 0-----------
iterator 100, D_Loss:1.3873233795166016, G_Loss:0.9777670502662659

iterator 200, D_Loss:1.282775640487671, G_Loss:1.0027467012405396

iterator 300, D_Loss:1.2084695100784302, G_Loss:1.082014560699463

iterator 400, D_Loss:1.0885664224624634, G_Loss:1.2575874328613281

iterator 500, D_Loss:0.9628073573112488, G_Loss:1.323317050933838
…
iterator 4300, D_Loss:0.887042760848999, G_Loss:2.9134271144866943

iterator 4400, D_Loss:0.7185719609260559, G_Loss:2.9441699981689453

iterator 4500, D_Loss:0.7997034788131714, G_Loss:2.0692524909973145

iterator 4600, D_Loss:0.7781132459640503, G_Loss:1.9874683618545532

iterator 4700, D_Loss:0.7335039973258972, G_Loss:1.9247822761535645

iterator 4800, D_Loss:0.7529193758964539, G_Loss:2.1171085834503174

iterator 4900, D_Loss:0.862144947052002, G_Loss:2.061068296432495

iterator 5000, D_Loss:0.7771267890930176, G_Loss:2.2656660079956055

train row : 30148
sample row: 30148
LGAN_generator(
  (LSTM): LSTMCell(600, 300)
  (fc00): Linear(in_features=400, out_features=1, bias=True)
  (fc01): Linear(in_features=1, out_features=400, bias=True)
  (fe0): Linear(in_features=300, out_features=400, bias=True)
  (fc10): Linear(in_features=400, out_features=7, bias=True)
  (fc11): Linear(in_features=7, out_features=400, bias=True)
  (fe1): Linear(in_features=300, out_features=400, bias=True)
  (fc20): Linear(in_features=400, out_features=1, bias=True)
  (fc21): Linear(in_features=1, out_features=400, bias=True)
  (fe2): Linear(in_features=300, out_features=400, bias=True)
  (fc30): Linear(in_features=400, out_features=16, bias=True)
  (fc31): Linear(in_features=16, out_features=400, bias=True)
  (fe3): Linear(in_features=300, out_features=400, bias=True)
  (fc40): Linear(in_features=400, out_features=1, bias=True)
  (fc41): Linear(in_features=1, out_features=400, bias=True)
  (fe4): Linear(in_features=300, out_features=400, bias=True)
  (fc50): Linear(in_features=400, out_features=7, bias=True)
  (fc51): Linear(in_features=7, out_features=400, bias=True)
  (fe5): Linear(in_features=300, out_features=400, bias=True)
  (fc60): Linear(in_features=400, out_features=14, bias=True)
  (fc61): Linear(in_features=14, out_features=400, bias=True)
  (fe6): Linear(in_features=300, out_features=400, bias=True)
  (fc70): Linear(in_features=400, out_features=6, bias=True)
  (fc71): Linear(in_features=6, out_features=400, bias=True)
  (fe7): Linear(in_features=300, out_features=400, bias=True)
  (fc80): Linear(in_features=400, out_features=5, bias=True)
  (fc81): Linear(in_features=5, out_features=400, bias=True)
  (fe8): Linear(in_features=300, out_features=400, bias=True)
  (fc90): Linear(in_features=400, out_features=2, bias=True)
  (fc91): Linear(in_features=2, out_features=400, bias=True)
  (fe9): Linear(in_features=300, out_features=400, bias=True)
  (fc100): Linear(in_features=400, out_features=1, bias=True)
  (fc101): Linear(in_features=1, out_features=400, bias=True)
  (fe10): Linear(in_features=300, out_features=400, bias=True)
  (fc110): Linear(in_features=400, out_features=1, bias=True)
  (fc111): Linear(in_features=1, out_features=400, bias=True)
  (fe11): Linear(in_features=300, out_features=400, bias=True)
  (fc120): Linear(in_features=400, out_features=1, bias=True)
  (fc121): Linear(in_features=1, out_features=400, bias=True)
  (fe12): Linear(in_features=300, out_features=400, bias=True)
  (fc130): Linear(in_features=400, out_features=40, bias=True)
  (fc131): Linear(in_features=40, out_features=400, bias=True)
  (fe13): Linear(in_features=300, out_features=400, bias=True)
  (fc140): Linear(in_features=400, out_features=2, bias=True)
  (fc141): Linear(in_features=2, out_features=400, bias=True)
  (fe14): Linear(in_features=300, out_features=400, bias=True)
)
LGAN_discriminator(
  (Dropout): Dropout(p=0.5, inplace=False)
  (input): Linear(in_features=105, out_features=500, bias=True)
  (inputbn): BatchNorm1d(500, eps=1e-05, momentum=0.1, affine=True, track_running_stats=True)
  (fc0): Linear(in_features=500, out_features=500, bias=True)
  (bn0): BatchNorm1d(500, eps=1e-05, momentum=0.1, affine=True, track_running_stats=True)
  (output): Linear(in_features=500, out_features=1, bias=True)
)
(0, False, 105)
-----------Epoch 0-----------
iterator 100, D_Loss:1.1298596858978271, G_Loss:1.1317583322525024

iterator 200, D_Loss:1.125724196434021, G_Loss:1.3828871250152588

iterator 300, D_Loss:1.0929441452026367, G_Loss:1.609609842300415

iterator 400, D_Loss:1.0673043727874756, G_Loss:1.6114202737808228

iterator 500, D_Loss:1.1032315492630005, G_Loss:1.6099216938018799
…

iterator 4300, D_Loss:0.48851603269577026, G_Loss:7.658705234527588

iterator 4400, D_Loss:0.44434255361557007, G_Loss:7.7268829345703125

iterator 4500, D_Loss:0.4554126560688019, G_Loss:7.94460916519165

iterator 4600, D_Loss:0.4709208309650421, G_Loss:8.08993911743164

iterator 4700, D_Loss:0.4684109687805176, G_Loss:7.958527088165283

iterator 4800, D_Loss:0.4528629183769226, G_Loss:7.737123966217041

iterator 4900, D_Loss:0.48060888051986694, G_Loss:8.018529891967773

iterator 5000, D_Loss:0.47080835700035095, G_Loss:6.892743110656738

LGAN_generator(
  (LSTM): LSTMCell(300, 500)
  (fc00): Linear(in_features=200, out_features=1, bias=True)
  (fc01): Linear(in_features=1, out_features=200, bias=True)
  (fe0): Linear(in_features=500, out_features=200, bias=True)
  (fc10): Linear(in_features=200, out_features=7, bias=True)
  (fc11): Linear(in_features=7, out_features=200, bias=True)
  (fe1): Linear(in_features=500, out_features=200, bias=True)
  (fc20): Linear(in_features=200, out_features=1, bias=True)
  (fc21): Linear(in_features=1, out_features=200, bias=True)
  (fe2): Linear(in_features=500, out_features=200, bias=True)
  (fc30): Linear(in_features=200, out_features=16, bias=True)
  (fc31): Linear(in_features=16, out_features=200, bias=True)
  (fe3): Linear(in_features=500, out_features=200, bias=True)
  (fc40): Linear(in_features=200, out_features=1, bias=True)
  (fc41): Linear(in_features=1, out_features=200, bias=True)
  (fe4): Linear(in_features=500, out_features=200, bias=True)
  (fc50): Linear(in_features=200, out_features=7, bias=True)
  (fc51): Linear(in_features=7, out_features=200, bias=True)
  (fe5): Linear(in_features=500, out_features=200, bias=True)
  (fc60): Linear(in_features=200, out_features=14, bias=True)
  (fc61): Linear(in_features=14, out_features=200, bias=True)
  (fe6): Linear(in_features=500, out_features=200, bias=True)
  (fc70): Linear(in_features=200, out_features=6, bias=True)
  (fc71): Linear(in_features=6, out_features=200, bias=True)
  (fe7): Linear(in_features=500, out_features=200, bias=True)
  (fc80): Linear(in_features=200, out_features=5, bias=True)
  (fc81): Linear(in_features=5, out_features=200, bias=True)
  (fe8): Linear(in_features=500, out_features=200, bias=True)
  (fc90): Linear(in_features=200, out_features=2, bias=True)
  (fc91): Linear(in_features=2, out_features=200, bias=True)
  (fe9): Linear(in_features=500, out_features=200, bias=True)
  (fc100): Linear(in_features=200, out_features=1, bias=True)
  (fc101): Linear(in_features=1, out_features=200, bias=True)
  (fe10): Linear(in_features=500, out_features=200, bias=True)
  (fc110): Linear(in_features=200, out_features=1, bias=True)
  (fc111): Linear(in_features=1, out_features=200, bias=True)
  (fe11): Linear(in_features=500, out_features=200, bias=True)
  (fc120): Linear(in_features=200, out_features=1, bias=True)
  (fc121): Linear(in_features=1, out_features=200, bias=True)
  (fe12): Linear(in_features=500, out_features=200, bias=True)
  (fc130): Linear(in_features=200, out_features=40, bias=True)
  (fc131): Linear(in_features=40, out_features=200, bias=True)
  (fe13): Linear(in_features=500, out_features=200, bias=True)
  (fc140): Linear(in_features=200, out_features=2, bias=True)
  (fc141): Linear(in_features=2, out_features=200, bias=True)
  (fe14): Linear(in_features=500, out_features=200, bias=True)
)
LGAN_discriminator(
  (Dropout): Dropout(p=0.5, inplace=False)
  (input): Linear(in_features=105, out_features=400, bias=True)
  (inputbn): BatchNorm1d(400, eps=1e-05, momentum=0.1, affine=True, track_running_stats=True)
  (fc0): Linear(in_features=400, out_features=400, bias=True)
  (bn0): BatchNorm1d(400, eps=1e-05, momentum=0.1, affine=True, track_running_stats=True)
  (output): Linear(in_features=400, out_features=1, bias=True)
)
(0, False, 105)
-----------Epoch 0-----------
iterator 100, D_Loss:1.1696010828018188, G_Loss:1.1108039617538452

iterator 200, D_Loss:1.0814521312713623, G_Loss:1.3593579530715942

iterator 300, D_Loss:0.9893138408660889, G_Loss:1.6323835849761963

iterator 400, D_Loss:1.164695143699646, G_Loss:1.3091609477996826

iterator 500, D_Loss:0.9948514103889465, G_Loss:1.7086907625198364
…
/usr/local/easybuild-2019/easybuild/build/PyTorch/1.4.0/fosscuda-2019b-Python-3.7.4/pytorch-1.4.0/aten/src/THCUNN/BCECriterion.cu:42: Acctype bce_functor<Dtype, Acctype>::operator()(Tuple) [with Tuple = thrust::detail::tuple_of_iterator_references<thrust::device_reference<float>, thrust::device_reference<float>, thrust::null_type, thrust::null_type, thrust::null_type, thrust::null_type, thrust::null_type, thrust::null_type, thrust::null_type, thrust::null_type>, Dtype = float, Acctype = float]: block: [0,0,0], thread: [63,0,0] Assertion `input >= 0. && input <= 1.` failed.
LGAN_generator(
  (LSTM): LSTMCell(150, 300)
  (fc00): Linear(in_features=100, out_features=1, bias=True)
  (fc01): Linear(in_features=1, out_features=100, bias=True)
  (fe0): Linear(in_features=300, out_features=100, bias=True)
  (fc10): Linear(in_features=100, out_features=1, bias=True)
  (fc11): Linear(in_features=1, out_features=100, bias=True)
  (fe1): Linear(in_features=300, out_features=100, bias=True)
  (fc20): Linear(in_features=100, out_features=1, bias=True)
  (fc21): Linear(in_features=1, out_features=100, bias=True)
  (fe2): Linear(in_features=300, out_features=100, bias=True)
  (fc30): Linear(in_features=100, out_features=1, bias=True)
  (fc31): Linear(in_features=1, out_features=100, bias=True)
  (fe3): Linear(in_features=300, out_features=100, bias=True)
  (fc40): Linear(in_features=100, out_features=1, bias=True)
  (fc41): Linear(in_features=1, out_features=100, bias=True)
  (fe4): Linear(in_features=300, out_features=100, bias=True)
  (fc50): Linear(in_features=100, out_features=1, bias=True)
  (fc51): Linear(in_features=1, out_features=100, bias=True)
  (fe5): Linear(in_features=300, out_features=100, bias=True)
  (fc60): Linear(in_features=100, out_features=1, bias=True)
  (fc61): Linear(in_features=1, out_features=100, bias=True)
  (fe6): Linear(in_features=300, out_features=100, bias=True)
  (fc70): Linear(in_features=100, out_features=1, bias=True)
  (fc71): Linear(in_features=1, out_features=100, bias=True)
  (fe7): Linear(in_features=300, out_features=100, bias=True)
  (fc80): Linear(in_features=100, out_features=1, bias=True)
  (fc81): Linear(in_features=1, out_features=100, bias=True)
  (fe8): Linear(in_features=300, out_features=100, bias=True)
  (fc90): Linear(in_features=100, out_features=1, bias=True)
  (fc91): Linear(in_features=1, out_features=100, bias=True)
  (fe9): Linear(in_features=300, out_features=100, bias=True)
  (fc100): Linear(in_features=100, out_features=1, bias=True)
  (fc101): Linear(in_features=1, out_features=100, bias=True)
  (fe10): Linear(in_features=300, out_features=100, bias=True)
  (fc110): Linear(in_features=100, out_features=1, bias=True)
  (fc111): Linear(in_features=1, out_features=100, bias=True)
  (fe11): Linear(in_features=300, out_features=100, bias=True)
  (fc120): Linear(in_features=100, out_features=1, bias=True)
  (fc121): Linear(in_features=1, out_features=100, bias=True)
  (fe12): Linear(in_features=300, out_features=100, bias=True)
  (fc130): Linear(in_features=100, out_features=1, bias=True)
  (fc131): Linear(in_features=1, out_features=100, bias=True)
  (fe13): Linear(in_features=300, out_features=100, bias=True)
  (fc140): Linear(in_features=100, out_features=1, bias=True)
  (fc141): Linear(in_features=1, out_features=100, bias=True)
  (fe14): Linear(in_features=300, out_features=100, bias=True)
)
LGAN_discriminator(
  (Dropout): Dropout(p=0.5, inplace=False)
  (input): Linear(in_features=15, out_features=400, bias=True)
  (inputbn): BatchNorm1d(400, eps=1e-05, momentum=0.1, affine=True, track_running_stats=True)
  (fc0): Linear(in_features=400, out_features=400, bias=True)
  (bn0): BatchNorm1d(400, eps=1e-05, momentum=0.1, affine=True, track_running_stats=True)
  (fc1): Linear(in_features=400, out_features=400, bias=True)
  (bn1): BatchNorm1d(400, eps=1e-05, momentum=0.1, affine=True, track_running_stats=True)
  (fc2): Linear(in_features=400, out_features=400, bias=True)
  (bn2): BatchNorm1d(400, eps=1e-05, momentum=0.1, affine=True, track_running_stats=True)
  (fc3): Linear(in_features=400, out_features=400, bias=True)
  (bn3): BatchNorm1d(400, eps=1e-05, momentum=0.1, affine=True, track_running_stats=True)
  (fc4): Linear(in_features=400, out_features=400, bias=True)
  (bn4): BatchNorm1d(400, eps=1e-05, momentum=0.1, affine=True, track_running_stats=True)
  (output): Linear(in_features=400, out_features=1, bias=True)
)
(0, False, 15)
-----------Epoch 0-----------
iterator 100, D_Loss:1.407658338546753, G_Loss:0.9061575531959534

iterator 200, D_Loss:1.3925923109054565, G_Loss:0.8556593060493469

iterator 300, D_Loss:1.3674614429473877, G_Loss:0.8824944496154785

iterator 400, D_Loss:1.209012746810913, G_Loss:1.1137590408325195

iterator 500, D_Loss:0.809677243232727, G_Loss:2.1812212467193604
…
    V_Train(search, path, sample_it, gen, dis, config["n_epochs"], param["lr"], train_it, param["z_dim"], dataset, col_type, sample_times,itertimes = 100, steps_per_epoch = config["steps_per_epoch"],GPU=GPU,KL=KL)
  File "/home/youran/Daisy/Daisy/synthesizer/train.py", line 113, in V_Train
    D_Loss2 = F.binary_cross_entropy(y_fake, fake_label)
  File "/usr/local/easybuild-2019/easybuild/software/mpi/gcc-cuda/8.3.0-10.1.243/openmpi/3.1.4/pytorch/1.4.0-python-3.7.4/lib/python3.7/site-packages/torch/nn/functional.py", line 2077, in binary_cross_entropy
    input, target, weight, reduction_enum)
RuntimeError: reduce failed to synchronize: cudaErrorAssert: device-side assert triggered
LGAN_generator(
  (LSTM): LSTMCell(1000, 100)
  (fc00): Linear(in_features=600, out_features=1, bias=True)
  (fc01): Linear(in_features=1, out_features=600, bias=True)
  (fe0): Linear(in_features=100, out_features=600, bias=True)
  (fc10): Linear(in_features=600, out_features=1, bias=True)
  (fc11): Linear(in_features=1, out_features=600, bias=True)
  (fe1): Linear(in_features=100, out_features=600, bias=True)
  (fc20): Linear(in_features=600, out_features=1, bias=True)
  (fc21): Linear(in_features=1, out_features=600, bias=True)
  (fe2): Linear(in_features=100, out_features=600, bias=True)
  (fc30): Linear(in_features=600, out_features=1, bias=True)
  (fc31): Linear(in_features=1, out_features=600, bias=True)
  (fe3): Linear(in_features=100, out_features=600, bias=True)
  (fc40): Linear(in_features=600, out_features=1, bias=True)
  (fc41): Linear(in_features=1, out_features=600, bias=True)
  (fe4): Linear(in_features=100, out_features=600, bias=True)
  (fc50): Linear(in_features=600, out_features=1, bias=True)
  (fc51): Linear(in_features=1, out_features=600, bias=True)
  (fe5): Linear(in_features=100, out_features=600, bias=True)
  (fc60): Linear(in_features=600, out_features=1, bias=True)
  (fc61): Linear(in_features=1, out_features=600, bias=True)
  (fe6): Linear(in_features=100, out_features=600, bias=True)
  (fc70): Linear(in_features=600, out_features=1, bias=True)
  (fc71): Linear(in_features=1, out_features=600, bias=True)
  (fe7): Linear(in_features=100, out_features=600, bias=True)
  (fc80): Linear(in_features=600, out_features=1, bias=True)
  (fc81): Linear(in_features=1, out_features=600, bias=True)
  (fe8): Linear(in_features=100, out_features=600, bias=True)
  (fc90): Linear(in_features=600, out_features=1, bias=True)
  (fc91): Linear(in_features=1, out_features=600, bias=True)
  (fe9): Linear(in_features=100, out_features=600, bias=True)
  (fc100): Linear(in_features=600, out_features=1, bias=True)
  (fc101): Linear(in_features=1, out_features=600, bias=True)
  (fe10): Linear(in_features=100, out_features=600, bias=True)
  (fc110): Linear(in_features=600, out_features=1, bias=True)
  (fc111): Linear(in_features=1, out_features=600, bias=True)
  (fe11): Linear(in_features=100, out_features=600, bias=True)
  (fc120): Linear(in_features=600, out_features=1, bias=True)
  (fc121): Linear(in_features=1, out_features=600, bias=True)
  (fe12): Linear(in_features=100, out_features=600, bias=True)
  (fc130): Linear(in_features=600, out_features=1, bias=True)
  (fc131): Linear(in_features=1, out_features=600, bias=True)
  (fe13): Linear(in_features=100, out_features=600, bias=True)
  (fc140): Linear(in_features=600, out_features=1, bias=True)
  (fc141): Linear(in_features=1, out_features=600, bias=True)
  (fe14): Linear(in_features=100, out_features=600, bias=True)
)
LGAN_discriminator(
  (Dropout): Dropout(p=0.5, inplace=False)
  (input): Linear(in_features=15, out_features=200, bias=True)
  (inputbn): BatchNorm1d(200, eps=1e-05, momentum=0.1, affine=True, track_running_stats=True)
  (fc0): Linear(in_features=200, out_features=200, bias=True)
  (bn0): BatchNorm1d(200, eps=1e-05, momentum=0.1, affine=True, track_running_stats=True)
  (fc1): Linear(in_features=200, out_features=200, bias=True)
  (bn1): BatchNorm1d(200, eps=1e-05, momentum=0.1, affine=True, track_running_stats=True)
  (fc2): Linear(in_features=200, out_features=200, bias=True)
  (bn2): BatchNorm1d(200, eps=1e-05, momentum=0.1, affine=True, track_running_stats=True)
  (fc3): Linear(in_features=200, out_features=200, bias=True)
  (bn3): BatchNorm1d(200, eps=1e-05, momentum=0.1, affine=True, track_running_stats=True)
  (output): Linear(in_features=200, out_features=1, bias=True)
)
(0, False, 15)
-----------Epoch 0-----------
iterator 100, D_Loss:1.368037223815918, G_Loss:0.8585326671600342

iterator 200, D_Loss:1.3884608745574951, G_Loss:0.8830236196517944

iterator 300, D_Loss:1.3747339248657227, G_Loss:0.8485937714576721

iterator 400, D_Loss:1.3689887523651123, G_Loss:0.8400560617446899

iterator 500, D_Loss:1.3135483264923096, G_Loss:1.0186848640441895
…
iterator 4300, D_Loss:0.4339941143989563, G_Loss:12.590997695922852

iterator 4400, D_Loss:0.4547383189201355, G_Loss:11.302238464355469

iterator 4500, D_Loss:0.43286222219467163, G_Loss:11.936559677124023

iterator 4600, D_Loss:0.40468829870224, G_Loss:12.70467758178711

iterator 4700, D_Loss:0.4124066233634949, G_Loss:11.841314315795898

iterator 4800, D_Loss:0.4222384989261627, G_Loss:12.380809783935547

iterator 4900, D_Loss:0.41390541195869446, G_Loss:12.99641227722168

iterator 5000, D_Loss:0.44967958331108093, G_Loss:13.137469291687012

train row : 30148
sample row: 30148
LGAN_generator(
  (LSTM): LSTMCell(202, 100)
  (gmfc00): Linear(in_features=100, out_features=1, bias=True)
  (gmfc01): Linear(in_features=100, out_features=5, bias=True)
  (gmfc02): Linear(in_features=5, out_features=100, bias=True)
  (gmfe00): Linear(in_features=100, out_features=100, bias=True)
  (gmfe01): Linear(in_features=100, out_features=100, bias=True)
  (fc10): Linear(in_features=100, out_features=7, bias=True)
  (fc11): Linear(in_features=7, out_features=100, bias=True)
  (fe1): Linear(in_features=100, out_features=100, bias=True)
  (gmfc20): Linear(in_features=100, out_features=1, bias=True)
  (gmfc21): Linear(in_features=100, out_features=5, bias=True)
  (gmfc22): Linear(in_features=5, out_features=100, bias=True)
  (gmfe20): Linear(in_features=100, out_features=100, bias=True)
  (gmfe21): Linear(in_features=100, out_features=100, bias=True)
  (fc30): Linear(in_features=100, out_features=16, bias=True)
  (fc31): Linear(in_features=16, out_features=100, bias=True)
  (fe3): Linear(in_features=100, out_features=100, bias=True)
  (gmfc40): Linear(in_features=100, out_features=1, bias=True)
  (gmfc41): Linear(in_features=100, out_features=5, bias=True)
  (gmfc42): Linear(in_features=5, out_features=100, bias=True)
  (gmfe40): Linear(in_features=100, out_features=100, bias=True)
  (gmfe41): Linear(in_features=100, out_features=100, bias=True)
  (fc50): Linear(in_features=100, out_features=7, bias=True)
  (fc51): Linear(in_features=7, out_features=100, bias=True)
  (fe5): Linear(in_features=100, out_features=100, bias=True)
  (fc60): Linear(in_features=100, out_features=14, bias=True)
  (fc61): Linear(in_features=14, out_features=100, bias=True)
  (fe6): Linear(in_features=100, out_features=100, bias=True)
  (fc70): Linear(in_features=100, out_features=6, bias=True)
  (fc71): Linear(in_features=6, out_features=100, bias=True)
  (fe7): Linear(in_features=100, out_features=100, bias=True)
  (fc80): Linear(in_features=100, out_features=5, bias=True)
  (fc81): Linear(in_features=5, out_features=100, bias=True)
  (fe8): Linear(in_features=100, out_features=100, bias=True)
  (fc90): Linear(in_features=100, out_features=2, bias=True)
  (fc91): Linear(in_features=2, out_features=100, bias=True)
  (fe9): Linear(in_features=100, out_features=100, bias=True)
  (gmfc100): Linear(in_features=100, out_features=1, bias=True)
  (gmfc101): Linear(in_features=100, out_features=5, bias=True)
  (gmfc102): Linear(in_features=5, out_features=100, bias=True)
  (gmfe100): Linear(in_features=100, out_features=100, bias=True)
  (gmfe101): Linear(in_features=100, out_features=100, bias=True)
  (gmfc110): Linear(in_features=100, out_features=1, bias=True)
  (gmfc111): Linear(in_features=100, out_features=5, bias=True)
  (gmfc112): Linear(in_features=5, out_features=100, bias=True)
  (gmfe110): Linear(in_features=100, out_features=100, bias=True)
  (gmfe111): Linear(in_features=100, out_features=100, bias=True)
  (gmfc120): Linear(in_features=100, out_features=1, bias=True)
  (gmfc121): Linear(in_features=100, out_features=5, bias=True)
  (gmfc122): Linear(in_features=5, out_features=100, bias=True)
  (gmfe120): Linear(in_features=100, out_features=100, bias=True)
  (gmfe121): Linear(in_features=100, out_features=100, bias=True)
  (fc130): Linear(in_features=100, out_features=40, bias=True)
  (fc131): Linear(in_features=40, out_features=100, bias=True)
  (fe13): Linear(in_features=100, out_features=100, bias=True)
)
LGAN_discriminator(
  (Dropout): Dropout(p=0.5, inplace=False)
  (input): Linear(in_features=135, out_features=400, bias=True)
  (inputbn): BatchNorm1d(400, eps=1e-05, momentum=0.1, affine=True, track_running_stats=True)
  (fc0): Linear(in_features=400, out_features=400, bias=True)
  (bn0): BatchNorm1d(400, eps=1e-05, momentum=0.1, affine=True, track_running_stats=True)
  (fc1): Linear(in_features=400, out_features=400, bias=True)
  (bn1): BatchNorm1d(400, eps=1e-05, momentum=0.1, affine=True, track_running_stats=True)
  (output): Linear(in_features=400, out_features=1, bias=True)
)
(2, True, 133)
(30148, 2)
-----------Epoch 0-----------
iterator 0, D_Loss:1.4998921155929565, G_Loss:9.134544372558594

iterator 100, D_Loss:1.409359335899353, G_Loss:1.485408067703247

iterator 200, D_Loss:1.3903086185455322, G_Loss:1.2419464588165283

iterator 300, D_Loss:1.3953330516815186, G_Loss:1.2791506052017212

iterator 400, D_Loss:1.2894377708435059, G_Loss:1.1701233386993408
…

iterator 4200, D_Loss:0.6444938778877258, G_Loss:5.293597221374512

iterator 4300, D_Loss:0.6432054042816162, G_Loss:4.512269973754883

iterator 4400, D_Loss:0.6892613768577576, G_Loss:5.598484039306641

iterator 4500, D_Loss:0.6714773178100586, G_Loss:6.1570539474487305

iterator 4600, D_Loss:0.7423223257064819, G_Loss:3.7973480224609375

iterator 4700, D_Loss:0.588128387928009, G_Loss:4.983647346496582

iterator 4800, D_Loss:0.581452488899231, G_Loss:4.051970958709717

iterator 4900, D_Loss:0.6082417368888855, G_Loss:3.6977415084838867

LGAN_generator(
  (LSTM): LSTMCell(802, 100)
  (gmfc00): Linear(in_features=600, out_features=1, bias=True)
  (gmfc01): Linear(in_features=600, out_features=5, bias=True)
  (gmfc02): Linear(in_features=5, out_features=600, bias=True)
  (gmfe00): Linear(in_features=100, out_features=600, bias=True)
  (gmfe01): Linear(in_features=100, out_features=600, bias=True)
  (fc10): Linear(in_features=600, out_features=7, bias=True)
  (fc11): Linear(in_features=7, out_features=600, bias=True)
  (fe1): Linear(in_features=100, out_features=600, bias=True)
  (gmfc20): Linear(in_features=600, out_features=1, bias=True)
  (gmfc21): Linear(in_features=600, out_features=5, bias=True)
  (gmfc22): Linear(in_features=5, out_features=600, bias=True)
  (gmfe20): Linear(in_features=100, out_features=600, bias=True)
  (gmfe21): Linear(in_features=100, out_features=600, bias=True)
  (fc30): Linear(in_features=600, out_features=16, bias=True)
  (fc31): Linear(in_features=16, out_features=600, bias=True)
  (fe3): Linear(in_features=100, out_features=600, bias=True)
  (gmfc40): Linear(in_features=600, out_features=1, bias=True)
  (gmfc41): Linear(in_features=600, out_features=5, bias=True)
  (gmfc42): Linear(in_features=5, out_features=600, bias=True)
  (gmfe40): Linear(in_features=100, out_features=600, bias=True)
  (gmfe41): Linear(in_features=100, out_features=600, bias=True)
  (fc50): Linear(in_features=600, out_features=7, bias=True)
  (fc51): Linear(in_features=7, out_features=600, bias=True)
  (fe5): Linear(in_features=100, out_features=600, bias=True)
  (fc60): Linear(in_features=600, out_features=14, bias=True)
  (fc61): Linear(in_features=14, out_features=600, bias=True)
  (fe6): Linear(in_features=100, out_features=600, bias=True)
  (fc70): Linear(in_features=600, out_features=6, bias=True)
  (fc71): Linear(in_features=6, out_features=600, bias=True)
  (fe7): Linear(in_features=100, out_features=600, bias=True)
  (fc80): Linear(in_features=600, out_features=5, bias=True)
  (fc81): Linear(in_features=5, out_features=600, bias=True)
  (fe8): Linear(in_features=100, out_features=600, bias=True)
  (fc90): Linear(in_features=600, out_features=2, bias=True)
  (fc91): Linear(in_features=2, out_features=600, bias=True)
  (fe9): Linear(in_features=100, out_features=600, bias=True)
  (gmfc100): Linear(in_features=600, out_features=1, bias=True)
  (gmfc101): Linear(in_features=600, out_features=5, bias=True)
  (gmfc102): Linear(in_features=5, out_features=600, bias=True)
  (gmfe100): Linear(in_features=100, out_features=600, bias=True)
  (gmfe101): Linear(in_features=100, out_features=600, bias=True)
  (gmfc110): Linear(in_features=600, out_features=1, bias=True)
  (gmfc111): Linear(in_features=600, out_features=5, bias=True)
  (gmfc112): Linear(in_features=5, out_features=600, bias=True)
  (gmfe110): Linear(in_features=100, out_features=600, bias=True)
  (gmfe111): Linear(in_features=100, out_features=600, bias=True)
  (gmfc120): Linear(in_features=600, out_features=1, bias=True)
  (gmfc121): Linear(in_features=600, out_features=5, bias=True)
  (gmfc122): Linear(in_features=5, out_features=600, bias=True)
  (gmfe120): Linear(in_features=100, out_features=600, bias=True)
  (gmfe121): Linear(in_features=100, out_features=600, bias=True)
  (fc130): Linear(in_features=600, out_features=40, bias=True)
  (fc131): Linear(in_features=40, out_features=600, bias=True)
  (fe13): Linear(in_features=100, out_features=600, bias=True)
)
LGAN_discriminator(
  (Dropout): Dropout(p=0.5, inplace=False)
  (input): Linear(in_features=135, out_features=300, bias=True)
  (inputbn): BatchNorm1d(300, eps=1e-05, momentum=0.1, affine=True, track_running_stats=True)
  (fc0): Linear(in_features=300, out_features=300, bias=True)
  (bn0): BatchNorm1d(300, eps=1e-05, momentum=0.1, affine=True, track_running_stats=True)
  (fc1): Linear(in_features=300, out_features=300, bias=True)
  (bn1): BatchNorm1d(300, eps=1e-05, momentum=0.1, affine=True, track_running_stats=True)
  (fc2): Linear(in_features=300, out_features=300, bias=True)
  (bn2): BatchNorm1d(300, eps=1e-05, momentum=0.1, affine=True, track_running_stats=True)
  (fc3): Linear(in_features=300, out_features=300, bias=True)
  (bn3): BatchNorm1d(300, eps=1e-05, momentum=0.1, affine=True, track_running_stats=True)
  (output): Linear(in_features=300, out_features=1, bias=True)
)
(2, True, 133)
(30148, 2)
-----------Epoch 0-----------
iterator 0, D_Loss:1.4657888412475586, G_Loss:7.12030029296875

iterator 100, D_Loss:1.392624855041504, G_Loss:1.951562762260437

iterator 200, D_Loss:1.3843724727630615, G_Loss:1.277904987335205

iterator 300, D_Loss:1.3578293323516846, G_Loss:1.417487621307373

iterator 400, D_Loss:1.3769490718841553, G_Loss:1.2176544666290283
…
iterator 4200, D_Loss:0.4195150136947632, G_Loss:13.441269874572754

iterator 4300, D_Loss:0.4237767457962036, G_Loss:10.564905166625977

iterator 4400, D_Loss:0.4369838833808899, G_Loss:9.413338661193848

iterator 4500, D_Loss:0.4362218976020813, G_Loss:9.843819618225098

iterator 4600, D_Loss:0.42485296726226807, G_Loss:8.33187198638916

iterator 4700, D_Loss:0.417384535074234, G_Loss:11.703882217407227

iterator 4800, D_Loss:0.43102720379829407, G_Loss:10.739595413208008

iterator 4900, D_Loss:0.45123663544654846, G_Loss:11.569450378417969

train row : 30148
sample row: 30148
LGAN_generator(
  (LSTM): LSTMCell(652, 200)
  (gmfc00): Linear(in_features=600, out_features=1, bias=True)
  (gmfc01): Linear(in_features=600, out_features=5, bias=True)
  (gmfc02): Linear(in_features=5, out_features=600, bias=True)
  (gmfe00): Linear(in_features=200, out_features=600, bias=True)
  (gmfe01): Linear(in_features=200, out_features=600, bias=True)
  (fc10): Linear(in_features=600, out_features=7, bias=True)
  (fc11): Linear(in_features=7, out_features=600, bias=True)
  (fe1): Linear(in_features=200, out_features=600, bias=True)
  (gmfc20): Linear(in_features=600, out_features=1, bias=True)
  (gmfc21): Linear(in_features=600, out_features=5, bias=True)
  (gmfc22): Linear(in_features=5, out_features=600, bias=True)
  (gmfe20): Linear(in_features=200, out_features=600, bias=True)
  (gmfe21): Linear(in_features=200, out_features=600, bias=True)
  (fc30): Linear(in_features=600, out_features=16, bias=True)
  (fc31): Linear(in_features=16, out_features=600, bias=True)
  (fe3): Linear(in_features=200, out_features=600, bias=True)
  (gmfc40): Linear(in_features=600, out_features=1, bias=True)
  (gmfc41): Linear(in_features=600, out_features=5, bias=True)
  (gmfc42): Linear(in_features=5, out_features=600, bias=True)
  (gmfe40): Linear(in_features=200, out_features=600, bias=True)
  (gmfe41): Linear(in_features=200, out_features=600, bias=True)
  (fc50): Linear(in_features=600, out_features=7, bias=True)
  (fc51): Linear(in_features=7, out_features=600, bias=True)
  (fe5): Linear(in_features=200, out_features=600, bias=True)
  (fc60): Linear(in_features=600, out_features=14, bias=True)
  (fc61): Linear(in_features=14, out_features=600, bias=True)
  (fe6): Linear(in_features=200, out_features=600, bias=True)
  (fc70): Linear(in_features=600, out_features=6, bias=True)
  (fc71): Linear(in_features=6, out_features=600, bias=True)
  (fe7): Linear(in_features=200, out_features=600, bias=True)
  (fc80): Linear(in_features=600, out_features=5, bias=True)
  (fc81): Linear(in_features=5, out_features=600, bias=True)
  (fe8): Linear(in_features=200, out_features=600, bias=True)
  (fc90): Linear(in_features=600, out_features=2, bias=True)
  (fc91): Linear(in_features=2, out_features=600, bias=True)
  (fe9): Linear(in_features=200, out_features=600, bias=True)
  (gmfc100): Linear(in_features=600, out_features=1, bias=True)
  (gmfc101): Linear(in_features=600, out_features=5, bias=True)
  (gmfc102): Linear(in_features=5, out_features=600, bias=True)
  (gmfe100): Linear(in_features=200, out_features=600, bias=True)
  (gmfe101): Linear(in_features=200, out_features=600, bias=True)
  (gmfc110): Linear(in_features=600, out_features=1, bias=True)
  (gmfc111): Linear(in_features=600, out_features=5, bias=True)
  (gmfc112): Linear(in_features=5, out_features=600, bias=True)
  (gmfe110): Linear(in_features=200, out_features=600, bias=True)
  (gmfe111): Linear(in_features=200, out_features=600, bias=True)
  (gmfc120): Linear(in_features=600, out_features=1, bias=True)
  (gmfc121): Linear(in_features=600, out_features=5, bias=True)
  (gmfc122): Linear(in_features=5, out_features=600, bias=True)
  (gmfe120): Linear(in_features=200, out_features=600, bias=True)
  (gmfe121): Linear(in_features=200, out_features=600, bias=True)
  (fc130): Linear(in_features=600, out_features=40, bias=True)
  (fc131): Linear(in_features=40, out_features=600, bias=True)
  (fe13): Linear(in_features=200, out_features=600, bias=True)
)
LGAN_discriminator(
  (Dropout): Dropout(p=0.5, inplace=False)
  (input): Linear(in_features=135, out_features=500, bias=True)
  (inputbn): BatchNorm1d(500, eps=1e-05, momentum=0.1, affine=True, track_running_stats=True)
  (fc0): Linear(in_features=500, out_features=500, bias=True)
  (bn0): BatchNorm1d(500, eps=1e-05, momentum=0.1, affine=True, track_running_stats=True)
  (fc1): Linear(in_features=500, out_features=500, bias=True)
  (bn1): BatchNorm1d(500, eps=1e-05, momentum=0.1, affine=True, track_running_stats=True)
  (output): Linear(in_features=500, out_features=1, bias=True)
)
-----------Epoch 0-----------
iterator 100, D_Loss:1.356835126876831, G_Loss:0.9878485798835754

iterator 200, D_Loss:1.2660452127456665, G_Loss:1.0866265296936035

iterator 300, D_Loss:1.2167447805404663, G_Loss:1.0826715230941772

iterator 400, D_Loss:1.132596731185913, G_Loss:1.303850769996643

iterator 500, D_Loss:1.0957056283950806, G_Loss:1.3631545305252075
…
iterator 4300, D_Loss:0.4414522051811218, G_Loss:17.322851181030273

iterator 4400, D_Loss:0.4127890467643738, G_Loss:16.531131744384766

iterator 4500, D_Loss:0.4176519215106964, G_Loss:16.686561584472656

iterator 4600, D_Loss:0.4339023232460022, G_Loss:15.367532730102539

iterator 4700, D_Loss:0.43714776635169983, G_Loss:14.51159381866455

iterator 4800, D_Loss:0.4177221655845642, G_Loss:16.384984970092773

iterator 4900, D_Loss:0.4321354925632477, G_Loss:14.492478370666504

iterator 5000, D_Loss:0.4311208128929138, G_Loss:17.302989959716797

LGAN_generator(
  (LSTM): LSTMCell(702, 400)
  (gmfc00): Linear(in_features=300, out_features=1, bias=True)
  (gmfc01): Linear(in_features=300, out_features=5, bias=True)
  (gmfc02): Linear(in_features=5, out_features=300, bias=True)
  (gmfe00): Linear(in_features=400, out_features=300, bias=True)
  (gmfe01): Linear(in_features=400, out_features=300, bias=True)
  (fc10): Linear(in_features=300, out_features=7, bias=True)
  (fc11): Linear(in_features=7, out_features=300, bias=True)
  (fe1): Linear(in_features=400, out_features=300, bias=True)
  (gmfc20): Linear(in_features=300, out_features=1, bias=True)
  (gmfc21): Linear(in_features=300, out_features=5, bias=True)
  (gmfc22): Linear(in_features=5, out_features=300, bias=True)
  (gmfe20): Linear(in_features=400, out_features=300, bias=True)
  (gmfe21): Linear(in_features=400, out_features=300, bias=True)
  (fc30): Linear(in_features=300, out_features=16, bias=True)
  (fc31): Linear(in_features=16, out_features=300, bias=True)
  (fe3): Linear(in_features=400, out_features=300, bias=True)
  (gmfc40): Linear(in_features=300, out_features=1, bias=True)
  (gmfc41): Linear(in_features=300, out_features=5, bias=True)
  (gmfc42): Linear(in_features=5, out_features=300, bias=True)
  (gmfe40): Linear(in_features=400, out_features=300, bias=True)
  (gmfe41): Linear(in_features=400, out_features=300, bias=True)
  (fc50): Linear(in_features=300, out_features=7, bias=True)
  (fc51): Linear(in_features=7, out_features=300, bias=True)
  (fe5): Linear(in_features=400, out_features=300, bias=True)
  (fc60): Linear(in_features=300, out_features=14, bias=True)
  (fc61): Linear(in_features=14, out_features=300, bias=True)
  (fe6): Linear(in_features=400, out_features=300, bias=True)
  (fc70): Linear(in_features=300, out_features=6, bias=True)
  (fc71): Linear(in_features=6, out_features=300, bias=True)
  (fe7): Linear(in_features=400, out_features=300, bias=True)
  (fc80): Linear(in_features=300, out_features=5, bias=True)
  (fc81): Linear(in_features=5, out_features=300, bias=True)
  (fe8): Linear(in_features=400, out_features=300, bias=True)
  (fc90): Linear(in_features=300, out_features=2, bias=True)
  (fc91): Linear(in_features=2, out_features=300, bias=True)
  (fe9): Linear(in_features=400, out_features=300, bias=True)
  (gmfc100): Linear(in_features=300, out_features=1, bias=True)
  (gmfc101): Linear(in_features=300, out_features=5, bias=True)
  (gmfc102): Linear(in_features=5, out_features=300, bias=True)
  (gmfe100): Linear(in_features=400, out_features=300, bias=True)
  (gmfe101): Linear(in_features=400, out_features=300, bias=True)
  (gmfc110): Linear(in_features=300, out_features=1, bias=True)
  (gmfc111): Linear(in_features=300, out_features=5, bias=True)
  (gmfc112): Linear(in_features=5, out_features=300, bias=True)
  (gmfe110): Linear(in_features=400, out_features=300, bias=True)
  (gmfe111): Linear(in_features=400, out_features=300, bias=True)
  (gmfc120): Linear(in_features=300, out_features=1, bias=True)
  (gmfc121): Linear(in_features=300, out_features=5, bias=True)
  (gmfc122): Linear(in_features=5, out_features=300, bias=True)
  (gmfe120): Linear(in_features=400, out_features=300, bias=True)
  (gmfe121): Linear(in_features=400, out_features=300, bias=True)
  (fc130): Linear(in_features=300, out_features=40, bias=True)
  (fc131): Linear(in_features=40, out_features=300, bias=True)
  (fe13): Linear(in_features=400, out_features=300, bias=True)
)
LGAN_discriminator(
  (Dropout): Dropout(p=0.5, inplace=False)
  (input): Linear(in_features=135, out_features=100, bias=True)
  (inputbn): BatchNorm1d(100, eps=1e-05, momentum=0.1, affine=True, track_running_stats=True)
  (fc0): Linear(in_features=100, out_features=100, bias=True)
  (bn0): BatchNorm1d(100, eps=1e-05, momentum=0.1, affine=True, track_running_stats=True)
  (fc1): Linear(in_features=100, out_features=100, bias=True)
  (bn1): BatchNorm1d(100, eps=1e-05, momentum=0.1, affine=True, track_running_stats=True)
  (output): Linear(in_features=100, out_features=1, bias=True)
)
-----------Epoch 0-----------
iterator 100, D_Loss:1.3872425556182861, G_Loss:1.1739200353622437

iterator 200, D_Loss:1.3666417598724365, G_Loss:1.0977286100387573

iterator 300, D_Loss:1.340977668762207, G_Loss:1.131043553352356

iterator 400, D_Loss:1.2556593418121338, G_Loss:1.3782347440719604

iterator 500, D_Loss:1.200455904006958, G_Loss:1.3636422157287598
…
Traceback (most recent call last):
  File "/usr/local/easybuild-2019/easybuild/software/compiler/gcccore/8.3.0/python/3.7.4/lib/python3.7/multiprocessing/process.py", line 297, in _bootstrap
    self.run()
  File "/usr/local/easybuild-2019/easybuild/software/compiler/gcccore/8.3.0/python/3.7.4/lib/python3.7/multiprocessing/process.py", line 99, in run
    self._target(*self._args, **self._kwargs)
  File "Daisy/run.py", line 69, in thread_run
    train_method = config["train_method"]
KeyError: 'train_method'
train row : 30148
sample row: 30148
LGAN_generator(
  (LSTM): LSTMCell(700, 400)
  (gmfc00): Linear(in_features=500, out_features=1, bias=True)
  (gmfc01): Linear(in_features=500, out_features=5, bias=True)
  (gmfc02): Linear(in_features=5, out_features=500, bias=True)
  (gmfe00): Linear(in_features=400, out_features=500, bias=True)
  (gmfe01): Linear(in_features=400, out_features=500, bias=True)
  (fc10): Linear(in_features=500, out_features=7, bias=True)
  (fc11): Linear(in_features=7, out_features=500, bias=True)
  (fe1): Linear(in_features=400, out_features=500, bias=True)
  (gmfc20): Linear(in_features=500, out_features=1, bias=True)
  (gmfc21): Linear(in_features=500, out_features=5, bias=True)
  (gmfc22): Linear(in_features=5, out_features=500, bias=True)
  (gmfe20): Linear(in_features=400, out_features=500, bias=True)
  (gmfe21): Linear(in_features=400, out_features=500, bias=True)
  (fc30): Linear(in_features=500, out_features=16, bias=True)
  (fc31): Linear(in_features=16, out_features=500, bias=True)
  (fe3): Linear(in_features=400, out_features=500, bias=True)
  (gmfc40): Linear(in_features=500, out_features=1, bias=True)
  (gmfc41): Linear(in_features=500, out_features=5, bias=True)
  (gmfc42): Linear(in_features=5, out_features=500, bias=True)
  (gmfe40): Linear(in_features=400, out_features=500, bias=True)
  (gmfe41): Linear(in_features=400, out_features=500, bias=True)
  (fc50): Linear(in_features=500, out_features=7, bias=True)
  (fc51): Linear(in_features=7, out_features=500, bias=True)
  (fe5): Linear(in_features=400, out_features=500, bias=True)
  (fc60): Linear(in_features=500, out_features=14, bias=True)
  (fc61): Linear(in_features=14, out_features=500, bias=True)
  (fe6): Linear(in_features=400, out_features=500, bias=True)
  (fc70): Linear(in_features=500, out_features=6, bias=True)
  (fc71): Linear(in_features=6, out_features=500, bias=True)
  (fe7): Linear(in_features=400, out_features=500, bias=True)
  (fc80): Linear(in_features=500, out_features=5, bias=True)
  (fc81): Linear(in_features=5, out_features=500, bias=True)
  (fe8): Linear(in_features=400, out_features=500, bias=True)
  (fc90): Linear(in_features=500, out_features=2, bias=True)
  (fc91): Linear(in_features=2, out_features=500, bias=True)
  (fe9): Linear(in_features=400, out_features=500, bias=True)
  (gmfc100): Linear(in_features=500, out_features=1, bias=True)
  (gmfc101): Linear(in_features=500, out_features=5, bias=True)
  (gmfc102): Linear(in_features=5, out_features=500, bias=True)
  (gmfe100): Linear(in_features=400, out_features=500, bias=True)
  (gmfe101): Linear(in_features=400, out_features=500, bias=True)
  (gmfc110): Linear(in_features=500, out_features=1, bias=True)
  (gmfc111): Linear(in_features=500, out_features=5, bias=True)
  (gmfc112): Linear(in_features=5, out_features=500, bias=True)
  (gmfe110): Linear(in_features=400, out_features=500, bias=True)
  (gmfe111): Linear(in_features=400, out_features=500, bias=True)
  (gmfc120): Linear(in_features=500, out_features=1, bias=True)
  (gmfc121): Linear(in_features=500, out_features=5, bias=True)
  (gmfc122): Linear(in_features=5, out_features=500, bias=True)
  (gmfe120): Linear(in_features=400, out_features=500, bias=True)
  (gmfe121): Linear(in_features=400, out_features=500, bias=True)
  (fc130): Linear(in_features=500, out_features=40, bias=True)
  (fc131): Linear(in_features=40, out_features=500, bias=True)
  (fe13): Linear(in_features=400, out_features=500, bias=True)
  (fc140): Linear(in_features=500, out_features=2, bias=True)
  (fc141): Linear(in_features=2, out_features=500, bias=True)
  (fe14): Linear(in_features=400, out_features=500, bias=True)
)
LGAN_discriminator(
  (Dropout): Dropout(p=0.5, inplace=False)
  (input): Linear(in_features=135, out_features=200, bias=True)
  (inputbn): BatchNorm1d(200, eps=1e-05, momentum=0.1, affine=True, track_running_stats=True)
  (fc0): Linear(in_features=200, out_features=200, bias=True)
  (bn0): BatchNorm1d(200, eps=1e-05, momentum=0.1, affine=True, track_running_stats=True)
  (fc1): Linear(in_features=200, out_features=200, bias=True)
  (bn1): BatchNorm1d(200, eps=1e-05, momentum=0.1, affine=True, track_running_stats=True)
  (output): Linear(in_features=200, out_features=1, bias=True)
)
------ng : 0-------
generator loss: 0.005535027477890253
discriminator loss: -5.3960829973220825e-05
------ng : 100-------
generator loss: 0.001303342403843999
discriminator loss: -0.004709497559815645
------ng : 200-------
generator loss: 0.0016229819739237428
discriminator loss: -0.0030237105675041676
------ng : 300-------
generator loss: 0.001712887198664248
…
discriminator loss: -0.0016349123325198889
------ng : 4500-------
generator loss: -0.000908432702999562
discriminator loss: -0.001907175057567656
------ng : 4600-------
generator loss: 0.001311382045969367
discriminator loss: -0.001274107489734888
------ng : 4700-------
generator loss: 0.0011124665616080165
discriminator loss: -0.0016000984469428658
------ng : 4800-------
generator loss: -0.0012752005131915212
discriminator loss: -0.0026671565137803555
------ng : 4900-------
generator loss: 0.0011233827099204063
discriminator loss: -0.0023376375902444124
LGAN_generator(
  (LSTM): LSTMCell(900, 300)
  (gmfc00): Linear(in_features=500, out_features=1, bias=True)
  (gmfc01): Linear(in_features=500, out_features=5, bias=True)
  (gmfc02): Linear(in_features=5, out_features=500, bias=True)
  (gmfe00): Linear(in_features=300, out_features=500, bias=True)
  (gmfe01): Linear(in_features=300, out_features=500, bias=True)
  (fc10): Linear(in_features=500, out_features=7, bias=True)
  (fc11): Linear(in_features=7, out_features=500, bias=True)
  (fe1): Linear(in_features=300, out_features=500, bias=True)
  (gmfc20): Linear(in_features=500, out_features=1, bias=True)
  (gmfc21): Linear(in_features=500, out_features=5, bias=True)
  (gmfc22): Linear(in_features=5, out_features=500, bias=True)
  (gmfe20): Linear(in_features=300, out_features=500, bias=True)
  (gmfe21): Linear(in_features=300, out_features=500, bias=True)
  (fc30): Linear(in_features=500, out_features=16, bias=True)
  (fc31): Linear(in_features=16, out_features=500, bias=True)
  (fe3): Linear(in_features=300, out_features=500, bias=True)
  (gmfc40): Linear(in_features=500, out_features=1, bias=True)
  (gmfc41): Linear(in_features=500, out_features=5, bias=True)
  (gmfc42): Linear(in_features=5, out_features=500, bias=True)
  (gmfe40): Linear(in_features=300, out_features=500, bias=True)
  (gmfe41): Linear(in_features=300, out_features=500, bias=True)
  (fc50): Linear(in_features=500, out_features=7, bias=True)
  (fc51): Linear(in_features=7, out_features=500, bias=True)
  (fe5): Linear(in_features=300, out_features=500, bias=True)
  (fc60): Linear(in_features=500, out_features=14, bias=True)
  (fc61): Linear(in_features=14, out_features=500, bias=True)
  (fe6): Linear(in_features=300, out_features=500, bias=True)
  (fc70): Linear(in_features=500, out_features=6, bias=True)
  (fc71): Linear(in_features=6, out_features=500, bias=True)
  (fe7): Linear(in_features=300, out_features=500, bias=True)
  (fc80): Linear(in_features=500, out_features=5, bias=True)
  (fc81): Linear(in_features=5, out_features=500, bias=True)
  (fe8): Linear(in_features=300, out_features=500, bias=True)
  (fc90): Linear(in_features=500, out_features=2, bias=True)
  (fc91): Linear(in_features=2, out_features=500, bias=True)
  (fe9): Linear(in_features=300, out_features=500, bias=True)
  (gmfc100): Linear(in_features=500, out_features=1, bias=True)
  (gmfc101): Linear(in_features=500, out_features=5, bias=True)
  (gmfc102): Linear(in_features=5, out_features=500, bias=True)
  (gmfe100): Linear(in_features=300, out_features=500, bias=True)
  (gmfe101): Linear(in_features=300, out_features=500, bias=True)
  (gmfc110): Linear(in_features=500, out_features=1, bias=True)
  (gmfc111): Linear(in_features=500, out_features=5, bias=True)
  (gmfc112): Linear(in_features=5, out_features=500, bias=True)
  (gmfe110): Linear(in_features=300, out_features=500, bias=True)
  (gmfe111): Linear(in_features=300, out_features=500, bias=True)
  (gmfc120): Linear(in_features=500, out_features=1, bias=True)
  (gmfc121): Linear(in_features=500, out_features=5, bias=True)
  (gmfc122): Linear(in_features=5, out_features=500, bias=True)
  (gmfe120): Linear(in_features=300, out_features=500, bias=True)
  (gmfe121): Linear(in_features=300, out_features=500, bias=True)
  (fc130): Linear(in_features=500, out_features=40, bias=True)
  (fc131): Linear(in_features=40, out_features=500, bias=True)
  (fe13): Linear(in_features=300, out_features=500, bias=True)
  (fc140): Linear(in_features=500, out_features=2, bias=True)
  (fc141): Linear(in_features=2, out_features=500, bias=True)
  (fe14): Linear(in_features=300, out_features=500, bias=True)
)
LGAN_discriminator(
  (Dropout): Dropout(p=0.5, inplace=False)
  (input): Linear(in_features=135, out_features=500, bias=True)
  (inputbn): BatchNorm1d(500, eps=1e-05, momentum=0.1, affine=True, track_running_stats=True)
  (fc0): Linear(in_features=500, out_features=500, bias=True)
  (bn0): BatchNorm1d(500, eps=1e-05, momentum=0.1, affine=True, track_running_stats=True)
  (output): Linear(in_features=500, out_features=1, bias=True)
)
------ng : 0-------
generator loss: 0.00942353904247284
discriminator loss: -0.0025028586387634277
------ng : 100-------
generator loss: 0.0009923866018652916
discriminator loss: -0.005469087511301041
------ng : 200-------
generator loss: -6.968384695937857e-05
discriminator loss: -0.004581722430884838
------ng : 300-------
generator loss: -0.0013751336373388767
…
