train row : 30148
sample row: 30148
VGAN_generator(
  (input): Linear(in_features=256, out_features=100, bias=True)
  (inputbn): BatchNorm1d(100, eps=1e-05, momentum=0.1, affine=True, track_running_stats=True)
  (fc0): Linear(in_features=100, out_features=100, bias=True)
  (bn0): BatchNorm1d(100, eps=1e-05, momentum=0.1, affine=True, track_running_stats=True)
  (fc1): Linear(in_features=100, out_features=100, bias=True)
  (bn1): BatchNorm1d(100, eps=1e-05, momentum=0.1, affine=True, track_running_stats=True)
  (fc2): Linear(in_features=100, out_features=100, bias=True)
  (bn2): BatchNorm1d(100, eps=1e-05, momentum=0.1, affine=True, track_running_stats=True)
  (output): Linear(in_features=100, out_features=105, bias=True)
  (outputbn): BatchNorm1d(105, eps=1e-05, momentum=0.1, affine=True, track_running_stats=True)
)
VGAN_discriminator(
  (input): Linear(in_features=105, out_features=300, bias=True)
  (Dropout): Dropout(p=0.5, inplace=False)
  (fc0): Linear(in_features=300, out_features=300, bias=True)
  (fc1): Linear(in_features=300, out_features=300, bias=True)
  (output): Linear(in_features=300, out_features=1, bias=True)
)
(0, False, 105)
-----------Epoch 0-----------
iterator 100, D_Loss:0.4857894480228424, G_Loss:7.462704658508301

iterator 200, D_Loss:0.48962971568107605, G_Loss:9.77785873413086

iterator 300, D_Loss:0.43852829933166504, G_Loss:10.67105484008789

iterator 400, D_Loss:0.45770353078842163, G_Loss:10.965296745300293

iterator 500, D_Loss:0.5156439542770386, G_Loss:11.027846336364746
…
iterator 4200, D_Loss:0.8543240427970886, G_Loss:2.696610450744629

iterator 4300, D_Loss:0.8792979717254639, G_Loss:2.993906021118164

iterator 4400, D_Loss:0.8342722058296204, G_Loss:2.6673593521118164

iterator 4500, D_Loss:0.8268954157829285, G_Loss:3.1091442108154297

iterator 4600, D_Loss:0.7585685849189758, G_Loss:3.014112949371338

iterator 4700, D_Loss:0.8133978843688965, G_Loss:3.1037232875823975

iterator 4800, D_Loss:0.7472900152206421, G_Loss:2.8427815437316895

iterator 4900, D_Loss:0.7502809762954712, G_Loss:2.8745083808898926

iterator 5000, D_Loss:0.7834189534187317, G_Loss:2.826456069946289

VGAN_generator(
  (input): Linear(in_features=128, out_features=300, bias=True)
  (inputbn): BatchNorm1d(300, eps=1e-05, momentum=0.1, affine=True, track_running_stats=True)
  (fc0): Linear(in_features=300, out_features=300, bias=True)
  (bn0): BatchNorm1d(300, eps=1e-05, momentum=0.1, affine=True, track_running_stats=True)
  (fc1): Linear(in_features=300, out_features=300, bias=True)
  (bn1): BatchNorm1d(300, eps=1e-05, momentum=0.1, affine=True, track_running_stats=True)
  (output): Linear(in_features=300, out_features=105, bias=True)
  (outputbn): BatchNorm1d(105, eps=1e-05, momentum=0.1, affine=True, track_running_stats=True)
)
VGAN_discriminator(
  (input): Linear(in_features=105, out_features=100, bias=True)
  (Dropout): Dropout(p=0.5, inplace=False)
  (fc0): Linear(in_features=100, out_features=100, bias=True)
  (fc1): Linear(in_features=100, out_features=100, bias=True)
  (fc2): Linear(in_features=100, out_features=100, bias=True)
  (output): Linear(in_features=100, out_features=1, bias=True)
)
(0, False, 105)
-----------Epoch 0-----------
iterator 100, D_Loss:0.5784619450569153, G_Loss:8.825745582580566

iterator 200, D_Loss:0.5284421443939209, G_Loss:10.022178649902344

iterator 300, D_Loss:0.5003259778022766, G_Loss:8.482976913452148

iterator 400, D_Loss:0.5236570835113525, G_Loss:7.368826866149902

iterator 500, D_Loss:0.49445798993110657, G_Loss:6.362362861633301
…
